src/moveit_control/model_transform.pth (torch, 223623 bytes, 10 tensors)

weight_ih_l0 f4 [256, 15]
00000000: 82fd 2bbe e56f 2d3e e421 5c3e 3c52 dc3d
00000010: d9e3 c73e ed0a 0ebf 6b3a 763e 5e29 e83b
00000020: c5e4 9dbe 05e2 9fbd 436f 8abd 0622 0bbe
00000030: c3be 76bc 86f1 67bb 3dde febd 65c5 68bd
00000040: 98b2 713e e144 16be 4230 81bd 0cac cdbc
00000050: 49c0 943e be46 173e dc91 51bf 535d abbd
00000060: a812 e83d 0a65 a13e 2db7 f6be e255 073d
00000070: 3470 f03d 5ea6 5d3e bed1 28be 327e 083e
00000080: e806 30bf b04b b33e e255 be3e 65ff 313e
00000090: ae88 82be 4b3e cd3c 5410 8ebe 6341 cb3e
000000a0: a991 19bf 088c 693e 996d 7c3c de59 12be
000000b0: 1057 463d fa39 8e3d bca4 89bd 7321 f73d
000000c0: d6bf 833c 0eb4 db3d 9fc1 50be 7e97 4d3d
000000d0: 5e05 fb3c 38ba 0dbd ca0a 18bd 72f1 da3d
000000e0: 0e61 ed3b 51ad 963d 4d4f c9bd a5eb 3c3e
000000f0: d03d 683e 60bc 503e 3a9f 01be cb41 093f
00000100: 1160 c93e 9354 813e d53b 29be 8565 6b3d
00000110: 6803 debd 84d8 2e3f a0d9 38be fb32 4dbe
00000120: b24e 7dbe 21e2 38be 53db cb3d 368f 233e
00000130: 332b a4bd 5059 343e 1eb0 8b3d 1693 063d
00000140: 231d 903c d067 4dbe 2120 2abe 5d70 b6be
00000150: 08d2 b3bd c773 ffbd 3224 3b3e b434 903d
00000160: e1d1 d0bd 5537 da3e 500a 9ebe 5371 3c3e
00000170: f57e b4ba 65ce ccbd 8a56 a3be 6798 a93b
00000180: e686 2bbe 41df 6b3c 1eb9 0e3e a91d b73e
00000190: 5cc1 14be 2f95 ab3c 10ec b3be 234c a63e
000001a0: 0cd5 663d eebb adbd 6885 0bbe c4ee 153d
000001b0: 7bc1 903d e702 be3c bd0c 89bd fed3 4d3e
000001c0: 525d 7cbe 40a5 e13c dc43 f53d 42c6 2fbe
000001d0: eaf3 4abe a576 f83d 92dc 76be 16e0 d33e
000001e0: 6239 a2be f28d 843e 5551 e73d 01dd 3f3e
000001f0: 682e 2b3e 2f67 afbe 66af 113e dde9 aa3e
00000200: ebc6 e3be b27e 813e 26ab 283e 20f4 04bc
00000210: 2a25 a4bd 8581 b9be e2c5 bb3e 30aa 0a3e
00000220: 18d4 0ebe b7fb 5dbe 95c3 5b3e 21c7 8abe
00000230: c625 d33d e6e2 74bd af18 403c 9129 2b3e
00000240: f5dc 153f 03a2 eebe b8e3 6d3e 9861 ebbe
00000250: 1714 05be a979 b8be 3171 b7be a29d 3e3d
00000260: c45a c9bd bc99 9abe 4248 513d fa1d 34bf
00000270: 7e00 9c3e a68c 2bbd b8e8 28bf edfb d53c
00000280: c6f4 a33e 3d73 c93d b042 de3e de68 18bf
00000290: 5c93 41bd 4a68 43be 4484 f1bd 1e68 40be
000002a0: 6f19 933e 66b1 15bd 8aaf 07bd 2bb7 583e
000002b0: 2efa 0fbe c3c0 57be fa92 0cbd 53db adbd
000002c0: d4a8 d8bc 1bd1 10be 8e9d 76be 596c e1bb
000002d0: a35e 0c3f a9d8 413e bcd2 0e3e 433e 28be
000002e0: fb13 b6be 7cca e33d 33f0 843e 9269 e23e
000002f0: e986 d9be 5a0a 4dbf 84de d63d 9a9f f33e
00000300: 44b3 55be 34a7 68bd 3b65 163f 2476 f3bd
00000310: fcc9 583d 06c1 bd3d e3a1 bf3d a419 8ebe
00000320: 8521 eb3c 4aa7 ee3d 6806 eebd e8df fdbe
00000330: 4b6c e4be ad6e 4e3b b2ec 2c3e 9957 ccbe
00000340: e646 9bbe 184e bebd c67c 893d 236e 123f
00000350: 3bd5 55be 2f2c de3e 4d42 b23e b068 03bd
00000360: 962f 293e 151a 393e cfb1 e0be 18eb 0dbf
00000370: 98eb 8abe 55d2 e33d 3601 1dbf 7462 80be
00000380: 196d e5bd 7911 edbe 6770 9b3c 551d 8c3e
00000390: 7895 b8be 0ea0 a43e 4501 613f a667 183e
000003a0: c50a a7bd b59f 87be 5dd0 e1be 41a7 1bbd
000003b0: d22f 26bd 117c 90bb cb51 8fbf 5d7e 353e
000003c0: 90c5 35be 2f60 02bf 028d 733f ce29 cb3d
000003d0: 0eef de3d 0414 113e 2c1f 823e dfbe 9a3e
000003e0: dac9 1abf 6092 513c 8575 253f 66c5 80bf
000003f0: 245b 1fbf 4806 d2bd af0c ab3e 3e18 f1bd
-0.16795924 0.16937216 0.21497303 0.107578725 0.3904102 -0.5548542 0.24045722 0.0070850095
-0.308386 -0.07806782 -0.06759503 -0.13587198 -0.01506013 -0.0035391762 -0.12444732 -0.056828875
0.23603284 -0.14674713 -0.063080326 -0.025106452 0.29052952 0.1477308 -0.8186319 -0.083674096
0.113316834 0.315224 -0.48186627 0.03304089 0.11740151 0.21645495 -0.1648626 0.1332939
-0.6876054 0.35018682 0.37174898 0.17382582 -0.25494903 0.025054118 -0.27746832 0.39698324
-0.59987885 0.22807324 0.0154069895 -0.14292094 0.048422873 0.06944652 -0.06720874 0.12066927
0.016082685 0.10727702 -0.2038636 0.050193302 0.030642208 -0.03460142 -0.037119664 0.10690583
0.007244236 0.07357276 -0.098295785 0.18449266 0.2267983 0.2038436 -0.12658396 0.5361602
0.39331105 0.25259838 -0.1652673 0.057469863 -0.108404934 0.68299127 -0.18051767 -0.20038979
-0.24737051 -0.18055011 0.09953942 0.159726 -0.08016052 0.17612195 0.06820701 0.032855116
0.017592018 -0.20059133 -0.16613819 -0.356326 -0.08780295 -0.12473255 0.18275526 0.07041302
-0.10196281 0.4262034 -0.30867243 0.18402605 -0.0013770746 -0.10000304 -0.31901962 0.0051756385
-0.16750678 0.01439649 0.13937804 0.35764816 -0.14526886 0.02094516 -0.3514104 0.32479963
0.05635552 -0.0848311 -0.13625109 0.036604658 0.070681535 0.023194743 -0.06691883 0.201004
-0.24644974 0.027544618 0.11975834 -0.17165473 -0.19819608 0.12132005 -0.24107578 0.41381902
-0.31684405 0.25889546 0.1129481 0.1873665 0.16716921 -0.3425841 0.14227065 0.3338155
-0.444877 0.25291973 0.16471538 -0.008114845 -0.08014901 -0.36231628 0.3667441 0.13541484
-0.13948095 -0.21678053 0.21461327 -0.27105048 0.10309939 -0.0597867 0.011724635 0.16715075
0.5854028 -0.4660798 0.23231399 -0.45972896 -0.12995945 -0.3603032 -0.35828546 0.04653705
-0.09831765 -0.30195415 0.0510943 -0.7035824 0.30469126 -0.04188218 -0.659801 0.026121104
0.32022685 0.09836433 0.43410254 -0.59535015 -0.047259673 -0.19082752 -0.11792806 -0.18789718
0.28730342 -0.036546133 -0.03312639 0.21163623 -0.1406028 -0.21069627 -0.034319855 -0.084890984
-0.026447691 -0.14142267 -0.2408354 -0.006879371 0.54831904 0.18930306 0.13947576 -0.16430001
-0.3556212 0.11122605 0.25964507 0.4422117 -0.4248574 -0.8009392 0.1049166 0.47582704
-0.20869166 -0.056800082 0.58748215 -0.11887768 0.052927002 0.09265332 0.09357049 -0.27753937
0.028702507 0.116530016 -0.11622316 -0.4958489 -0.4461387 0.0031499073 0.16887167 -0.39910582
-0.3032753 -0.09292239 0.06713252 0.57199305 -0.20882122 0.43393084 0.34816208 -0.03208226
0.16522059 0.18076356 -0.43885657 -0.5543685 -0.2713287 0.11124102 -0.6132997 -0.25075114
-0.11202449 -0.46302393 0.018974496 0.2736613 -0.36051536 0.32153362 0.8789256 0.14883289
-0.08156351 -0.26489034 -0.4410428 -0.038001303 -0.04057295 -0.004409321 -1.1196836 0.17723985
-0.17751145 -0.50928015 0.95137036 0.09920083 0.1088544 0.14167792 0.25414407 0.30223748
-0.6046425 0.012791246 0.64632446 -1.0060241 -0.62248445 -0.10255104 0.33408114 -0.11772202

weight_hh_l0 f4 [256, 64]
00000000: 8916 1bbe 208b 0dbf 61cb 98bf 0c01 963e
00000010: 1ebb 1d3e cbb1 0cbd 39f6 af3e 948d a5bc
00000020: 6df0 95be 388d 3b3f 1d44 b3be 1ef1 623f
00000030: 3fdc 4a3e 67f5 cbbd f7b5 ffbc 6925 fb3d
00000040: 3e03 bdbe 8f1c 87be 2a2b a43e bf5c 443f
00000050: 23ed 8abe cf18 8cbd 722a 3d3e 652e bd3e
00000060: 8442 7abe b40d b03e 080f 6ebe 363b fbbd
00000070: ce87 403e 299f f33d 2596 f1be 2715 38bf
00000080: 9f45 c9be 74da eabd 76de 88be 6f0d b8be
00000090: bdd5 8cbd df94 d83e 2dd6 fb3e 880f c3bd
000000a0: faa0 383e 5934 25be c019 473f e2ee d3bd
000000b0: 8ce5 ad3d 1d82 d43d 02ce a93c aa14 2a3f
000000c0: 1007 5bbe 1dda 533e d33c 59be f6de 163e
000000d0: 256b cd3e abdf 1a3e 2210 923d a8ce bb3e
000000e0: e5b9 b3be 3467 b2be 2374 d23e 850d 3ebf
000000f0: 30c1 9b3e 6a6a 3d3f 53fb aaba a439 8bbe
00000100: 8c13 e0bc d4d8 bf3e 3a4c 54be e0a1 80bd
00000110: 6c35 88be 3716 c03d 33b5 073e fc4f 01be
00000120: be70 3d3e fe1f d5be baae 19bf db6c 023e
00000130: ff09 e5be d45c f73d 7756 6d3e 4092 78bc
00000140: e3ba b5bd e8c9 ba3e 7bab cdbd a57e 443f
00000150: c7d6 e4be 019f c9bd 6590 cfbd eaa4 c0be
00000160: dd27 543c b47b e13e 394f 77be e884 373e
00000170: c894 b2be 91f9 193f 39a2 77be 89b9 36be
00000180: 99e9 1cbf 88fd 143b d206 15bd 0be6 d93e
00000190: 07cb dabe 4fda cf3e 21fc 1bbe bbad 64bd
000001a0: 1dfa 6e3e de27 9f3e 5ce5 52bc 2d15 233f
000001b0: e79f c3bd b0b5 b83d 2217 42bd 763b 343c
000001c0: 150d 07bd 5ac9 cc3c a0a3 c8be 685a 00bd
000001d0: dc41 3c3c 68bb a73d bf97 1bbe 4558 433e
000001e0: 386f 38bd 23ff 923d 6af8 9f3e 98da 31be
000001f0: 1864 613f 0c79 d93d f8cc edbd 29d4 4e3e
00000200: 75b5 da3e fc6f d53d ffc2 d33d 3965 963e
00000210: c903 9cbe 6de6 b1bd 15d7 b93e 1ccd d6be
00000220: 1c09 983e ecf4 a93e 24f2 99be 8110 20be
00000230: bd91 0ebe e8d5 64bc b540 40be 983d 17bf
00000240: 38df cc3e 12f4 da3d 6c2d 583e 91ae 5b3f
00000250: bd9b faba d40a ad3e 36b3 8abe 6f96 99be
00000260: 2486 ca3e 85bf 45bf d1b9 68be 2a2e e63e
00000270: ee4d 6ebf 2423 d7bd f764 433f 65e8 c03e
00000280: 299f 513e f8e7 babe f938 06be b064 b43d
00000290: 6285 2d3e b5fe bebe 0f6b 65bd f00f e43e
000002a0: 46fa c0bd 2265 593e 234f 2d3d b2cc 94bd
000002b0: 7f6b ca3e 3cf1 dbbc ae4b 4d3f 391e 143d
000002c0: 1ead db3d c8b6 34be d978 8cbe 6825 2bbe
000002d0: 1010 ddbe 35b1 d43e 3bcd 103f 3708 c0be
000002e0: a847 833e d6ac a63e 9e7a 45bf 5cbf 343e
000002f0: 7e41 18be 0be8 053f 1b87 0bbf a27b 003f
00000300: 3e45 3e3e 0162 ab3d 9328 45bd ce03 c93d
00000310: b472 ed3d cc46 c83a 67fc fcbe 1281 00bd
00000320: 84bf efbc a25a 9b3e a6bb 9a3e 9156 f53d
00000330: a966 f43e ecf0 44bd 9f37 d9bd 98bf 093e
00000340: 2176 0e3e c59b 0d3f 3f8b 243e 896c 78bc
00000350: 7002 1f3e bca4 05be 1b88 0abf a703 f43e
00000360: 1a8d 223c b7c3 3a3e 781b 8ebe 4621 053f
00000370: 821a 9a3c bfe4 ab3e 36af 3bbf f05c 9abd
00000380: fd14 363f 27a1 bbbe 2949 27bf 812b f8be
00000390: 0038 71be f0b2 03bf be53 1cbf 9b60 b0be
000003a0: 500a 583f cc77 c4be b04b 5a3e efa5 433f
000003b0: bf6d 3abf 9f38 0d3f fa53 ba3e 63cc e63e
000003c0: 5bb1 023e 8c92 a03e d953 b53d ec28 92be
000003d0: 256e 12be fd63 e23e 6807 3b3e ed14 d6be
000003e0: e22b ae3e da8e 3bbe 9c57 0abf def6 d03d
000003f0: 7868 f23c 5970 0cbf 8d7a b6be cc62 94bc
-0.15145315 -0.5529041 -1.1937066 0.29297674 0.15403411 -0.034349244 0.3436754 -0.020209111
-0.29284993 0.7326236 -0.35012904 0.88649166 0.1981058 -0.09958916 -0.031214697 0.12262995
-0.36916536 -0.26388976 0.32064182 0.7670402 -0.27134046 -0.06840669 0.18473223 0.3694946
-0.24439436 0.34385455 -0.23247921 -0.12267153 0.18801805 0.11895592 -0.47184864 -0.71907276
-0.3931093 -0.11467448 -0.26732224 -0.3594775 -0.06876705 0.4230108 0.4918684 -0.09524447
0.18030158 -0.1613325 0.77773666 -0.10348298 0.08491048 0.1037638 0.020728115 0.6643778
-0.21389413 0.20688672 -0.21214609 0.1473349 0.40120807 0.15124385 0.07131983 0.36681104
-0.35102764 -0.34844363 0.4110423 -0.7423938 0.30420828 0.739905 -0.0013044871 -0.27192414
-0.02735307 0.37470114 -0.20732203 -0.06280875 -0.26603258 0.09379237 0.13252716 -0.12628168
0.18500039 -0.4162597 -0.60032237 0.12736838 -0.4473419 0.120782524 0.23177515 -0.0151715875
-0.088735364 0.36482167 -0.10042473 0.76755744 -0.44695112 -0.09844781 -0.10134963 -0.3762582
0.012948957 0.4403969 -0.24151315 0.17921793 -0.34879136 0.60146433 -0.24182977 -0.17844214
-0.6129394 0.0022734124 -0.036383457 0.4255832 -0.42733023 0.40596244 -0.15232898 -0.055829745
0.23337598 0.31085104 -0.012872066 0.63704187 -0.09551983 0.09019029 -0.047385342 0.011000505
-0.03297146 0.024998356 -0.39187336 -0.031336218 0.0114903115 0.08190042 -0.15194605 0.19076641
-0.04502794 0.0717757 0.31244212 -0.17368543 0.88043356 0.10618791 -0.1161136 0.2019812
0.42716566 0.1042175 0.10339927 0.29374102 -0.30471638 -0.08686528 0.36296907 -0.4195336
0.2969445 0.33194673 -0.3006755 -0.15631296 -0.13922782 -0.013967015 -0.18774684 -0.5907836
0.40014052 0.10691084 0.21111077 0.8581324 -0.00191199 0.33797324 -0.27089852 -0.29997584
0.39555466 -0.7724536 -0.22727133 0.44957095 -0.9308766 -0.105047494 0.76325935 0.37677303
0.20470871 -0.36505103 -0.13107671 0.08808267 0.16945413 -0.373037 -0.056010302 0.4454341
-0.09422736 0.21229985 0.0423118 -0.07265605 0.39535138 -0.026848428 0.80193603 0.036161635
0.10726379 -0.1764785 -0.2743595 -0.16713488 -0.43176317 0.41541448 0.56563157 -0.37506267
0.25640607 0.32553738 -0.77140224 0.17651123 -0.14868733 0.52307194 -0.5450303 0.5018865
0.18581101 0.08368302 -0.048134398 0.09815179 0.115941435 0.0015279888 -0.49411318 -0.03137309
-0.029266126 0.30342585 0.3022129 0.11979402 0.47734573 -0.048081324 -0.10606312 0.13451993
0.1391225 0.5531581 0.16068743 -0.015162596 0.15528274 -0.13051122 -0.5411393 0.47659037
0.009921337 0.18238722 -0.27755332 0.52003896 0.018811468 0.33572957 -0.73314226 -0.07537258
0.71125776 -0.36646387 -0.6534601 -0.4847069 -0.23556519 -0.5144491 -0.6106528 -0.34448704
0.84390736 -0.38372648 0.21317935 0.7642507 -0.7282371 0.5516452 0.36392194 0.4507781
0.12762968 0.31361806 0.08853883 -0.28546846 -0.1429983 0.4421691 0.18264544 -0.4181284
0.34017855 -0.18316212 -0.5403993 0.10203336 0.02959083 -0.5485893 -0.35640374 -0.018113516

bias_ih_l0 f4 [256]
00000000: f80b c3be 740b ebbe ab01 06bf eb99 09be
00000010: 17f7 023e db7e 0ebe 687b c23b d124 76be
00000020: dc99 d4be e2eb 05bf 6e23 f2be 9fcf 8e3d
00000030: 492c 36bf b19e 08bf c368 92be 8f9a 8f3e
00000040: e6cc c7bd 88c7 dbbe 491b 9bbe 5175 90be
00000050: 852f 91be 34cc 05bf eea7 c8bc 365b 09bf
00000060: 1b5e 09bd 53e8 23be 4cba 023f 71cd fcbe
00000070: 3fe9 55be 1e06 bcbe 3b52 cebe dcfa 2abc
00000080: 6e93 88be 5545 dabe 16c7 9abe 84f8 a2be
00000090: af1c b4be 937a fabd 0aba 88be 4c28 07bf
000000a0: 2fe4 c4be 84eb 95be 1ef4 92be 3279 94be
000000b0: 4a58 2ebe 64ef dfbd ac13 43bf e1eb a6be
000000c0: 111f c1be a839 a8bd 5d24 8ebe 6c13 dabe
000000d0: c9e3 1fbd 631f 3d3e 8f78 7ebe 74f5 a3bd
000000e0: e724 74be a52a 1cbf 52cf b8be 0f24 85be
000000f0: 0d96 5bbe 5b28 56bf 68dd 9ebe 97c8 01bf
00000100: 34b8 5abf 718b 6cbf c63b f5be 72f5 86be
00000110: b898 49bf 2812 84bf 12d6 ebbe 71bd 9ebe
00000120: d0ac 6bbf df25 cdbf 66eb 40be a9db 46bf
00000130: 2afa 9bbf 2698 2bbf d073 26bf 1862 6cbe
00000140: 6f50 78be 6888 8abf f52b 69bf be6e b8be
00000150: 7769 66bf aa1a 11bf 825a 0fbf 12ff f4be
00000160: 69a1 f0be 4016 42be 54a8 0cbf bb59 25bf
00000170: a8e8 78bf 5c5f 1fbf 1c8e 68bf ea45 8fbe
00000180: e021 083e 3ee6 63bf be37 dcbe 6943 06bf
00000190: ca47 ecbe 08d3 c53e 549c 1abf fa18 d4be
000001a0: 8a0d 43bf b5f9 85bd 6254 d8bd 9dac fcbe
000001b0: b4a1 fbbe 05e9 7cbe b026 adbf 40a7 c8be
000001c0: 2861 9b3f 2ab0 08bf 7297 423d 2424 86bf
000001d0: c9b5 933e 93e5 babf 9ffb e03e a98a 68bf
000001e0: 9ee0 c83e 7fe8 3cbf bfbf 65bf 1353 1dbf
000001f0: 925d 74bf d992 2bbf 7f48 5abf e93e f8be
00000200: bbae cb3e 97de a6be e4fc 8b3e 7b58 30be
00000210: 8d1b 783d f5cb c8bd 052f 4e3e 3f62 02be
00000220: ff30 543d 0680 fa3d 64df 243f 5c3b 87bd
00000230: d3e1 b43d 11db cd3d be58 46be 3ff0 963d
00000240: 98af 813d a97f 25bd 0ca8 c1bd 08ad e1be
00000250: fe3b 0d3d 67cf b2bc 6ad8 09be c3f1 bf3e
00000260: d725 83be 5c38 9d3e 58ae 833e dccc 6e3d
00000270: ed91 113f 51c9 a7bd e9a7 e8be 5109 e53c
00000280: a340 a4bd 555f 5e3e 2edf a33e 7fb3 6b3e
00000290: 8178 923e b92f 553f 1d54 b23d 31f1 a0be
000002a0: 4f6c aebe 51f3 b3bd 4335 e73d dc08 13bf
000002b0: f46f e93e 427c d73b 4a27 adbe b1d2 de3d
000002c0: 58c5 4cbe 4c44 61bd 717c 633e 3c8a 823d
000002d0: 57ac b53e 9827 cbbd ff8b 043d a78b b73d
000002e0: 0841 7abd 76e2 87be 947d 6b3d 38ed b13d
000002f0: a941 e1be 469c 38bc 5a50 8e3e 8215 0dbc
00000300: a38d e8be 72cd 15bf fc34 62be 0a4c 9a3e
00000310: 7307 a2be da08 913d cd3b 3fbe d912 b33c
00000320: e612 9fbe b951 4cbf 4b97 54bf 814b e93e
00000330: d073 8dbf 51cd d8be d7b7 dbbe 1139 e0be
00000340: 1a80 3dbf 56dd 34bf 77ad 21bd 8b09 cdbe
00000350: d159 3abf 695b 05bf 4c5b 6dbe 4bf3 b7be
00000360: 7ae8 25bf 2199 6cbe 25da 09bf 0a4a 99be
00000370: f688 153e c7ac 00bf 8fe2 1bbf daf6 00be
00000380: b8b6 18bf 7ae9 4ebd 7be7 bb3e 2dc1 d1be
00000390: 7712 b73e fe4e e63c ab63 e0be 9a62 28bf
000003a0: d89b 80bd 7664 153e 8dca a03d ea45 08bf
000003b0: 2726 4d3c 1ef3 80be f5b9 0bbf 2ae0 fdbe
000003c0: 1a27 1e3f d8b5 d5be 8414 6f3e 5976 bdbe
000003d0: 4e80 d03e 3723 41bf c2ee 413e e36d 1abf
000003e0: e950 b6be e7f0 33bf 49c3 2abf 8f0f dcbe
000003f0: d9f5 5dbe a769 e4be 9be8 e7be 5bb9 58bf
-0.3809507 -0.45907176 -0.52346295 -0.13437621 0.1278957 -0.13915579 0.0059351213 -0.24037482
-0.41523635 -0.52313054 -0.47292656 0.06973194 -0.71161324 -0.53367144 -0.28595552 0.28047606
-0.09755878 -0.42925668 -0.30294254 -0.28214505 -0.28356567 -0.52264714 -0.024494138 -0.536548
-0.03353701 -0.16006593 0.51065516 -0.4937549 -0.20889758 -0.36723417 -0.40297112 -0.010435786
-0.2667498 -0.4263102 -0.30230016 -0.31830227 -0.35178134 -0.122304104 -0.26704437 -0.52795863
-0.3845534 -0.29281247 -0.28701872 -0.28998715 -0.17025867 -0.10934332 -0.7620189 -0.32601836
-0.37719014 -0.08214122 -0.27762118 -0.42592943 -0.039035592 0.18469004 -0.24850677 -0.08005801
-0.23842202 -0.6100257 -0.36095673 -0.26004073 -0.21443959 -0.8365533 -0.31028295 -0.506967
-0.8543732 -0.9240027 -0.47897166 -0.26359135 -0.78748655 -1.0318041 -0.4606176 -0.31003907
-0.92060566 -1.6027182 -0.18839797 -0.77678925 -1.2185719 -0.67029035 -0.65020466 -0.23084295
-0.24249433 -1.0822878 -0.910827 -0.3602199 -0.90004677 -0.5668131 -0.5599748 -0.47850853
-0.46998146 -0.189538 -0.5494435 -0.6459004 -0.97230005 -0.6225488 -0.9084184 -0.27983028
0.13294172 -0.89023197 -0.43011278 -0.5244661 -0.4614852 0.38637567 -0.6039479 -0.41425306
-0.76192534 -0.065417685 -0.1056297 -0.49350443 -0.49146807 -0.24698265 -1.3527431 -0.39190102
1.2139025 -0.53393805 0.04750771 -1.0479779 0.2884963 -1.460131 0.43941972 -0.9083658
0.3923387 -0.7379226 -0.89745706 -0.61454886 -0.95455277 -0.67020947 -0.8526687 -0.48485497
0.39781746 -0.32591698 0.27341378 -0.17221253 0.06057315 -0.09804527 0.20135124 -0.1273279
0.05180454 0.1223145 0.6440337 -0.06603119 0.08832135 0.10051549 -0.1936979 0.07370042
0.0633232 -0.04040495 -0.094558805 -0.44077325 0.03448104 -0.021827413 -0.13461462 0.37489137
-0.25614807 0.3070706 0.2571895 0.058300838 0.5686329 -0.08192695 -0.45440605 0.027958544
-0.08020141 0.21716054 0.3200621 0.23017691 0.28607562 0.83275944 0.087074496 -0.31434014
-0.34067008 -0.08786643 0.11289456 -0.57435393 0.45593226 0.006576092 -0.33819038 0.1088003
-0.19997156 -0.054996774 0.2221544 0.06374022 0.35483047 -0.09919661 0.032360073 0.089621834
-0.061097175 -0.26539963 0.057492808 0.08687824 -0.43995407 -0.011267727 0.27795678 -0.008611085
-0.4542056 -0.5851661 -0.22090524 0.30136138 -0.31646308 0.070817664 -0.18675156 0.021859573
-0.31069106 -0.798122 -0.83043355 0.45565417 -1.1050968 -0.42344144 -0.42913696 -0.43793538
-0.7402359 -0.7065023 -0.03947207 -0.40046343 -0.727933 -0.52092606 -0.23179358 -0.35927805
-0.64807856 -0.23105289 -0.5384849 -0.299393 0.14603028 -0.5026364 -0.60892576 -0.12594166
-0.59653807 -0.05051563 0.36700043 -0.40967694 0.35756275 0.028113838 -0.4382604 -0.65775454
-0.06279725 0.14589104 0.078511335 -0.5323168 0.012521303 -0.25185484 -0.5458062 -0.49585086
0.61778414 -0.41740298 0.2334767 -0.37004355 0.4072289 -0.7544436 0.18938735 -0.60323924
-0.35608605 -0.7028946 -0.6670423 -0.4298062 -0.21675815 -0.44611856 -0.4529465 -0.8465783

bias_hh_l0 f4 [256]
00000000: 7507 cbbe 596b ffbe 77b3 b1be 2c05 0dbe
00000010: e3c4 21bd a44b 16bd 0936 af3c 43c1 71be
00000020: 344a d5be ef68 ecbe 2f67 99be 296f d8bd
00000030: 1596 4cbf fcb8 03bf 11b4 c3be 3d04 553e
00000040: 0a84 99bd 5bf0 c9be 578b 48be e93e a2be
00000050: fa55 c6be 8c0b ffbe 13cd bcbd c4a7 fbbe
00000060: 0e74 993d 12f7 29be bd8b dc3e 6b6f c4be
00000070: e351 fcbd ff4a c7be f8bb f0be 921e e9bc
00000080: ce5a c2be 6d31 d0be c2ad b3be a78f b4be
00000090: 515d 52be 2d30 08be 59d2 8abe 86dc 26bf
000000a0: 8dbc b1be c1ca 95be 1739 ccbe 8db1 74be
000000b0: ca47 adbe 232c 9abd 1b9c 1bbf 237a d2be
000000c0: 0ea2 91be e9cf 87be 1319 0bbe ca50 fcbe
000000d0: 70ff 7abe 84a7 3a3e 4bb7 93be 8e7a 96bd
000000e0: 6c4c 8fbe 1273 12bf 3b74 d5be 756d 67be
000000f0: ae62 c0bd cb53 50bf 14d2 f4be cfc5 0cbf
00000100: 0274 61bf aaa5 5cbf 8224 d9be d2f9 58be
00000110: 4e08 39bf 767a 8bbf d7d9 cdbe 23bd f0bd
00000120: 8aa2 82bf 178b c2bf 7194 88be a181 3dbf
00000130: ac52 b0bf 09d7 1dbf 7e1d 13bf 051c dbbe
00000140: 9d4a edbe 41d5 89bf 0f2a 6cbf d2c8 fbbe
00000150: db44 63bf e4f4 12bf 3cd6 dcbe f5ee fdbe
00000160: f277 e8be 2d6e 73be accd 16bf 07f3 1dbf
00000170: d22c 76bf 4ea8 38bf e4ee 5bbf db1d 62be
00000180: 5207 0a3e 6c8d 4bbf 9fbd 01bf 57ec 2cbf
00000190: bf86 9ebe 8ab6 d43e 0b91 24bf fa1e 00bf
000001a0: c946 41bf 127e 37bd 28d7 a8be ff73 edbe
000001b0: fa73 3dbf c445 7fbe 1d24 b3bf 1cb7 adbe
000001c0: a763 803f 81cd 2fbf c47e b7bd b414 53bf
000001d0: 87aa 923e f481 bdbf 0633 f63e 0894 87bf
000001e0: 99e6 043f ebcc 40bf f7cc 44bf 8513 47bf
000001f0: bc04 73bf 7360 2ebf 5871 26bf e78e 21bf
00000200: 083d 7f3e 6891 bdbe f431 1c3e 960d a8be
00000210: 0222 0f3e 572a 79be 6725 083e 124e 7cbb
00000220: 17f0 74bc 0012 5d3e 282c 513f bf6a 9ebc
00000230: e38b ac3b e75b c73d 2ff6 aebd a93e 893e
00000240: e541 5bbd 66bc b8bc 16e3 a3bd fab2 c9be
00000250: 03ed 3c3d 8fb8 fd3d 877e 9abe 4ba8 c93e
00000260: 9df1 97be 214e 783e 4182 963d 819d cdbd
00000270: 6eae 2b3f 6074 b1bd fff3 eabe c6c7 11be
00000280: b193 10be d8ed b93e 10c3 fc3e ee2b 923e
00000290: d05b 6d3e 0609 553f d91c 673e e87c a6be
000002a0: 1233 cebe ea92 d8bd f548 5a3d 564b e3be
000002b0: bf31 1d3f 1a7d 73bc 765d 9ebe 8e2a 513e
000002c0: 481d 30be 4614 eabd 7532 a63e 6154 563e
000002d0: 9bb3 d23e 9195 11bd 1947 c0bc 1051 0b3d
000002e0: b412 e3bd cf57 45be f22a de3d 28f3 9c3c
000002f0: ce2e a7be 91ac af3d ce21 093e 072f 21bc
00000300: 975f e4be fecb 01bf 6b26 51be 3cf0 813e
00000310: 2c4e f9be 6190 eabc 8f66 76be 8c31 1dbe
00000320: cb8f c5be 482b 35bf fe1b 4ebf cd02 bc3e
00000330: 9e11 86bf 4dee eebe 84d8 ddbe 8e57 12bf
00000340: 0724 44bf 8019 49bf e4a9 e53d 9e77 f1be
00000350: aceb 15bf e14b 0cbf 708f cabe 703b d9be
00000360: 776d 15bf cbe4 64be 85cd 2bbf 9b59 efbe
00000370: ee60 133e 87e6 aabe 0715 20bf 523c 833c
00000380: 657f cfbe f0e6 34bd 68cd 883e 340d 0bbf
00000390: 28ee 8f3e 2387 de3c 655d f2be 0c70 0cbf
000003a0: e4b3 f3bd c51d 463e e205 b3bd 4829 01bf
000003b0: 8766 6c3d decb c5be c542 f6be 5cb7 eebe
000003c0: 9e33 223f eb91 7bbe 2b11 913e 5932 88be
000003d0: 5706 423e fb69 29bf 180b 3d3e 0472 1cbf
000003e0: 8a36 01bf 67a9 21bf 188e 39bf ea77 e4be
000003f0: 09a5 61be d13d 1fbf b135 23bf a6bb 54bf
-0.39654127 -0.49886587 -0.34707233 -0.13771504 -0.039494406 -0.03669323 0.02138807 -0.2360888
-0.41658175 -0.46173808 -0.29961535 -0.10568077 -0.79916507 -0.5145414 -0.38223317 0.20802398
-0.074958876 -0.3944119 -0.19584404 -0.31688622 -0.3873747 -0.49813497 -0.09218802 -0.49151433
0.07492839 -0.16598156 0.43075362 -0.38366255 -0.12320306 -0.38924405 -0.4701841 -0.02845696
-0.37959903 -0.4066271 -0.35093504 -0.35265848 -0.2054341 -0.13299628 -0.27113608 -0.6518024
-0.34714165 -0.2925625 -0.39887306 -0.23895855 -0.33843833 -0.0752795 -0.60785073 -0.41108808
-0.2844395 -0.2652581 -0.13583784 -0.49280387 -0.24511504 0.18227965 -0.2885078 -0.07347594
-0.27987993 -0.57206833 -0.4169024 -0.22600348 -0.09393822 -0.8137786 -0.47816527 -0.5498933
-0.8806764 -0.86190283 -0.42410666 -0.21189049 -0.72278297 -1.0896747 -0.4020526 -0.11754825
-1.0205853 -1.5198697 -0.26675752 -0.74025923 -1.377523 -0.6165624 -0.57466877 -0.42794815
-0.46345988 -1.0768205 -0.92251676 -0.4917665 -0.8877694 -0.57404923 -0.43132198 -0.49596372
-0.4540401 -0.23772497 -0.5890758 -0.61698955 -0.9616214 -0.7213181 -0.85911393 -0.22081701
0.13479355 -0.7951267 -0.50679964 -0.67548126 -0.30962178 0.41545516 -0.6428382 -0.50047266
-0.75498635 -0.044797964 -0.3297665 -0.4637756 -0.7400509 -0.24928957 -1.3995396 -0.33928764
1.0030411 -0.6867295 -0.089597255 -0.82453465 0.28645727 -1.4805284 0.48085803 -1.059205
0.51914364 -0.7531268 -0.7687525 -0.7776416 -0.949291 -0.6811592 -0.650167 -0.63108677
0.24925625 -0.37025 0.1525343 -0.32822865 0.13977817 -0.24332558 0.13295518 -0.0038498682
-0.01494982 0.21588898 0.81708 -0.01933801 0.0052656992 0.09734326 -0.085430495 0.26805618
-0.05352964 -0.022550773 -0.080022976 -0.3939436 0.04612447 0.123887174 -0.30174658 0.3938621
-0.29676524 0.24248554 0.07349063 -0.10039807 0.67063034 -0.08664775 -0.4588928 -0.14236364
-0.1411884 0.36314273 0.4936757 0.2854914 0.23179555 0.83216894 0.22569598 -0.3251717
-0.4027334 -0.10574897 0.053292233 -0.44393414 0.6140403 -0.0148613695 -0.3093068 0.2042639
-0.1719867 -0.11429648 0.3246037 0.20930625 0.41152653 -0.03554303 -0.023471402 0.034012854
-0.11087552 -0.19271778 0.10848035 0.019158915 -0.32652897 0.08577836 0.13391802 -0.009837872
-0.4460418 -0.5070189 -0.20424812 0.25378597 -0.48692453 -0.028633298 -0.2406256 -0.15350932
-0.38586268 -0.70769167 -0.8051146 0.36720887 -1.0474126 -0.46666184 -0.4332925 -0.5716485
-0.76617473 -0.78554535 0.11214045 -0.47161573 -0.5856273 -0.5480328 -0.3956256 -0.4242816
-0.58370155 -0.22352903 -0.6711047 -0.4674805 0.14392444 -0.33379003 -0.62532085 0.016019974
-0.40526882 -0.04416555 0.26719213 -0.5431702 0.28111386 0.027164048 -0.4733688 -0.5485847
-0.11899546 0.19347294 -0.087413564 -0.50453615 0.057714965 -0.386321 -0.48097816 -0.46624267
0.6336001 -0.24567382 0.2833341 -0.26600912 0.18947731 -0.6617734 0.18461263 -0.61111474
-0.50473845 -0.6314911 -0.7248244 -0.44622737 -0.22035612 -0.622037 -0.637538 -0.8309883

weight_ih_l1 f4 [256, 64]
00000000: 4c75 753e ff92 5abe 9c18 973d cdce 013f
00000010: 91d7 d53d 96c3 9a3e e6e2 843d 9107 b2bd
00000020: 48a3 2fbe fba6 0cbf 4a17 06be 3e9c dfbe
00000030: b4b7 433e c2cf bb3e 1743 0fbe 7b01 023f
00000040: 491f 0fbf c302 ef3e dd11 9b3e 4c78 aa3e
00000050: da01 14bf 6e91 13be 258f aebd f72c df3e
00000060: 7788 42be 49ab ca3e 4198 80be 1809 16be
00000070: 833c a23b a642 12be 8dd8 dbbe 8cbb e2be
00000080: 9a71 a53d 30cd 76be 44ee d83c 88e9 c63e
00000090: 1b6f 01be 1a23 133e b105 0ebe c17b 333e
000000a0: 5be1 4c3d a755 ef3e 97aa bdbe 2545 42bb
000000b0: 6d64 0ebe 2921 16bf ca79 99be 8bc2 403e
000000c0: 0a6d 56be 4a60 41be 1265 15bd e202 1d3e
000000d0: b6ee 9d3e baad 3c3e 6fef a0be 5492 ddbd
000000e0: 66b2 5f3b e4ec 953c c7a9 2d3d 1ee3 803e
000000f0: d54e 45bd f6ee db3e f827 c03e db97 a53e
00000100: 4577 e63e 6e49 363e f4c6 b0bd 44b6 a7be
00000110: 296d b43e 401e 3a3e 5aed 93bd d1ea 953e
00000120: 99a6 0f3e 3d32 ccbd fbea 1abe 492d 89be
00000130: 1b28 02be b836 12bf 03c6 bebe 724b 0e3e
00000140: ab83 553f 58a2 74be 2cfb 143f 7da2 94bd
00000150: 86ee c73d 9d76 5c3e cb4a 08be 9773 78be
00000160: 4f48 ea3e 66d9 073e 39ab 80be 3a03 3fbe
00000170: 2c05 59be e9d0 c93e 3a62 88be 5795 2a3d
00000180: 66dd d43e 3500 643f acb6 b93e faaa 9ebd
00000190: 1a49 fcbe b1cd edbe 7fa5 9bbd 2a89 e43e
000001a0: de3b 49be c21a 41bb bb7c 3abe c3ca 38be
000001b0: 175e 2f3e 0dd8 9abd 1b5c e33e 7224 ee3d
000001c0: ebe3 43be 1189 f83e 73a2 25bf 541c 0dbe
000001d0: 5f14 6fbe c92c 243e 1bdb 073e 5661 00be
000001e0: f9f0 c93e bfc6 91bc a961 753e 3a6f 68be
000001f0: 24a3 163f e8ea 94bc 36c6 a8be b9aa 4ebe
00000200: d3dc b83e ea0b bd3e 2d55 31bf 2bbe a3be
00000210: b827 b33d de0d 963e 3d9f c83e 7fae d43e
00000220: 263f 3bbe 458f bc3e d71a f73d 76a2 48be
00000230: 606b bf3e 8347 c0bd 63e3 ac3e bf16 5fbf
00000240: 0080 dcbe e250 41be bdb5 d7bd e328 09bf
00000250: e07d 4c3d 3fa0 c43f bdaf c83d 8e98 88be
00000260: c57c cebc 9f1c f5be 83c5 2f3f 0806 fb3e
00000270: 470a 79bc c741 90bd 6fbc 82be 17cf 77be
00000280: 355c d83e a396 0a3e 0956 c33d 9eee 6bbe
00000290: a2dd d0be d3f5 7cbf bc3d 47be 989d 953d
000002a0: b673 653d 76b6 28be 2c89 4a3d 96bb 073f
000002b0: bc48 49be 696f 8d3f 34ed ae3e 55ee e63d
000002c0: a468 cb3e 1775 b23e fffa a9bc 8bad 563e
000002d0: a956 06bf 13e7 26bb e658 68be 1233 07bf
000002e0: 8b19 3f3f 27e7 82be 8823 593e 13c3 6c3e
000002f0: 18e5 a93e 8051 cebc 16db 9abe 8e8a dbbe
00000300: 5e4b 2c3f 874f 013e 789f fdbe 4384 433f
00000310: 2cbd 233e ce2e dabd 14a8 a5bc 4305 423e
00000320: 0fa3 803e 6036 fd3d e894 21bd b675 e3be
00000330: 555b f73d b24f bb3e cba6 5e3f 2b88 9dbe
00000340: 4e2d 14be 0db6 56be b7b7 f1be ee92 773e
00000350: 7130 793e 3af1 3f3d 5a3c cd3c d6e4 c43e
00000360: ffd3 9ebd 3370 cfbc ea46 753e acfa debd
00000370: f09d 96be d960 17bf 551a 983e 540c 62bd
00000380: 89b8 b53e 6da0 a33e 6475 0dbf e9a9 1e3c
00000390: 9697 48be 875c 74be f16e a43e 6920 e83e
000003a0: 4a02 bcbd d429 8c3e f024 ffbc 84a7 b0bd
000003b0: 9a16 95be 7d92 cbbd 447a 0d3e 61be 763e
000003c0: c275 923d 556f 15bf b3fb aebe f424 f4bd
000003d0: 9691 25bf 6f7d c4bd 0493 92be e4e3 2c3f
000003e0: 5af7 85be b3e5 c8bd b5d7 b8bd 5c10 e1bd
000003f0: 5503 563d b587 8abd e427 fdbe c768 5c3d
0.23970526 -0.21345137 0.07377741 0.5070618 0.10441507 0.30227345 0.0648859 -0.086928494
-0.1715213 -0.5494229 -0.13094822 -0.4367389 0.19113046 0.36681944 -0.13990436 0.5078351
-0.5590711 0.46681795 0.30287066 0.33294904 -0.57815325 -0.14410946 -0.085233964 0.43588993
-0.1899737 0.39583805 -0.2511616 -0.14651906 0.004951061 -0.14283237 -0.42938653 -0.44283712
0.080783084 -0.2410171 0.026480801 0.38850045 -0.1264004 0.14368859 -0.13869359 0.17527677
0.050019603 0.46745035 -0.37044212 -0.0029643264 -0.13905497 -0.5864435 -0.2997573 0.18824212
-0.20940033 -0.18884388 -0.03647334 0.15333131 0.30846184 0.18425646 -0.31432673 -0.108189255
0.0034133433 0.018301435 0.04239824 0.25173277 -0.048170883 0.4295575 0.37530494 0.3234242
0.4501287 0.17801449 -0.08631697 -0.32756245 0.35239533 0.18175602 -0.072230056 0.29280713
0.14028396 -0.0997052 -0.151287 -0.26792362 -0.12710612 -0.57114744 -0.37260446 0.13895968
0.83404034 -0.23890054 0.5819576 -0.07257555 0.097622916 0.21529622 -0.13309781 -0.24262844
0.45758292 0.13266525 -0.25130633 -0.18653575 -0.21193379 0.39417198 -0.2663744 0.041646328
0.41575164 0.89062816 0.3627218 -0.07747455 -0.49274522 -0.46445993 -0.07599925 0.44635898
-0.19651744 -0.0029465412 -0.18211643 -0.18046097 0.17125736 -0.0756074 0.44406208 0.11628045
-0.19129913 0.48542073 -0.64701 -0.13780338 -0.23347615 0.16032709 0.13267176 -0.1253713
0.3944166 -0.017794965 0.23963036 -0.2269868 0.5884268 -0.018178418 -0.32963723 -0.20182313
0.36105976 0.36923152 -0.6927059 -0.31981024 0.0874781 0.29307455 0.3918399 0.4153938
-0.18285808 0.36828056 0.12065666 -0.19593224 0.37386608 -0.0938864 0.33767232 -0.8714408
-0.43066406 -0.1887851 -0.10532711 -0.53578013 0.04992473 1.5361403 0.097991444 -0.2667889
-0.02520598 -0.478734 0.68660754 0.4902804 -0.015200204 -0.07043796 -0.25534388 -0.24200092
0.42257848 0.13534026 0.09537894 -0.23040244 -0.40794092 -0.988126 -0.19457144 0.07305449
0.056018554 -0.16475853 0.049447224 0.5302061 -0.19656652 1.1049625 0.34165347 0.11275927
0.39728272 0.34854957 -0.020749567 0.20964639 -0.5247598 -0.002546732 -0.22690162 -0.528123
0.7464835 -0.2556698 0.2120496 0.2312129 0.33182597 -0.025185347 -0.30245274 -0.42879146
0.673025 0.12627994 -0.49535728 0.7637369 0.15990132 -0.106534585 -0.020221747 0.1894732
0.25124404 0.12363887 -0.03944865 -0.44425744 0.12077967 0.3658424 0.86973256 -0.3076795
-0.14470407 -0.20967884 -0.47210476 0.24177143 0.24334885 0.04686091 0.025053192 0.38455838
-0.07755279 -0.025322055 0.23952833 -0.108876556 -0.29417372 -0.5913215 0.2970759 -0.05518754
0.35492352 0.31958333 -0.5525725 0.009684064 -0.19589075 -0.23863421 0.32115892 0.45337227
-0.09180124 0.27375662 -0.031145543 -0.08625701 -0.29118806 -0.0994005 0.13816172 0.24096061
0.07151367 -0.58373004 -0.34176406 -0.11921111 -0.6467527 -0.09594237 -0.2862779 0.67535233
-0.26165277 -0.09809437 -0.09025518 -0.109894484 0.05224927 -0.06764165 -0.49444497 0.05381086

weight_hh_l1 f4 [256, 64]
00000000: d15c 24bf 1f2f 35bf 4409 bc3d a31e dabe
00000010: bc46 213e 8d51 a1be 6476 2dbe fcd6 91bd
00000020: bda6 04bf 70ff 94be bd9c cc3d 7660 c23e
00000030: ad53 6a3e 4f60 cc3b 3c83 66be f885 6f3e
00000040: 91a8 a23e 83b3 01bf 8c6e e13c 180d 22bf
00000050: 727d a1be 7681 4f3e 783a b93d 4986 7d3e
00000060: 978d 8c3d c85d 08be a13e d0bd 4ecc 1abf
00000070: aec9 f63d aff8 833e 8f10 0d3f ffa9 88be
00000080: 9b5b f0bd 72f9 35bf d6b1 cbbe a2f0 9a3e
00000090: fd61 123f 11bb 293e 75d1 cdbe ea2e 48bd
000000a0: 0c2f 4dbe 9b4c 5a3d e4a2 4b3e 2f31 0c3e
000000b0: 1b5c 81bd 66ec e0be 295e 8f3d 474c f53e
000000c0: bbed e9be a36d 0ebe da06 a63d 2548 8bbd
000000d0: 7077 c63e 4e3b 43be f401 91be 89ea 1bbf
000000e0: 72c0 a9bd 138f f7be a43a a6bd 20b6 a93e
000000f0: d8f1 92be 78d0 3abf c072 11be ece0 6cbe
00000100: ef8a ddbe 65f1 513f 57b4 2e3e 05b5 633e
00000110: dc5d 873d 4df1 2bbe 020d 2cbe ebf7 62be
00000120: dfe0 b83d f497 c8be 5c0c 863d 00d8 a4bc
00000130: ebe7 1abe ceca 913e 7175 6f3e 0fa4 853c
00000140: 8e00 c73e 6310 e43d f047 ab3e 7e81 a83e
00000150: 8fcd da3e 2f3c e63e c020 673e bafd 3dbd
00000160: 3120 843e e444 283c 5048 ecbd abc1 38be
00000170: 3b7f 373e d285 a63b ccc3 bc3e bb49 d83d
00000180: 4347 46be bbc9 983e d0c3 6d3e f93d 863e
00000190: dbff 483f ff36 293e ab99 2b3f eb64 843e
000001a0: 2ea8 babd 15c2 0d3f 7f01 cfbe 51c7 8fbe
000001b0: 6212 b43e aa09 58be 577d 953c 119e 0cbe
000001c0: 497b f7be 702d 4ebe 5c90 f93e ed95 263e
000001d0: 79a7 523e 0b50 7a3e 4c65 fabe 411d 393f
000001e0: 5d6b 9abe 4750 843e 0af1 0e3b 2d8c d03d
000001f0: 8e08 243e 77fe c83e e3cb 0bbe 29f2 a23d
00000200: 2c69 e9bd 8a85 b7bd 3718 74bf 024c 253d
00000210: 1613 24bf c3a4 e93d 15ba 82be 3d79 f6bd
00000220: 805f 7f3f 38b3 9ebe e661 aabe 6031 a73e
00000230: 5594 703d f3c6 71be 8072 a53e 60c4 2d3f
00000240: a588 21bf f8a9 a93e 08ff 88bd 1e22 803e
00000250: f0cc 373f fe05 6a3d 7cd9 633e 9e94 103f
00000260: c129 57be fac7 f23e ebf6 2d3e c8d4 cb3c
00000270: f5ea 7abe 4611 2e3e 1764 d9bc 0c1b 4fbe
00000280: e6bc 61be 9ab6 bdbd 2905 0d3f 5875 253e
00000290: 57f1 f93e 74e9 a7be 2fee 043f c165 373e
000002a0: e80b 16be 1161 af3d 2c2a 793c 5f03 18be
000002b0: 9dc4 313d b82d 0fbf 8756 bebe 03b0 c8be
000002c0: cb0d 87bf 8963 e8bd 1953 f63d dcfe 143d
000002d0: 81bb f53e cde4 203f 0121 563f bb91 373e
000002e0: d5c0 55bd fc2f 963f dc5f 36bd 3c1f 323f
000002f0: f900 433e 88e4 67be b56b 26bf efe4 44be
00000300: a2fd f8be 5eaa 7b3e 3843 bbbe 50c3 47bf
00000310: 89dd b23e 6cca 973d 0c9f 313e 3256 013e
00000320: 6124 dd3e 65c1 87be 409d 39be 8b0a ee3d
00000330: 8a69 f13e f94d 8a3d 8bd3 a0be 6d02 43be
00000340: 4522 123e 839b 6ebd 513f 5b3d 1701 bc3e
00000350: 037d cb3d 0b35 2a3f 7d2d 503d 1a7f c13d
00000360: bc06 1e3d 10ff 04be 4b34 37bf b19b 14be
00000370: 15d1 c43b 0b6d cd3e a5ec 8dbb 97c6 463e
00000380: 7701 b73d 99f8 5e3e a70f 8c3b 9f5c 1c3f
00000390: 9516 d03e aaaa 1c3f 62ac 423f b0a4 4f3e
000003a0: 0e13 d93d 3146 c1bc 3581 e4bd 3826 7abe
000003b0: bcc6 6bbd b914 e2bb fb50 a13e d5f6 f9be
000003c0: 4c4b cabc 6086 c13e 1b35 55be 920f 393e
000003d0: 076c 19be a031 123f 7f98 81be 6685 34bc
000003e0: 0e3d ce3d 50b4 3f3f 7a4f a93e bc70 9a3e
000003f0: 94ec 013f 8d9d 173e a48f fc3e 8073 1abe
-0.64204127 -0.70775026 0.09181455 -0.426015 0.1574964 -0.3150753 -0.16939694 -0.07121083
-0.5181692 -0.29101133 0.09990833 0.3796422 0.22883482 0.006237067 -0.22511 0.23390949
0.3176923 -0.5066454 0.027518533 -0.6330123 -0.3154102 0.20264229 0.09044355 0.24758257
0.068629436 -0.13317025 -0.101681955 -0.60467994 0.12050186 0.25775668 0.5510339 -0.26692197
-0.11736222 -0.7108375 -0.39784116 0.30261713 0.5718077 0.16575266 -0.40198866 -0.048872866
-0.20037478 0.053295713 0.19886357 0.13690637 -0.06316396 -0.43930358 0.070003815 0.47909757
-0.45689186 -0.1390901 0.081067756 -0.0680087 0.38763 -0.19065592 -0.28321803 -0.6090475
-0.08288659 -0.48351344 -0.081166536 0.33146763 -0.28700137 -0.7297435 -0.1420393 -0.23132676
-0.4327006 0.82008964 0.17060982 0.22237022 0.06609699 -0.16791268 -0.16801837 -0.22164886
0.09027266 -0.3917843 0.06545326 -0.020122528 -0.15127532 0.2847504 0.23384644 0.01631358
0.3886761 0.11135938 0.3345332 0.32911295 0.42734954 0.4496779 0.22571087 -0.04638455
0.2580581 0.010270331 -0.1153723 -0.18042628 0.17919628 0.0050818706 0.3686813 0.10560938
-0.19363122 0.29841408 0.23219228 0.26219156 0.78515404 0.16524886 0.67031354 0.25858244
-0.09114109 0.5537427 -0.4043083 -0.28081754 0.35170275 -0.21097437 0.018248243 -0.13732173
-0.48336247 -0.2013452 0.4874295 0.1626813 0.20571698 0.24444596 -0.48905408 0.7231026
-0.30160037 0.25842497 0.002181115 0.101829864 0.16018888 0.3925664 -0.13651995 0.07956345
-0.11397013 -0.089610174 -0.9534945 0.04035569 -0.6409162 0.11408379 -0.25532594 -0.12034843
0.99755096 -0.30996108 -0.33277816 0.32654858 0.05873521 -0.2361105 0.3231392 0.6787777
-0.6309913 0.33137488 -0.06689268 0.2502603 0.71797085 0.05713462 0.22250932 0.5647677
-0.21012022 0.47418195 0.16988723 0.024881735 -0.24503691 0.16998777 -0.026536984 -0.20225161
-0.22044715 -0.09263344 0.55086 0.16158044 0.4881694 -0.32795298 0.5192594 0.1790991
-0.1465298 0.08563436 0.015207808 -0.14845036 0.043400396 -0.55929136 -0.3717539 -0.39196786
-1.0551084 -0.1134711 0.12027568 0.036375865 0.47994617 0.6284912 0.8364411 0.17926686
-0.052185852 1.1733394 -0.044525012 0.6957891 0.1904334 -0.22645772 -0.650081 -0.19227956
-0.48631006 0.24576709 -0.3657472 -0.780324 0.34934643 0.07411656 0.17345828 0.12630537
0.43191817 -0.26514736 -0.18126392 0.11623105 0.47150832 0.06753153 -0.31411394 -0.19043894
0.14270885 -0.058253776 0.05352718 0.3671958 0.099359535 0.6648719 0.05082463 0.09448071
0.03858064 -0.12987924 -0.7156417 -0.14512517 0.00600637 0.40122256 -0.0043311887 0.19411694
0.08935826 0.2177452 0.004274327 0.6107883 0.4064223 0.6119791 0.76044285 0.20277667
0.105993375 -0.02359304 -0.11157457 -0.24428642 -0.057562575 -0.006899443 0.31507096 -0.4882113
-0.024694107 0.37797832 -0.2082104 0.18072346 -0.14982615 0.5710697 -0.25311658 -0.011018133
0.10070239 0.7488451 0.33068448 0.30164135 0.50751615 0.14806195 0.4932834 -0.15083122

bias_ih_l1 f4 [256]
00000000: 5084 3cbf befb 65be 1f48 d73e c0dd 32bf
00000010: c842 1dbf 81c7 a53d 57d9 1bbf 2335 0dbf
00000020: 4306 2ebf 10f9 cdbd 3510 10bf 2e5d 32bf
00000030: 655d b5be 3f5a 34bf 947a 18bd fd3c 09bf
00000040: 0734 0cbf ab45 1ebf da7e 20bf 8e9b 853e
00000050: 6b01 b3be 1d77 32bf 8d8d 07bf 9f6b 56bf
00000060: 27b8 b5be beab e5be 83b6 3fbf 4942 ffbe
00000070: b37d d8bd 9a6f 3bbf 7ee6 46bf d33f 1ebf
00000080: e57d 9cbe 2472 2b3f 395e a8be 5b03 a33e
00000090: 0a4a b7be 10e9 37bf 6296 7bbe 8477 983e
000000a0: 8d00 b6be ac43 28bf e4ed b63e 88f0 3bbf
000000b0: a016 1dbf 9feb 1cbf 4733 58bd 28df 4abe
000000c0: 0265 27bf 6977 06be ef97 24bf 0367 d1be
000000d0: 00d9 17bf 5947 01bf aa07 4bbf 0d67 b8be
000000e0: bd6b 4dbf aded 01bc 0bb5 67be 948c 07bf
000000f0: fc89 143f 7450 f1be ea59 86bd 2f6d a1be
00000100: 643b 5c3f 454c ae3d 9c10 a33f d110 503f
00000110: 9f2f 8f3f 0f39 723f c75b 413f f6f0 7b3f
00000120: 1b6e a43f fc3a 8cbc 22ec 833f 6570 6bbe
00000130: 9524 db3e a523 7d3f 4110 d53d b8b9 d53d
00000140: a577 e63e baa0 ef3e 9bb5 923f a25f 39be
00000150: fe30 253f ea39 733f 1291 a43f 9ebc 1b3d
00000160: 5cec 773f f813 213e 782d 953f 0e80 9a3f
00000170: d39a 0d3f 9322 343f 6657 373e 7557 aa3f
00000180: 7e54 5a3e 1bdc 37be a314 9f3e 4027 c43f
00000190: 0684 753e 42bd ed3e 3a3a a6be 3e10 f5be
000001a0: 3051 603f 8cba 873f 4208 b0be 5cd9 3d3e
000001b0: fd13 7c3f d9a2 353f c5fd df3e a5e3 023f
000001c0: c34d cc3e eb1b 113e 22c7 5bbe 589f 0a3f
000001d0: a42f 5e3f 812d d53e 4a27 963f 98e2 a13e
000001e0: f199 343f 87ed 743f f51f d9be 4899 843d
000001f0: 3704 2abf d508 573f 4db5 abbe 2579 073f
00000200: 9c57 ae3d 7235 d33c 1feb c0bc ed89 0fbe
00000210: 7340 283e eafe c43c 0ca6 7abd 9ce8 863d
00000220: 4f60 31bd e845 8a3d fffc d9bd af41 1cbe
00000230: 45ee 09bd 7c98 063e e133 9abd cc9d f33c
00000240: af8e 46be 248c 7d3d 8713 453e d772 12be
00000250: 5151 f23d dd09 9e3c 587f c1bc 0f59 8fbd
00000260: 5d65 42bc cac4 803d 05e5 163d 8a36 4abd
00000270: d6dc ca3b 1977 903d 0c3b 6d3d 085a b53c
00000280: 5e70 b33d 8369 293d 2c75 7dbc 11e6 303d
00000290: 28a5 573d e180 c7bc fba9 2bbc 6266 41bd
000002a0: 46fc da3c 48a8 673d bab7 38bd d3e8 93bb
000002b0: e8d9 b33d d9b3 4c3d 9797 fcbd 890d 273d
000002c0: cce0 86be faf3 34bb 8e5f 6e3c f436 08be
000002d0: 78f6 c23b 7fdf 083d e708 2bbd ea8b 9e3d
000002e0: 0d6b da3d 909f b2bd 17e3 433d 9f9b e1bd
000002f0: 5091 f2bb 774b 1a3c 0846 67bd 19d9 7ebc
00000300: 139d 1fbf edf3 b7be c40e d43c aa06 22bf
00000310: f6e0 36bf 863c 2bbe 2e9c 72bd 9fda 97be
00000320: eddd 61be fd8f 46bf 2e2b 7bbe eff6 22bf
00000330: abf5 28bf 5603 b3be be36 25bf 77a2 ddbe
00000340: af46 8fbe 72b3 9dbe b2fc 9fbe 776f 52be
00000350: 07a1 17bf 9555 a6be 414a aa3e 385f 56bf
00000360: ac25 d23e 6789 1bbf 7024 01be 3a83 83be
00000370: 0859 2ebe 9adc 43bf 86a0 0ebf a188 683e
00000380: fbb7 ecbe fc4a 75be ab1e 32be b131 723e
00000390: cfd6 44bf aa80 38bf fc2f 86be e845 ccbe
000003a0: c8f9 97be a020 b8be 43f3 aebe 601e 49bf
000003b0: 8f75 e4bd 9fe8 4fbe dde5 96be c03b 96be
000003c0: 9658 0dbf 6299 a7be eeb5 2abf 302e b73d
000003d0: ac93 abbe 32a6 39be 1bd6 23bf 4b39 4abf
000003e0: 6fd3 39bf ee4d 06be 18df cdbe 082b 42bf
000003f0: 6c38 03bf cf14 43be fbd8 8dbe 8d2d 003e
-0.7363939 -0.22459313 0.42047212 -0.69869614 -0.61430025 0.08094693 -0.6087851 -0.55159205
-0.67978305 -0.100572705 -0.5627473 -0.6967343 -0.35422817 -0.70450205 -0.037226275 -0.53608686
-0.5476689 -0.61825055 -0.6269356 0.2609524 -0.3496202 -0.69713 -0.52950364 -0.83757967
-0.3549206 -0.4485759 -0.74887866 -0.4985526 -0.1057085 -0.73217165 -0.77695453 -0.6181614
-0.305648 0.6697104 -0.32884386 0.31838498 -0.35798675 -0.7184 -0.24569085 0.29778683
-0.35547295 -0.6572826 0.3572837 -0.73413897 -0.6136265 -0.6129703 -0.052783277 -0.1981169
-0.653885 -0.13131489 -0.6429433 -0.40898904 -0.5931549 -0.5049949 -0.7930857 -0.36016122
-0.8024252 -0.0079302015 -0.22627656 -0.5294888 0.5802305 -0.47131693 -0.065601185 -0.31528613
0.8602812 0.08510641 1.2739444 0.8127566 1.1186408 0.94618315 0.75530666 0.9841455
1.2846102 -0.01711797 1.0306437 -0.22992094 0.42801347 0.98882514 0.10403491 0.10435814
0.45013157 0.46802312 1.1461672 -0.18102887 0.6452788 0.95010245 1.2856772 0.038021676
0.9684503 0.15730274 1.1654501 1.2070329 0.5531437 0.70365256 0.17904434 1.330794
0.21321294 -0.17955057 0.31070432 1.5324478 0.23976144 0.46433455 -0.32466298 -0.47863954
0.8762388 1.0603805 -0.343813 0.18539947 0.98468 0.7095161 0.43748298 0.5112861
0.39903077 0.14170806 -0.21462682 0.5414939 0.86791444 0.4163628 1.173074 0.3161819
0.70547396 0.9567494 -0.42407194 0.064745486 -0.6641268 0.8399785 -0.3353676 0.52919227
0.08512804 0.02578232 -0.023549614 -0.14017458 0.16430835 0.024047334 -0.06119351 0.065873355
-0.043304738 0.06751615 -0.10643958 -0.15259431 -0.033674497 0.13144106 -0.07529426 0.02973833
-0.19390367 0.061901227 0.1924573 -0.1430162 0.11831916 0.019291813 -0.023620293 -0.069994085
-0.011864987 0.062875345 0.036839504 -0.04936842 0.0061908765 0.07053966 0.05791764 0.022137657
0.08761667 0.04136039 -0.0154698305 0.04318816 0.05264774 -0.024353446 -0.010477538 -0.04721678
0.026731621 0.05655697 -0.04509709 -0.004513839 0.08781797 0.049976204 -0.12333601 0.040784393
-0.2634338 -0.0027611242 0.014549149 -0.13302213 0.0059497915 0.033416267 -0.041756537 0.0774153
0.106649496 -0.087218404 0.04782399 -0.110160105 -0.0074025765 0.009417406 -0.05646327 -0.01555469
-0.6234905 -0.35928288 0.025885947 -0.6329142 -0.71437013 -0.16722307 -0.059230976 -0.29658982
-0.22057314 -0.7756346 -0.2452819 -0.6365804 -0.6599986 -0.34963483 -0.64536655 -0.43288013
-0.27983615 -0.30800968 -0.3124748 -0.20550333 -0.59230083 -0.3248717 0.33259776 -0.8373904
0.41044366 -0.60756534 -0.12611556 -0.25686055 -0.1702615 -0.76508486 -0.5571369 0.2270837
-0.46234116 -0.23954386 -0.17394511 0.23651768 -0.7689027 -0.72071326 -0.26208484 -0.39897084
-0.29682755 -0.3596239 -0.3416997 -0.78561974 -0.11155235 -0.20303582 -0.29472247 -0.2934246
-0.55213296 -0.3273421 -0.6668385 0.089443564 -0.33511102 -0.18129805 -0.63998574 -0.7899367
-0.7258825 -0.13115665 -0.4020927 -0.7584691 -0.5125797 -0.19050907 -0.27704605 0.12517376

bias_hh_l1 f4 [256]
00000000: 8ae3 25bf 6d85 86be 6887 8a3e 2d10 01bf
00000010: 2936 1cbf 643a 9fbd c7c9 16bf d77b 2cbf
00000020: c072 24bf 1ae3 15be 181a 07bf fd32 2fbf
00000030: 5c35 ccbe 314b 40bf a092 19be f31b f3be
00000040: 7d7f e3be 93b7 39bf dc93 2fbf ae7e 1e3e
00000050: cc36 88be 9177 39bf f303 1abf 078e 4ebf
00000060: 017f cfbe 1216 0ebf 0844 54bf bfc5 0abf
00000070: 3f35 6e3d 73cf 31bf 5cea 46bf c95d edbe
00000080: 611b a0be 7ce2 3a3f 05f4 dcbe f9cc d83e
00000090: 11cf cbbe cf4c 4bbf 7189 37be 8d79 743e
000000a0: 833d febe 90b6 4ebf 1701 8d3e e39b 25bf
000000b0: 8ef1 05bf b235 1bbf ab34 58be f4c2 4cbe
000000c0: d987 3ebf 6f7e 94bd 59b6 3ebf 365b 8fbe
000000d0: 32a4 43bf b052 0cbf a45d 5bbf e65c 66be
000000e0: e64f 43bf 2988 3cbd e5fe b1bd 2cf9 9bbe
000000f0: 6aee 123f 756d 1cbf bb19 f7bc b533 78be
00000100: c28a 523f f517 833d b6db a73f 08c9 3f3f
00000110: aada 923f 0dfe 5e3f 79cf 253f d039 873f
00000120: 4178 9b3f 8fa4 a3bc 7222 963f 526f 06be
00000130: e167 0d3f 2763 733f a4fa 7b3d 2f26 453e
00000140: b140 ec3e ee76 2b3f 0845 9d3f c215 26be
00000150: 8979 323f 66b1 823f 0834 a83f 48f3 adbb
00000160: 31d1 8d3f 3c95 313e 21bd 903f b492 863f
00000170: cf08 063f 54b1 543f 4b29 97bc e8dd b23f
00000180: 04e3 c73c 45e5 d6bd fc61 083e 39f3 b93f
00000190: 6bf0 dd3e 8a02 ad3e 95ff 8abe a2ff d5be
000001a0: ffde 6b3f bc3f 893f c824 abbe bc47 a13e
000001b0: 08c6 5d3f e5db 163f 5f96 aa3e 1d60 003f
000001c0: 4953 053f e6a6 893e 2af4 4bbe 599c 1a3f
000001d0: 2274 6e3f e17c e93e db0f 953f cd12 bb3e
000001e0: b501 393f d5ca 6e3f bce1 b1be 0734 30bd
000001f0: aebc 29bf 70e0 843f ff93 64be 5fa9 1f3f
00000200: c9bd 143c df62 8ebd f190 873b d81c 91bd
00000210: 0345 74bd 0d17 b5bd 973d febd 4770 a6bd
00000220: 67cc 673c 7e59 c73b 9f09 ab3d aead 2fbe
00000230: 4cbf b1bd 2591 02bc 11be c0bb d3aa d6bd
00000240: d385 fbbc 64df 9abd 9979 1a3e 0338 52bd
00000250: 4c87 5ebd 9994 dfbd dff9 57bb 77c8 6dbe
00000260: 9699 483e f3b5 5b3d 162f 973d d625 66bd
00000270: b326 35bd 6a41 80bc 0e43 083e be26 913c
00000280: eec0 8d3d 9faa 073d e0b5 533d 4515 963d
00000290: d941 2c3d 9dd1 36bd d0aa 283e fb8e ccbc
000002a0: 73ae 48bd 8bee 453d 7e32 5cbd 787a 87bd
000002b0: 45b5 d1bd 1422 533e 7764 e3bd 88de cbbd
000002c0: f9c7 6abe 83d1 063d a94f f43c d303 80bd
000002d0: 1fec 98bc d2be be3d 5de3 a33d de69 4e3e
000002e0: cded d23d f3f4 623c 19ad 913d 13a8 01be
000002f0: af2f 49be 13d4 ddbc 3882 5abd 2a9e fcbd
00000300: 363d f9be 8236 bebe 7c3b 00be 725e 32bf
00000310: 59e3 2ebf bcf7 11be c0f4 2dbe 046a 42be
00000320: 5b42 7bbe 4952 16bf 168f 9dbe 7b3a 18bf
00000330: c779 07bf 89d2 aebe d491 0fbf 9005 e1be
00000340: 08fa 9bbd d428 d1be 062d 34be 65a0 3fbe
00000350: c585 38bf fcf9 b8be 3bf3 af3e b862 77bf
00000360: 9f24 fd3e 7c09 12bf afbd fcbd 9d48 79be
00000370: b09e 8bbe 3705 2ebf 29eb 24bf eceb 4d3e
00000380: fe75 0dbf 06ad 86be f517 69be a4e2 203e
00000390: b7d8 6cbf 127d 21bf 9190 67be 2424 dabe
000003a0: c0d1 b3be ed1c a6be 6687 fcbe c805 0bbf
000003b0: 5635 68bd 6abe aebe db27 22be fc5b 21be
000003c0: b330 febe 9fb1 b5be 5900 0cbf 698a 8abd
000003d0: 7c71 d8be c17b 7bbe b6c9 d4be 71b8 5abf
000003e0: ddb8 38bf f639 70be 5e27 febe 6166 71bf
000003f0: b2bc f0be a174 88be 8efc 5abe 11d2 a03d
-0.6480032 -0.2627367 0.27056432 -0.5041531 -0.6102014 -0.07774809 -0.5890164 -0.67376465
-0.64237595 -0.14637414 -0.5277419 -0.68437177 -0.3988446 -0.75114733 -0.14997339 -0.4748226
-0.44433203 -0.7254574 -0.6858499 0.15478012 -0.26604307 -0.7244807 -0.60162276 -0.80685467
-0.40526584 -0.55502427 -0.8291631 -0.54207987 0.05815625 -0.6945717 -0.77701354 -0.46360615
-0.31270888 0.7300184 -0.43154922 0.42343882 -0.39806417 -0.79414076 -0.17923523 0.23874493
-0.49656305 -0.8074732 0.27539894 -0.6469099 -0.5232171 -0.6062881 -0.21113841 -0.19996244
-0.7442604 -0.07250678 -0.7449699 -0.27999276 -0.7642242 -0.5481367 -0.8568976 -0.22496375
-0.7629379 -0.04602829 -0.086911954 -0.3046354 0.5739504 -0.6110452 -0.030163636 -0.24238475
0.8224298 0.06401054 1.3113925 0.74916124 1.1472981 0.871064 0.64769703 1.0564518
1.2146074 -0.019975929 1.1729262 -0.13128403 0.5523663 0.9507317 0.061518326 0.19252847
0.46143106 0.6697835 1.2286692 -0.16219237 0.697167 1.0210388 1.3140879 -0.0053085424
1.1079465 0.17342085 1.1307718 1.051352 0.5235719 0.8308308 -0.018452307 1.397397
0.024400242 -0.104929484 0.13318628 1.4527351 0.43347487 0.33791 -0.2714812 -0.41796595
0.9213714 1.0722575 -0.334265 0.3150004 0.86630297 0.5892928 0.3331785 0.5014666
0.5208021 0.26885146 -0.1991736 0.6039482 0.93145955 0.45603088 1.1645464 0.3653778
0.7226823 0.9327825 -0.34742534 -0.043018367 -0.6630353 1.0380993 -0.22322081 0.62367815
0.009078451 -0.06952452 0.0041371514 -0.0708558 -0.059636127 -0.08842287 -0.12414091 -0.08126884
0.014147854 0.0060836663 0.083514445 -0.17156097 -0.08679065 -0.007969175 -0.0058820327 -0.10481801
-0.03070346 -0.0756214 0.15085448 -0.05132295 -0.054328248 -0.10917015 -0.0032955331 -0.23221003
0.19589838 0.053640317 0.07382028 -0.056188427 -0.04422636 -0.015656192 0.1330683 0.017718669
0.06921564 0.0331217 0.05168712 0.073282756 0.042054985 -0.044633497 0.1647141 -0.024970522
-0.048994493 0.048323195 -0.05375909 -0.06615156 -0.102396525 0.20618469 -0.111031465 -0.09954554
-0.22927846 0.03291465 0.029823141 -0.062507294 -0.018667279 0.0931374 0.080023505 0.20157573
0.10299263 0.013852346 0.07113094 -0.12661771 -0.19647096 -0.027078664 -0.053346843 -0.12334855
-0.48679513 -0.3715096 -0.12522691 -0.6967536 -0.68315655 -0.1425466 -0.16987896 -0.18985754
-0.24537031 -0.5871931 -0.30773228 -0.59464234 -0.5292019 -0.34145 -0.5608189 -0.43949556
-0.07616049 -0.40851462 -0.175953 -0.1871353 -0.72079116 -0.36128223 0.34365258 -0.9663501
0.49442002 -0.5704572 -0.12340867 -0.24344106 -0.27269506 -0.6797671 -0.64421326 0.20109528
-0.55258167 -0.2630388 -0.22763045 0.15711457 -0.9251818 -0.6308147 -0.22613741 -0.42605698
-0.35120964 -0.32443944 -0.4932205 -0.54305696 -0.05669149 -0.3412965 -0.15835516 -0.15757746
-0.4964653 -0.35487077 -0.5468803 -0.06764681 -0.42274082 -0.24558927 -0.41560143 -0.85437685
-0.7215708 -0.2345961 -0.4963941 -0.9429684 -0.47018963 -0.2665148 -0.21385404 0.07852567
