src/grinding_system_python/model/model_real_filter.pth (torch, 89623 bytes, 6 tensors)

weight_ih_l0 f4 [256, 15]
-0.13484675 -0.03206853 0.29661876 -0.037088417 0.07365509 0.08591442 -0.35343847 0.33256352
-0.27140227 -0.031663235 0.11282644 -0.3405417 -0.23522314 -0.10214763 0.12530695 -0.3781328
-0.13826726 -0.20214933 -0.5886108 -0.11381046 -0.32283017 -0.077080175 0.075284995 -0.25234628
-0.35935453 -0.0885003 -0.040807445 -0.34325683 -0.12649187 -0.0076808785 0.053760063 -0.0064152316
0.019756349 -0.002120178 -0.031728573 -0.058560506 0.06935579 0.06478473 -0.07873524 0.13398811
-0.16523355 -0.05161176 -0.04469849 -0.020344922 -0.10436583 0.0029741041 0.08414462 -0.2055375
-0.123968676 0.024847163 -0.05592769 0.22979221 0.027617712 -0.05492691 0.379685 -0.43216336
0.41189638 -0.53147537 -0.2826964 0.4495457 0.1163677 0.12508431 0.20611133 0.020054454
-0.1415908 -0.06577998 0.18072745 -0.017722968 -0.09198608 0.09358967 -0.24155554 -0.07737417
-0.04982019 0.13535282 0.20081381 0.0064603128 0.04488758 0.0580473 -0.061158653 0.009128047
0.08944787 0.08342738 0.06956081 0.07213253 -0.0559244 -0.21851821 -0.044264283 -0.20098484
-0.008866885 -0.52082515 0.05689681 -0.042077165 -0.11784094 0.0077853096 -0.17436911 0.18216705
0.05269039 -0.015026294 0.07968615 -0.08251681 -0.21129943 -0.08775168 -0.08068534 0.09458754
-0.08071711 0.06673376 -0.1224943 0.020992298 0.06813807 -0.1050735 0.0116645545 0.05969142
-0.0426615 0.07713762 0.045925424 0.030256057 -0.12779373 0.09358095 -0.14180206 0.016700732
0.021126753 0.2728723 0.25372586 -0.09898487 -0.10861929 0.012321509 -0.19378306 -0.024045868
-0.39370075 -0.03203456 -0.12699464 0.037479877 0.22324261 0.5238956 0.041640256 0.113241136
-0.035783757 0.16279267 -0.034798246 0.22117984 -0.08271446 0.42027706 -0.27496392 0.30847812
0.27608892 0.025544735 -0.009859548 -0.0730447 -0.122914426 -0.039853536 0.01870325 -0.040734723
-0.019034661 -0.05634716 -0.44632375 0.036900766 -0.032421507 0.038865272 0.117626876 0.2783116
-0.02214497 0.0034152293 0.10407229 0.027431939 -0.07874001 0.0062767696 0.042502094 0.11342467
-0.1809618 0.08692078 0.21754302 -0.105494715 -0.050218616 -0.11614491 0.03820384 -0.06946777
0.017766548 -0.13233829 -0.015559567 -0.12528831 0.120500915 -0.101554014 -0.026955817 -0.14139418
0.05665506 0.08011353 -0.1154323 -0.03181109 -0.27266267 2.182792 0.75703984 -1.8159622
0.758622 0.06036922 -0.39309072 -0.07106894 -0.05733998 -0.02013156 0.030728456 -0.06727439
0.0693233 0.09552265 0.014639319 0.08841458 0.028436262 -0.11037627 -0.007972926 -0.02760055
0.042666703 0.12457944 -0.019319285 -0.08624583 -0.2619774 -0.33047733 -0.32910585 -0.10719579
0.033633534 -0.10057572 0.2395324 1.2880942 0.2820873 -0.028381847 -0.28304258 0.4484217
-0.6190807 0.016403643 0.038239554 -0.008153943 0.030918898 -0.062008835 0.07046516 -0.026193265
-0.04210758 -0.19762869 0.1374794 -0.0703354 0.33103657 -0.25742662 -0.10587221 -0.3391452
0.6783429 -0.1291944 0.42513102 -0.46000084 0.13479196 -0.21522425 -0.29791656 0.009018527
0.4936269 -0.17336057 0.19623937 0.080450416 0.114420936 -0.2979585 0.30632275 0.016513253
00000000: 4415 0abe 4a5a 03bd 6ade 973e 06ea 17bd
00000010: 7bd8 963d e6f3 af3d e3f5 b4be c445 aa3e
00000020: 3df5 8abe 4fb1 01bd 8c11 e73d 7b5b aebe
00000030: 56de 70be c732 d1bd 7750 003e 9f9a c1be
00000040: ef95 0dbe 3c00 4fbe 33af 16bf 7515 e9bd
00000050: ff49 a5be 36dc 9dbd 052f 9a3d 8833 81be
00000060: 51fd b7be a53f b5bd b525 27bd 5cbf afbe
00000070: 1687 01be e1af fbbb 8333 5c3d dd36 d2bb
00000080: 11d8 a13c aff2 0abb d2f5 01bd 24dd 6fbd
00000090: 690a 8e3d dbad 843d f13f a1bd 2e34 093e
000000a0: fc32 29be da66 53bd c415 37bd 65aa a6bc
000000b0: c1bd d5bd 30e9 423b 0454 ac3d 6c78 52be
000000c0: 4ae3 fdbd 478c cb3c 6f14 65bd a64e 6b3e
000000d0: 8a3e e23c 0afb 60bd 1366 c23e 8444 ddbe
000000e0: 15e4 d23e c50e 08bf 95bd 90be db2a e63e
000000f0: 3052 ee3d 1a16 003e d90e 533e 3d49 a43c
00000100: 2efd 10be a7b7 86bd 9e10 393e c22f 91bc
00000110: 3363 bcbd f1ab bf3d 565a 77be 5976 9ebd
00000120: 4110 4cbd ee99 0a3e 23a2 4d3e 08b1 d33b
00000130: 0adc 373d 01c3 6d3d 7f81 7abd ce8d 153c
00000140: 7230 b73d f9db aa3d e675 8e3d 38ba 933d
00000150: fc10 65bd 3dc3 5fbe 774e 35bd f8ce 4dbe
00000160: 6946 11bc cc54 05bf a10c 693d 1b59 2cbd
00000170: 9756 f1bd e91b ff3b d18d 32be 008a 3a3e
00000180: e1d1 573d d830 76bc 7e32 a33d 93fe a8bd
00000190: e15e 58be 27b7 b3bd 5b3e a5bd 1db7 c13d
000001a0: 034f a5bd b6ab 883d 4bde fabd 0af8 ab3c
000001b0: f98b 8b3d c630 d7bd b01c 3f3c fe7e 743d
000001c0: d3bd 2ebd 54fa 9d3d 4c1c 3c3d 8ddb f73c
000001d0: 5cdc 02be 5ea7 bf3d 8f34 11be f9cf 883c
000001e0: 0312 ad3c ebb5 8b3e 5be8 813e 94b8 cabd
000001f0: ca73 debd 28e0 493c 116f 46be d7fb c4bc
00000200: 2593 c9be ac36 03bd e20a 02be 8084 193d
00000210: b699 643e 061e 063f f98e 2a3d f8ea e73d
00000220: fd91 12bd 1fb3 263e 9b88 0ebd f87c 623e
00000230: 3366 a9bd 8e2e d73e 12c8 8cbe d8f0 9d3e
00000240: 875b 8d3e 3143 d13c f189 21bc 7698 95bd
00000250: 8fba fbbd 763d 23bd 8f37 993c 74d9 26bd
00000260: 94ee 9bbc 48cc 66bd 8c84 e4be 4225 173d
00000270: 6acc 04bd 3131 1f3d 5ce6 f03d dc7e 8e3e
00000280: 5e69 b5bc 0ad2 5f3b da23 d53d f2b8 e03c
00000290: 7142 a1bd 5cad cd3b ad16 2e3d 324b e83d
000002a0: 0d4e 39be 8603 b23d 99c3 5e3e 9d0d d8bd
000002b0: 09b2 4dbd 62dd edbd a17b 1c3d 1e45 8ebd
000002c0: 278b 913c b083 07be 8eed 7ebc 944b 00be
000002d0: 2fc9 f63d 8dfb cfbd 72d2 dcbc a3c9 10be
000002e0: 230f 683d 9012 a43d c567 ecbd 584c 02bd
000002f0: 719a 8bbe ddb2 0b40 5dcd 413f 7371 e8bf
00000300: 0d35 423f b745 773d 3043 c9be 988c 91bd
00000310: 54dd 6abd f1ea a4bc 3eba fb3c 28c7 89bd
00000320: 60f9 8d3d 61a1 c33d c1d9 6f3c b412 b53d
00000330: 2af3 e83c f40c e2bd e0a0 02bc 8c1a e2bc
00000340: 48c3 2e3d 8123 ff3d 7a43 9ebc a7a1 b0bd
00000350: e721 86be 5334 a9be 9080 a8be 7789 dbbd
00000360: 51c3 093d a5fa cdbd fb47 753e 45e0 a43f
00000370: bf6d 903e 0c81 e8bc f5ea 90be 8797 e53e
00000380: 137c 1ebf ef60 863c 14a1 1c3d 1e98 05bc
00000390: a149 fd3c fafc 7dbd 0a50 903d 4293 d6bc
000003a0: ff78 2cbd 2d5f 4abe 66c7 0c3e 020c 90bd
000003b0: a07d a93e 6ccd 83be 87d3 d8bd 71a4 adbe
000003c0: e1a7 2d3f 894b 04be c6aa d93e 3b85 ebbe
000003d0: e706 0a3e bf63 5cbe 8588 98be 72c2 133c
000003e0: aabc fc3e 6f85 31be f9f2 483e 30c3 a43d
000003f0: 8655 ea3d 048e 98be 56d6 9c3e cd46 873c

weight_hh_l0 f4 [256, 64]
-0.7538227 0.051936854 0.50867325 0.42731112 -0.19550577 -0.7673452 -0.35620177 0.3172293
-0.54744667 -0.37002364 0.563628 -0.04213594 -0.44339657 -0.9736754 0.26669008 0.025219606
0.0076528015 0.14593653 0.47142377 -0.50686425 -0.61813813 -0.5765591 -0.5259453 -0.28152925
-0.26724 -0.467578 -0.36432555 -0.40452978 0.22322457 0.03804696 -0.06857805 -0.23780458
0.03876125 -0.076311715 -0.6824703 0.30368325 -0.3807295 -0.6198188 0.5778937 -0.06156975
-0.09200891 -0.19245486 -1.0716281 -0.01896171 -0.3382797 0.03996149 0.33758777 0.07488047
0.1549651 -0.20494838 -0.37875858 0.43350062 0.32850152 -0.34350255 -0.19601144 -0.35539502
-0.113414034 0.7624784 -0.19953449 0.10864183 0.7367058 -0.13030826 0.38231584 -0.111172035
0.30205882 0.5259232 -0.47341958 0.30477098 -0.21724254 0.5257555 -0.4189189 -0.38820902
-0.38314575 0.8592362 -0.927559 -0.4235433 -0.69322586 0.06473441 -0.36282673 -0.1965927
0.49943185 -0.3769033 0.7936843 -0.55799395 0.5954574 -0.2903786 0.7588682 -0.063149564
0.25547194 0.1623906 -0.24009258 0.15786652 0.6937453 0.6924504 0.34248564 0.21582392
-0.9021061 -0.3347481 -0.3685097 0.17736633 -0.19842836 0.4721105 -0.2378297 -0.36763132
0.05285009 1.2511294 0.09722544 0.16643932 -0.71213734 -0.062362723 0.7051546 0.47646782
-0.12992579 -0.05683473 -1.1864293 -1.2307503 0.33172855 0.7168999 -0.34124786 -0.20387185
0.7100274 0.5027764 0.59384495 -0.23397234 0.82433283 -0.0343847 0.5711295 0.37698415
-0.6661388 -0.24097951 -0.11337943 -0.8289031 -0.45627218 0.5776563 0.27986327 0.44571173
-0.13510056 0.06851146 0.28620285 -0.29944167 -0.31664783 -0.018499546 -0.8121974 -0.28442854
0.051682737 -0.6224239 0.33437768 0.46534476 -0.1552452 -0.26587495 -0.106338255 0.13072287
0.18360765 -0.026741618 0.6405299 0.19392978 -0.4038919 -0.15348828 -0.025144242 -0.21861988
0.3558787 -0.24343854 0.40746823 -0.16842608 0.31894702 -0.3124622 -0.12259252 0.68873435
0.7981846 -0.36766422 0.15345164 -0.01238873 0.6168485 0.18009666 0.4269591 -0.021851178
0.1060346 -0.1276847 0.10977581 0.44898883 -0.27190188 0.42188948 0.8926883 -0.45462474
0.33352473 1.0503802 -0.057163488 0.16898409 -0.45627338 0.04807276 -0.23707679 0.12963538
0.42580107 0.0568275 -1.368282 -0.96308357 0.26402432 -0.046557885 -0.07551987 -0.31760257
0.5440694 -0.12913172 0.11125235 0.6124243 -2.4411695 0.55083823 -0.6038589 0.20052066
0.9229083 -0.22085577 -1.2282414 0.9060494 0.018415313 -0.23313057 -0.47049314 0.58564603
-0.32828873 -0.1795576 -0.8064697 -0.44880357 -0.11078089 0.6598736 -0.60095733 -0.3352692
0.64383423 0.015920056 -0.17826529 -0.2718393 0.02310818 -0.7769166 -0.46258643 -1.1157392
0.75311106 -0.03452656 -0.12796125 0.4154047 2.3783445 -0.19338411 0.16142048 0.077943996
-0.4765677 0.0688129 0.113305695 0.38305363 -0.5830392 1.1288004 -0.101211764 0.12444645
-0.36839923 -0.7143786 0.011971246 -0.8538364 -0.45867908 -0.76813877 0.10476107 0.54318875
00000000: 86fa 40bf bdbb 543d 6938 023f 86c8 da3e
00000010: aa32 48be bc70 44bf 1460 b6be e16b a23e
00000020: 7725 0cbf bd73 bdbe ed49 103f bc96 2cbd
00000030: e004 e3be ca42 79bf 9a8b 883e 5999 ce3c
00000040: 5ac4 fa3b 6370 153e 755e f13e dbc1 01bf
00000050: 4d3e 1ebf 6199 13bf 5aa4 06bf 9a24 90be
00000060: aed3 88be 6266 efbe e188 babe 871e cfbe
00000070: fb94 643e 21d7 1b3d a672 8cbd 0b83 73be
00000080: 1ec4 1e3d 5149 9cbd 60b6 2ebf 5f7c 9b3e
00000090: faee c2be 72ac 1ebf d7f0 133f 9030 7cbd
000000a0: 2b6f bcbd e312 45be 1c2b 89bf 9755 9bbc
000000b0: ff32 adbe a9ae 233d 4ed8 ac3e ef5a 993d
000000c0: 2caf 1e3e fddd 51be a5ec c1be cbf3 dd3e
000000d0: 5a31 a83e 91df afbe 39b7 48be 56f6 b5be
000000e0: 9e45 e8bd c931 433f c552 4cbe 9c7f de3d
000000f0: c098 3c3f 876f 05be e7be c33e 2aae e3bd
00000100: 74a7 9a3e e7a2 063f 0d64 f2be f10a 9c3e
00000110: d474 5ebe ea97 063f 8a7c d6be 55c3 c6be
00000120: ae2b c4be e7f6 5b3f 8274 6dbf abda d8be
00000130: 4077 31bf 7993 843d 6dc4 b9be 994f 49be
00000140: 88b5 ff3e 78f9 c0be e52e 4b3f b1d8 0ebf
00000150: e56f 183f 81ac 94be 3045 423f 8f54 81bd
00000160: 38cd 823e b949 263e d4da 75be c3a7 213e
00000170: 4b99 313f 6e44 313f 475a af3e f200 5d3e
00000180: 6df0 66bf 1a64 abbe 4ead bcbe 859f 353e
00000190: ce30 4bbe 78b8 f13e a189 73be 2c3a bcbe
000001a0: 5679 583d 0225 a03f 221e c73d 126f 2a3e
000001b0: a24e 36bf 0e70 7fbd 0385 343f 97f3 f33e
000001c0: 440b 05be 89cb 68bd eadc 97bf 3a89 9dbf
000001d0: 53d8 a93e c086 373f 0ab8 aebe c8c3 50be
000001e0: 5bc4 353f f4b5 003f 3906 183f 7296 6fbe
000001f0: 7a07 533f f9d6 0cbd 8b35 123f 1104 c13e
00000200: 1388 2abf 55c3 76be 7933 e8bd fe32 54bf
00000210: 829c e9be 49e1 133f 3d4a 8f3e 5434 e43e
00000220: cd57 0abe bd4f 8c3d 2e89 923e 6b50 99be
00000230: aa1f a2be 5c8c 97bc 2bec 4fbf 9ea0 91be
00000240: 47b1 533d 2c57 1fbf 8d33 ab3e ab41 ee3e
00000250: 99f8 1ebe c320 88be dfc7 d9bd 37dc 053e
00000260: a503 3c3e 3d11 dbbc c4f9 233f 8795 463e
00000270: ebca cebe 082c 1dbe 4cfb cdbc e4dd 5fbe
00000280: bc35 b63e f447 79be ad9f d03e e377 2cbe
00000290: 064d a33e 0cfb 9fbe ca11 fbbd e550 303f
000002a0: d355 4c3f 7c3e bcbe 6d22 1d3e 1afa 4abc
000002b0: c9e9 1d3f 426b 383e 629a da3e 3e01 b3bc
000002c0: ab28 d93d c7bf 02be 24d2 e03d dde1 e53e
000002d0: b936 8bbe e601 d83e 3887 643f 93c4 e8be
000002e0: c1c3 aa3e dc72 863f 4324 6abd 2a0a 2d3e
000002f0: aa9c e9be f1e7 443d 42c4 72be 23bf 043e
00000300: 9902 da3e f4c3 683d dd23 afbf a58c 76bf
00000310: 322e 873e 7bb3 3ebd 29aa 9abd ce9c a2be
00000320: 2248 0b3f 1b3b 04be 46d8 e33d d7c7 1c3f
00000330: 1f3c 1cc0 bc03 0d3f 7f96 1abf 4a55 4d3e
00000340: b843 6c3f 0428 62be 0437 9dbf daf2 673f
00000350: b6db 963c c8b9 6ebe 7ae4 f0be e6ec 153f
00000360: 7615 a8be f3dd 37be cc74 4ebf 95c9 e5be
00000370: 17e1 e2bd 7aed 283f 57d8 19bf 68a8 abbe
00000380: 52d2 243f c76a 823c 2d8b 36be 852e 8bbe
00000390: 5e4d bd3c 02e4 46bf 21d8 ecbe 8bd0 8ebf
000003a0: e3cb 403f b96b 0dbd 4608 03be edaf d43e
000003b0: cc36 1840 7c06 46be 694b 253e 1aa1 9f3d
000003c0: ae00 f4be c7ed 8c3d d10c e83d 9b1f c43e
000003d0: 0f42 15bf 887c 903f 1d48 cfbd c8dd fe3d
000003e0: d39e bcbe 84e1 36bf 0c23 443c 0695 5abf
000003f0: fcd7 eabe bea4 44bf f98c d63d 6b0e 0b3f

bias_ih_l0 f4 [256]
0.10635199 0.044306368 -0.6731614 0.45570415 -0.47733125 -0.35584098 -0.5554957 -0.53818214
-0.93281865 -0.88898975 -0.8075344 -0.14133237 -0.083130285 -0.7622222 -0.6044869 0.16823792
-0.63685447 -0.39283752 -1.1349906 -0.60758054 -0.53566027 -0.5224985 -0.8670978 -0.43466753
-0.44845015 -0.77696854 -0.040621545 0.3226651 -0.6651069 -0.2784886 0.14522023 -0.77481526
-0.4828906 0.7760001 -0.01582425 -0.49220335 0.37062 -0.7478435 -0.5367273 -0.17811736
-0.725076 -0.40424103 -0.32653102 -0.8934569 -0.17734474 -0.7083654 -0.3542367 -0.13351984
0.2301555 -0.66920996 -0.7623683 -0.6925819 -0.39271683 0.22635074 -0.48644888 -1.0844268
-1.0063362 -0.88168246 -0.6596417 -0.850051 0.038752858 -0.47273907 0.2731759 -0.6114577
-0.759731 -0.86497223 1.4381285 -1.7812173 1.633746 -0.20751752 1.515172 1.8231896
-0.08079377 -0.005605531 -0.29862893 -0.39055133 -1.2520335 1.873393 0.11758448 -0.88848615
-0.08073876 0.4884743 -1.0203257 -0.39771008 1.0151242 -0.9347135 -0.4489504 1.3695345
-0.57673705 2.1397629 -0.70908403 -1.3061569 -0.7102839 -1.3877944 -2.302618 1.8225173
1.0015104 -2.249019 -0.40076694 1.3861946 -0.054817196 1.5187865 1.5633482 -1.0674424
-1.3968099 0.25413162 -0.4923997 -1.0331708 -1.1348886 1.9869214 -0.57476944 -0.93350875
-0.5803981 2.0349822 -0.48566046 0.156168 -0.7087414 -0.96904516 0.7980983 1.8181212
2.7976408 -0.41923475 -0.72595584 0.4406868 0.22716962 -0.85157573 0.2410229 -0.23103116
-0.102742426 0.2297288 0.0060820547 0.013105112 0.1185305 0.040088024 0.056231454 0.10526135
0.093230024 0.18059404 -0.017119437 0.10248774 0.6156397 0.002274063 -0.7590722 0.07263433
-0.2638146 -0.11011159 -0.07748909 0.07668705 -0.09558809 0.010456892 -0.40548688 0.00864037
-0.21291196 -0.069560915 -0.102884814 -0.0055062855 -0.55063593 -0.1662463 -0.011512926 0.059926055
-0.120011464 -0.02743782 0.055395752 -0.10289062 0.20221336 0.08426366 -0.043758653 -0.037263177
0.49443784 0.09086566 0.038095742 -0.1591536 -0.113639526 -0.1307691 0.1375922 0.050492633
-0.07916458 -0.17253745 -0.12390229 0.22335011 -0.15011951 0.084252894 0.09187552 0.056935616
0.06624539 -0.01854726 -0.07132018 -0.092265196 0.021281702 -0.011180841 -0.24930795 0.20286931
-0.76040363 -0.80084854 1.3873479 0.3732171 1.2964208 0.86171675 1.2363098 0.9852342
-0.41120896 0.5590954 0.9555689 0.7781776 -0.87416494 1.834914 -0.22665419 0.5615845
-0.66181827 0.9882033 -0.6532354 -0.8608338 0.43799046 -0.99083126 -0.15381686 0.69195086
-0.79446775 1.798915 -0.24725656 0.10366856 -1.0542665 -0.7815941 0.26296124 1.2050114
0.5857974 0.9565692 0.1730982 1.2840972 0.087031685 0.77017206 0.9027304 -0.99488163
-0.84476286 -0.17847611 -0.610895 -0.39870635 -0.99312 1.692887 -0.30592832 0.68689805
-0.5082617 1.8619608 -0.37447876 -1.2166386 -0.9213731 -0.4172145 -0.4724328 0.91539574
1.8321376 -0.42759967 -0.24296199 0.052626465 -0.08415914 0.027233912 -0.8825846 0.06358781
00000000: 12cf d93d 987a 353d 4e54 2cbf 0e52 e93e
00000010: c364 f4be ca30 b6be f734 0ebf 4ec6 09bf
00000020: 34cd 6ebf d594 63bf 93ba 4ebf 6fb9 10be
00000030: 3640 aabd fe20 43bf a7bf 1abf 9046 2c3e
00000040: e508 23bf 0022 c9be 5f47 91bf 668a 1bbf
00000050: 0821 09bf 76c2 05bf 1ffa 5dbf be8c debe
00000060: 429b e5be 69e7 46bf c762 26bd 5c34 a53e
00000070: 7244 2abf 0f96 8ebe 9db4 143e 4b5a 46bf
00000080: 703d f7be f1a7 463f dca1 81bc 1402 fcbe
00000090: e8c1 bd3e ac72 3fbf f666 09bf 6664 36be
000000a0: 959e 39bf aef8 cebe 132f a7be 97b9 64bf
000000b0: dc99 35be 6f57 35bf 835e b5be 6db9 08be
000000c0: e2ad 6b3e 5851 2bbf 922a 43bf 0c4d 31bf
000000d0: 2e12 c9be 7dc8 673e d40f f9be 7fce 8abf
000000e0: a0cf 80bf f1b5 61bf 47de 28bf f19c 59bf
000000f0: 51bb 1e3d db0a f2be b6dd 8b3e 7e88 1cbf
00000100: bb7d 42bf d26e 5dbf 9814 b83f eefe e3bf
00000110: 971e d13f 797f 54be 28f1 c13f 475e e93f
00000120: 3477 a5bd 9aae b7bb e4e5 98be 58f6 c7be
00000130: a242 a0bf 58cb ef3f 22d0 f03d d473 63bf
00000140: 5d5a a5bd 4e19 fa3e 089a 82bf a8a0 cbbe
00000150: 97ef 813f 6249 6fbf d4dc e5be e84c af3f
00000160: 0aa5 13bf e0f1 0840 8886 35bf 2630 a7bf
00000170: 2ad5 35bf 3fa3 b1bf 185e 13c0 3f48 e93f
00000180: 7e31 803f edef 0fc0 5331 cdbe d36e b13f
00000190: ff87 60bd 9967 c23f cb1b c83f f4a1 88bf
000001a0: abca b2bf 8a1d 823e d01b fcbe f13e 84bf
000001b0: 0844 91bf 7153 fe3f 1724 13bf 6efa 6ebf
000001c0: f894 14bf 263d 0240 7da8 f8be 81ea 1f3e
000001d0: 1470 35bf 5813 78bf 2c50 4c3f 32b8 e83f
000001e0: 8c0c 3340 f0a5 d6be 3ed8 39bf b3a1 e13e
000001f0: 279f 683e de00 5abf b5ce 763e 6f93 6cbe
00000200: 9f6a d2bd 073e 6b3e f94b c73b d3b6 563c
00000210: 1ec0 f23d 5733 243d f452 663d 4393 d73d
00000220: 62ef be3d a5ed 383e 103e 8cbc 18e5 d13d
00000230: 909a 1d3f 7208 153b 8e52 42bf 4fc1 943d
00000240: b512 87be 2f82 e1bd 9ab2 9ebd 1a0e 9d3d
00000250: b0c3 c3bd 6253 2b3c fa9b cfbe 5790 0d3c
00000260: 9805 5abe f475 8ebd 46b5 d2bd 126e b4bb
00000270: 7af6 0cbf 783c 2abe b6a0 3cbc 0675 753d
00000280: 92c8 f5bd 47c5 e0bc a8e6 623d 51b8 d2bd
00000290: 0511 4f3e 6d92 ac3d 463c 33bd 46a1 18bd
000002a0: f526 fd3e c617 ba3d 480a 1c3d 29f9 22be
000002b0: d7bb e8bd 56e8 05be f8e4 0c3e 5dd1 4e3d
000002c0: 0a21 a2bd a8ad 30be 7cc0 fdbd e4b5 643e
000002d0: eeb8 19be c88c ac3d 3c29 bc3d 5235 693d
000002e0: aaab 873d 6cf0 97bc 5110 92bd 89f5 bcbd
000002f0: f756 ae3c d92f 37bc 954a 7fbe f9bc 4f3e
00000300: d0a9 42bf 6904 4dbf 9e94 b13f 5016 bf3e
00000310: 1ef1 a53f 7899 5c3f 663f 9e3f 4f38 7c3f
00000320: fb89 d2be e020 0f3f 2aa0 743f a636 473f
00000330: 46c9 5fbf 76de ea3f 0918 68be 00c4 0f3f
00000340: ec6c 29bf e4fa 7c3f 6f3a 27bf 9b5f 5cbf
00000350: 4940 e03e 1ea7 7dbf 2b82 1dbe b123 313f
00000360: 3d62 4bbf d942 e63f d330 7dbe 2f50 d43d
00000370: 34f2 86bf 8d16 48bf dba2 863e d03d 9a3f
00000380: d2f6 153f b8e1 743f a840 313e 4c5d a43f
00000390: ab3d b23d ff29 453f 5719 673f 90b0 7ebf
000003a0: 6142 58bf 71c2 36be 9d63 1cbf 3d23 ccbe
000003b0: 1d3d 7ebf 85b0 d83f a3a2 9cbe 8dd8 2f3f
000003c0: 701d 02bf bb54 ee3f aebb bfbe d0ba 9bbf
000003d0: 1cdf 6bbf 249d d5be b6e2 f1be 6057 6a3f
000003e0: 7c83 ea3f 58ee dabe 07cb 78be d98e 573d
000003f0: a15b acbd a719 df3c 10f1 61bf 533a 823d

bias_hh_l0 f4 [256]
0.08875774 0.049813382 -0.6818158 0.45705688 -0.5139814 -0.31698182 -0.42763406 -0.5996115
-1.0101925 -0.89307034 -0.71590537 -0.10024757 -0.0921842 -0.78929055 -0.7463535 0.13446338
-0.7011533 -0.6284027 -1.0447568 -0.59385717 -0.46800414 -0.35592186 -0.87902176 -0.29603067
-0.53182757 -0.78821784 0.025274081 0.30518702 -0.7742986 -0.37377873 0.054244973 -0.9710318
-0.37689093 0.92505366 -0.24346541 -0.31636816 0.40096307 -0.6365355 -0.6273343 -0.1617429
-0.7194661 -0.3133038 -0.2620706 -0.8397265 -0.36121684 -0.6101909 -0.40903088 -0.03994706
0.28849387 -0.7307729 -0.768821 -0.8127301 -0.3450259 0.2699292 -0.57618135 -1.0745869
-0.8397211 -0.9088026 -0.5776312 -0.8759296 -0.03271895 -0.45738155 0.06935722 -0.5584191
-0.7085047 -0.67183596 1.4437959 -1.580006 1.684716 -0.16776694 1.5692966 1.8873312
-0.13052003 -0.0855928 -0.20178665 -0.4587581 -1.2669356 1.9001827 0.2912371 -0.8242891
-0.2665779 0.6393727 -1.2183878 -0.46820188 0.92452717 -0.9236011 -0.60624504 1.5225865
-0.41619867 2.0018957 -0.71140444 -1.2321967 -0.54226375 -1.4028921 -2.2640946 1.8985492
0.87157166 -2.410643 -0.1687176 1.5172168 -0.21601653 1.4554842 1.5597858 -1.1168767
-1.252154 0.054620933 -0.4166031 -0.95749116 -1.197966 2.0180657 -0.4635188 -0.8744949
-0.47330642 2.0167196 -0.52216816 0.16845785 -0.6256366 -0.9195916 0.6413825 2.029316
2.7527573 -0.41846523 -0.7883515 0.40909952 0.095191695 -0.9348696 0.0239568 -0.22807685
0.06684536 0.23398721 -0.22529414 0.008070935 0.14990541 0.06529546 0.1485973 -0.010134139
0.05548583 0.19122468 0.0066771163 -0.0018505619 0.6657254 -0.22094984 -0.82204646 -0.0963612
-0.16067742 -0.01793222 -0.023587104 0.07548374 0.09776683 0.075932704 -0.17633747 -0.04458908
-0.23204634 0.050357923 -0.11005382 0.048116248 -0.5197638 -0.08087618 -0.11343674 0.04303567
-0.06258202 0.17722103 0.07076116 -0.015336561 0.1796047 0.025614167 0.010669121 -0.078314394
0.4586598 0.15922683 0.15960982 -0.076169476 0.09811968 -0.13666204 0.04743522 0.018701844
-0.16492173 0.016559437 -0.045597102 0.14415936 -0.034857653 0.05326548 -0.108841345 0.21162382
-0.116958775 0.023502657 -0.116994694 0.025295442 -0.1085833 0.12009666 -0.22132279 0.11717589
-0.7855202 -0.75327957 1.3559825 0.46208942 1.3834797 0.9671056 1.2312266 1.0123608
-0.42403308 0.44819334 0.729534 0.8587391 -0.9909013 1.9299749 -0.22769031 0.37318105
-0.8091828 0.99488366 -0.5850958 -0.7336104 0.52727205 -0.8288438 -0.12431384 0.7523098
-0.95632726 1.93622 -0.17227487 0.09450741 -1.0644518 -0.9482322 0.42699635 1.3906183
0.45076448 0.9257972 0.14136527 1.1679401 0.15987045 0.85149235 0.9071041 -1.0160078
-0.82884043 -0.15619895 -0.67252004 -0.41180328 -1.0173659 1.7782655 -0.23753291 0.5208765
-0.5144003 1.770475 -0.21464242 -1.300105 -0.9448362 -0.20265707 -0.48973104 0.8022842
1.856461 -0.5275137 -0.14253964 -0.046605982 0.10040862 0.26061264 -0.8555714 0.079347625
00000000: 9ec6 b53d 1e09 4c3d 7b8b 2ebf 5c03 ea3e
00000010: 4994 03bf 714b a2be daf2 dabe 2480 19bf
00000020: fd4d 81bf 42a0 64bf 9345 37bf 994e cdbd
00000030: 12cb bcbd f20e 4abf 0611 3fbf c5b0 093e
00000040: c87e 33bf 00df 20bf 97ba 85bf 0607 18bf
00000050: 3d9e efbe 643b b6be 9207 61bf 5591 97be
00000060: da25 08bf a5c8 49bf 970b cf3c 7941 9c3e
00000070: 6f38 46bf ed5f bfbe fa2f 5e3d 8a95 78bf
00000080: d9f7 c0be 51d0 6c3f ff4e 79be 02fb a1be
00000090: 084b cd3e fef3 22bf fb98 20bf ee9f 25be
000000a0: ee2e 38bf 5b69 a0be 1e2e 86be 51f8 56bf
000000b0: 6af1 b8be 7935 1cbf 7f6c d1be 879f 23bd
000000c0: 78b5 933e ef13 3bbf 74d1 44bf 140f 50bf
000000d0: 3ca7 b0be 2934 8a3e 9f80 13bf 108c 89bf
000000e0: f6f7 56bf 4aa7 68bf a3df 13bf ec3c 60bf
000000f0: 4e04 06bd ea2d eabe 280b 8e3d 8ef4 0ebf
00000100: 9060 35bf 71fd 2bbf 4ece b83f a33d cabf
00000110: c6a4 d73f 19cb 2bbe b6de c83f 1294 f13f
00000120: 0ba7 05be 474b afbd 29a1 4ebe 57e2 eabe
00000130: f22a a2bf 3039 f33f 071d 953e 9c04 53bf
00000140: e67c 88be eead 233f 22f4 9bbf 28b8 efbe
00000150: d0ad 6c3f 1f71 6cbf e032 1bbf 1de4 c23f
00000160: fe17 d5be 0f1f 0040 9a1e 36bf 9fb8 9dbf
00000170: ccd1 0abf f891 b3bf ede6 10c0 a903 f33f
00000180: 521f 5f3f fa47 1ac0 4ec4 2cbe 2934 c23f
00000190: 7033 5dbe 4e4d ba3f 10a7 c73f d1f5 8ebf
000001a0: 9546 a0bf 33ba 5f3d 004d d5be 241e 75bf
000001b0: f356 99bf fd27 0140 5652 edbe e6de 5fbf
000001c0: 3855 f2be ef11 0140 d0ac 05bf 3780 2c3e
000001d0: b829 20bf 5b6a 6bbf a531 243f 50e0 0140
000001e0: 2d2d 3040 1341 d6be 67d1 49bf 7e75 d13e
000001f0: ddf3 c23d 9d53 6fbf 0d41 c43c fa8c 69be
00000200: 38e6 883d 589a 6f3e 82b3 66be f43b 043c
00000210: ce80 193e a0b9 853d e429 183e a909 26bc
00000220: 1c45 633d 67d0 433e b6cb da3b 8e8e f2ba
00000230: fb6c 2a3f ad40 62be a371 52bf 0559 c5bd
00000240: 9f88 24be 97e6 92bc be39 c1bc 3897 9a3d
00000250: fa39 c83d 9b82 9b3d cf91 34be 0aa3 36bd
00000260: 8e9d 6dbe 1c44 4e3d e663 e1bd 8b15 453d
00000270: 3e0f 05bf 69a2 a5bd 8651 e8bd 2c46 303d
00000280: 012b 80bd 6e79 353e 3aeb 903d 3346 7bbc
00000290: 4bea 373e cdd4 d13c 89cd 2e3c 4c63 a0bd
000002a0: 75d5 ea3e 5c0c 233e c270 233e befe 9bbd
000002b0: f9f2 c83d 22f1 0bbe 6f4b 423d 9c34 993c
000002c0: 3ee1 28be a8a7 873c 07c4 3abd 839e 133e
000002d0: e6c6 0ebd e72c 5a3d 36e8 debd eab3 583e
000002e0: 1588 efbd a588 c03c ea9a efbd 6338 cf3c
000002f0: ec60 debd 3df5 f53d 71a2 62be eaf9 ef3d
00000300: da17 49bf eed6 40bf d690 ad3f fc96 ec3e
00000310: dd15 b13f 3c94 773f d598 9d3f 0a95 813f
00000320: dd1a d9be 9979 e53e bdc2 3a3f 53d6 5b3f
00000330: b5ab 7dbf 6b09 f73f a627 69be 9611 bf3e
00000340: 9b26 4fbf b2b0 7e3f d7c8 15bf e4cd 3bbf
00000350: 4dfb 063f 1b2f 54bf 4198 febd 6097 403f
00000360: ddd1 74bf 0fd6 f73f d368 30be 1a8d c13d
00000370: f53f 88bf 58bf 72bf 449f da3e c8ff b13f
00000380: 9aca e63e 0c01 6d3f 0fc2 103e 107f 953f
00000390: 14b5 233e 67fb 593f f937 683f 8b0c 82bf
000003a0: e32e 54bf 9ef2 1fbe 462a 2cbf e1d7 d2be
000003b0: 0c39 82bf 349e e33f d43b 73be 2a58 053f
000003c0: bdaf 03bf ed9e e23f 39cb 5bbe d769 a6bf
000003d0: c9e0 71bf 5685 4fbe 07be fabe 7f62 4d3f
000003e0: 84a0 ed3f 230b 07bf e9f5 11be eae5 3ebd
000003f0: 09a3 cd3d 056f 853e ba06 5bbf 0281 a23d

weight f4 [15, 64]
-0.10017947 -0.025207095 -0.004539494 0.010951062 -0.20367399 -0.1059348 -0.530886 -0.058222234
0.02727942 -0.0698578 0.12498588 -0.5454229 -0.018458307 0.0461132 0.019578367 0.03746574
0.38883603 0.35918698 0.0047211433 -0.06932304 -0.53754574 -0.121638745 0.02364855 -0.15747607
-0.16550328 -0.59751683 -0.32677063 0.033491362 -0.010404584 -0.06855794 -0.03472849 0.06835435
-0.097017 0.0062759677 0.006568717 -0.3935314 -2.5602958 0.11441575 -0.22790502 0.041615184
0.023745274 -0.24311936 -0.28695035 -0.09348032 0.093429044 0.061842542 -1.0419763 -1.2892377
0.27599144 -0.05318472 -0.07797751 0.23230582 1.2776374 0.096349455 -0.09350167 -0.050330486
-0.32405385 0.37247437 -0.0610834 -0.03737332 -0.5505298 0.0062391753 0.019390024 -0.09292411
-0.52674645 0.026162082 -0.11570412 -0.00017277733 -0.02442977 0.06588227 -0.385319 0.04693934
-0.025668161 -0.30373836 -1.1995252 0.4403917 -0.008109312 -0.4445118 0.0077989716 0.06561143
0.3650088 0.21000724 -0.010185046 -0.064424075 0.024779895 -0.40054116 0.13058266 0.50084937
0.13444693 -0.56184155 0.4048916 -0.00737505 0.04723313 -0.22947866 0.018940113 0.03314972
-0.24907003 -0.0099992715 -0.2872073 0.99060214 -1.9956343 -1.0504034 0.33198673 0.051129255
-0.0040789335 -0.9628755 0.34018198 -0.35525262 0.04123804 0.15468217 0.86777824 1.1404074
-0.124088876 0.59583604 -0.10914894 -0.12584367 0.321182 -0.14034854 0.009292537 0.90347826
0.8524207 -0.3504326 -0.9186754 0.015612201 -0.21341679 0.0048310817 -0.00013241764 -0.065929145
0.57282287 -0.84407467 0.060156696 -0.004521551 -0.30825576 -0.15268578 0.68273103 -0.008134989
-0.0892818 0.12155075 0.2605163 0.15989159 0.020380216 0.25176302 -0.041717004 0.009198062
-0.45953122 -0.62561935 0.08317441 0.07431408 -0.17749254 0.112918206 -0.11287796 -0.1713213
0.20940915 0.30691975 -0.3477192 -0.026703414 -0.037573006 0.46439832 0.021047374 0.28419074
0.2425682 -0.021026164 -0.2982626 -0.8734798 -1.199263 0.31075126 0.10894285 0.021812808
-0.009769128 0.94029975 0.053573627 0.3733318 0.0009792009 -0.34319153 -0.63612604 1.3626081
-0.10896444 -0.19761798 -0.18445566 -0.4835883 0.05652934 -0.10005408 0.06589765 -0.47916225
-0.5036393 -0.27647892 0.44258732 -0.039440498 1.2713149 -0.047827315 0.00026360486 0.27643466
-0.022893716 -0.63074136 -0.004100444 -0.004390898 1.6140233 -0.59454036 0.40841055 -0.018036302
-0.007894671 -0.1957401 0.7898326 0.09593277 -0.0016615028 -1.346335 0.0071635135 0.053717144
0.26646048 0.30351016 0.036403388 0.06583615 -0.687863 0.14010522 -0.105777204 0.04754608
-0.016767444 -0.56585544 -0.38227215 0.026633477 0.054449003 1.4173397 0.013604807 -0.27744222
-0.03518946 0.009978311 0.2737734 -0.61887676 0.2557468 0.41972515 -0.4643262 -0.05696458
-0.0032141306 -0.17245482 -0.15631309 0.13596027 0.06570053 1.5905873 0.79807484 -0.39967853
0.2883596 0.7425467 -0.12295651 0.119847596 0.665467 -0.020012116 -0.01181732 0.0040046596
1.049653 0.29549852 0.8329115 -0.0509664 -0.20148353 -0.023926198 -0.0023376995 -0.023985466
00000000: e52a cdbd 1c7f cebc 09c0 94bb 156c 333c
00000010: ea8f 50be 58f4 d8bd 25e8 07bf 707a 6ebd
00000020: 1779 df3c 9b11 8fbd 99f8 ff3d d6a0 0bbf
00000030: e035 97bc 32e1 3c3d d062 a03c ad75 193d
00000040: 8415 c73e 5be7 b73e d2b3 9a3b 3df9 8dbd
00000050: 999c 09bf bc1d f9bd 9bba c13c 6841 21be
00000060: b179 29be ddf6 18bf 7b4e a7be 3d2e 093d
00000070: fd77 2abc 1b68 8cbd 763f 0ebd 5efd 8b3d
00000080: d9b0 c6bd a2a6 cd3b 643e d73b f37c c9be
00000090: e3db 23c0 ce52 ea3d ef5f 69be af74 2a3d
000000a0: 7385 c23c 48f4 78be 28eb 92be 9c72 bfbd
000000b0: ba57 bf3d 9b4e 7d3d 7b5f 85bf be05 a5bf
000000c0: c04e 8d3e 39d8 59bd acb2 9fbd 94e1 6d3e
000000d0: 9f89 a33f dd52 c53d ce7d bfbd 5727 4ebd
000000e0: 63ea a5be f6b4 be3e 9632 7abd c414 19bd
000000f0: 85ef 0cbf ff71 cc3b d4d7 9e3c ff4e bebd
00000100: dbd8 06bf dd51 d63c 48f6 ecbd 902b 35b9
00000110: f120 c8bc 49ed 863d 8848 c5be 7743 403d
00000120: 0946 d2bc 9883 9bbe 0b8a 99bf 057b e13e
00000130: ebdc 04bc 0d97 e3be 848e ff3b 495f 863d
00000140: 6fe2 ba3e 230c 573e 2edf 26bc c5f0 83bd
00000150: 35ff ca3c bb13 cdbe 76b7 053e aa37 003f
00000160: 75ac 093e d9d4 0fbf f44d cf3e 67aa f1bb
00000170: 8777 413d 74fc 6abe 4c28 9b3c 00c8 073d
00000180: 370c 7fbe fcd3 23bc d60c 93be 1a98 7d3f
00000190: f270 ffbf 9e73 86bf 2afa a93e e96c 513d
000001a0: 93a8 85bb 027f 76bf 552c ae3e ace3 b5be
000001b0: 38e9 283d 0165 1e3e b726 5e3f dff8 913f
000001c0: 4f22 febd b688 183f 7b89 dfbd 2add 00be
000001d0: f871 a43e 87b7 0fbe ba3f 183c 5a4a 673f
000001e0: 3e38 5a3f e76b b3be 502e 6bbf 51ca 7f3c
000001f0: ee89 5abe 0d4e 9e3b 97d9 0ab9 dc05 87bd
00000200: 85a4 123f 4715 58bf de66 763d 8529 94bb
00000210: b3d3 9dbe a959 1cbe 76c7 2e3f 9e48 05bc
00000220: 60d9 b6bd 9aef f83d 6462 853e 9fba 233e
00000230: 69f4 a63c 15e7 803e 73df 2abd 78b3 163c
00000240: ad47 ebbe 9728 20bf 5857 aa3d fb31 983d
00000250: 9bc0 35be a941 e73d 8f2c e7bd da6e 2fbe
00000260: 5a6f 563e 9624 9d3e 4008 b2be 1ec1 dabc
00000270: 27e6 19bd 9ec5 ed3e 8b6b ac3c 7381 913e
00000280: cc63 783e 103f acbc e0b5 98be 5f9c 5fbf
00000290: 7381 99bf ca1a 9f3e 6e1d df3d c6b0 b23c
000002a0: b10e 20bc 7cb7 703f 0570 5b3d 5825 bf3e
000002b0: 8858 803a cdb6 afbe 28d9 22bf f169 ae3f
000002c0: c028 dfbd 5e5c 4abe f2e1 3cbe e398 f7be
000002d0: 4f8b 673d 27e9 ccbd 59f5 863d c154 f5be
000002e0: 81ee 00bf a58e 8dbe ce9a e23e 5c8c 21bd
000002f0: 72ba a23f 93e6 43bd 7234 8a39 d888 8d3e
00000300: 9a8b bbbc 4478 21bf 045d 86bb 86e1 8fbb
00000310: 5198 ce3f cc33 18bf 301b d13e dec0 93bc
00000320: a658 01bc 1870 48be 7832 4a3f 6678 c43d
00000330: c8c6 d9ba b554 acbf e8bb ea3b 8206 5c3d
00000340: 826d 883e af65 9b3e b81b 153d 1ad5 863d
00000350: ca17 30bf be77 0f3e b8a1 d8bd aebf 423d
00000360: e15b 89bc e7db 10bf 2db9 c3be 732e da3c
00000370: eb05 5f3d 636b b53f b2e6 5e3c e80c 8ebe
00000380: d322 10bd 127c 233c 072c 8c3e b56e 1ebf
00000390: 3ff1 823e 37e6 d63e 2abc edbe b153 69bd
000003a0: 2aa4 52bb ff97 30be 8a10 20be 2b39 0b3e
000003b0: 008e 863d 5d98 cb3f a24e 4c3f aaa2 ccbe
000003c0: dfa3 933e 8a17 3e3f 9fd0 fbbd a872 f53d
000003d0: 0c5c 2a3f 73f0 a3bc 6f9d 41bc 8539 833b
000003e0: 085b 863f 954b 973e b039 553f 25c2 50bd
000003f0: b351 4ebe e000 c4bc 1734 19bb 2b7d c4bc

bias f4 [15]
0.1658414 0.17866416 0.05963535 -0.04942727 -0.0010855051 0.059047762 -0.17688319 0.091348976
-0.11736451 -0.05940053 0.05484537 -0.0070386054 -0.02847638 -0.03641081 0.01975195
00000000: 54d2 293e bdf3 363e 3244 743d 4074 4abd
00000010: 8247 8eba 11dc 713d de20 35be 2c15 bb3d
00000020: ce5c f0bd f84d 73bd 8aa5 603d 1aa4 e6bb
00000030: 4c47 e9bc 8023 15bd d7ce a13c
