src/grinding_system_python/model/model_cart_real_MA_NS_v01_sl5_hs64_bs32_num_epochs40_g0.9_l2.pth (torch, 212103 bytes, 10 tensors)

weight_ih_l0 f4 [256, 6]
000000 da 99 6a 3b c6 2a 24 3e a9 47 80 3e 5f a2 56 3f
       0.003579727 0.16031942 0.25054672 0.8384151
000010 16 a9 5e 3f ce 69 e5 bc 79 fb 0f 3d 59 1b 7e 3e
       0.86976755 -0.028004553 0.035151932 0.2481512
000020 b7 9f 1c be 4f 82 18 bd c7 01 ca be 12 0d d9 3c
       -0.15295301 -0.037233647 -0.3945448 0.02649549
000030 42 9c 0a be c5 d8 37 be 9e 8e cf be 8e cc 18 3f
       -0.1353617 -0.17953785 -0.40538496 0.59687126
000040 1e c1 3a 3e b1 0e 3c 3f 55 0f 59 3d f8 5b a7 bc
       0.18237731 0.7345992 0.052993137 -0.020429596
000050 2c 1b eb 3b 8f 33 f1 bf 34 5b d6 3e 1e a7 c3 3d
       0.00717487 -1.884386 0.41866457 0.095533594
000060 ec ef 23 3e 99 43 83 3e 96 5f 11 be 29 3d fd bf
       0.16009492 0.2563751 -0.1419662 -1.978429
000070 c0 67 2e bf 1a aa 8a bd ed 78 43 3e c6 b5 a7 3d
       -0.6812706 -0.067707255 0.19089098 0.081889674
000080 4f 47 10 bf 88 1a 2d 3e 29 b4 95 be 5b 07 f9 be
       -0.5635881 0.16904652 -0.29239014 -0.48638424
000090 06 19 c3 3d bd c1 d7 3e 58 24 ca 3e 6c 4c 0e bf
       0.09526257 0.42139998 0.39480853 -0.5558536
0000a0 03 d0 58 bf da 32 ef 3d a8 9d 0b bd 6f 0b bb bb
       -0.846924 0.11679621 -0.0340859 -0.00570815
0000b0 1e 7d 47 bc 1d 9b 28 3e 77 93 28 3e 6e ab 3d 3f
       -0.012175826 0.16465421 0.16462503 0.74089706
0000c0 16 77 b2 3d 6f ca 8e 3e 0c aa be bd 11 33 b7 bf
       0.0871412 0.2788882 -0.093097776 -1.4312459
0000d0 97 f6 b6 bf b3 12 40 bd 06 00 6d bd dc ef 22 be
       -1.4294003 -0.046892833 -0.05786135 -0.15911812
0000e0 a5 0a 06 3e 79 ea 8f 3e 79 81 04 bf 5a 05 7e 3e
       0.13089998 0.28108576 -0.5176006 0.24806729
0000f0 13 9f bf 3e 3b a9 84 bc 12 aa 2f 3e cb d7 53 3d
       0.37426051 -0.016193977 0.1715472 0.051719468
000100 f2 e7 b7 bc 3e 17 cf 3b be 6c e2 bc b1 a2 5e 3e
       -0.022449467 0.0063199094 -0.027639743 0.2174175
000110 49 a9 94 3d 39 32 05 40 de 2a bf bf 06 51 01 bf
       0.07258851 2.0811903 -1.4934957 -0.50514257
000120 a2 a1 b7 bd c8 33 ea 3d d5 b0 9f bd 46 bd ad be
       -0.08966376 0.11435658 -0.077974 -0.33933467
000130 8e da 51 3c 15 3d a6 be 9e 85 90 3b 83 c8 bf 3d
       0.012808455 -0.32468477 0.0044104597 0.093644165
000140 fa b1 20 3e 97 60 05 3e 4d fb a0 3d f8 8c 88 bd
       0.15692893 0.13025127 0.07860432 -0.06667513
000150 fc 7d 69 3e 70 44 9a bd 81 31 29 bf 51 a0 5e bf
       0.22801965 -0.07532585 -0.6609116 -0.86963373
000160 5f 98 72 3c 1c 50 87 3e 24 a4 30 bd 5a 73 86 3c
       0.014806836 0.26428306 -0.043125287 0.016412426
000170 08 80 f8 bc 2c 2b d9 3f da 75 87 3f ff e4 a4 bd
       -0.030334488 1.69663 1.058284 -0.0805149
000180 e2 7e cc be 03 c8 c3 bd 53 05 b7 3c e6 25 48 3e
       -0.39940554 -0.095596336 0.022341406 0.19545707
000190 93 dc 2a 40 eb f8 1d bc 3a e4 85 3b f5 aa 03 3b
       2.6697128 -0.009641866 0.0040860446 0.0020090912
0001a0 39 44 2c 3d 14 17 fb bf e8 8e 0c 40 03 79 82 bd
       0.04205725 -1.9616418 2.1962223 -0.063707374
0001b0 1f 17 b1 bd 27 cf 0e 3e 38 27 99 be 68 a7 2a bd
       -0.08646988 0.1394621 -0.29912734 -0.041663557
0001c0 49 e4 46 be 38 6d c2 bd 95 47 51 3e 12 67 55 3e
       -0.19423021 -0.09493488 0.20437463 0.208401
0001d0 32 1e 0a bd 60 72 d6 3d 80 18 e8 be a4 fe f2 bd
       -0.033720203 0.10471034 -0.45331192 -0.11864975
0001e0 60 1d 56 3e df 8b 82 be 2c 4e 29 3e 6e c6 8a bd
       0.20909643 -0.25497338 0.16533726 -0.06776129
0001f0 9a bf 09 bc 0d 4a ae be aa 18 32 39 9b 7c c6 3d
       -0.008407498 -0.3404087 0.00016984591 0.09691735
000200 3d 95 a1 3e ba 57 05 bf ef 41 85 bf ce 19 15 bf
       0.31559172 -0.52086985 -1.0410746 -0.582425
000210 3e d5 e7 3d 23 61 90 3f 70 82 31 3e 8f 91 3d bd
       0.113199696 1.1279644 0.17334914 -0.046281394
000220 73 3d 6e bf 06 4f 0f 3f 2c 17 af 3e 7e 6c 3c 3e
       -0.93062514 0.55979955 0.34197366 0.18400761
000230 11 15 4b 3f 1f ed 55 3e ee 5b 32 3f f1 56 c8 be
       0.7932902 0.20891236 0.69671524 -0.3912883
000240 d5 55 48 3e 5f 61 0f 3e 4b b0 db be 6b d4 de bc
       0.19563992 0.14001988 -0.42907938 -0.027200898
000250 d2 02 4d bf c2 d1 7d be 13 64 81 3e 32 9d 83 3e
       -0.8008243 -0.24787048 0.25271663 0.25705868
000260 05 1a 01 3f 17 62 57 bf 39 f6 02 bf 29 20 9f be
       0.5043033 -0.8413405 -0.51156956 -0.31079224
000270 e1 5f c7 bc a7 85 c3 bb ee f5 a6 bd 79 0d cd bd
       -0.02433771 -0.0059668603 -0.08152376 -0.10012335
000280 ce 5a 8b be c3 e4 aa 3c e5 c0 b2 3e ef da 9c be
       -0.27217716 0.020861035 0.34912792 -0.30635783
000290 cb c9 52 3d 7b a0 d5 3e d2 ba 2c bf 30 a2 0e 3d
       0.051461976 0.41724 -0.67472565 0.034822643
0002a0 f6 d4 b7 be 1b 52 bb bd d6 47 af be ea 11 3c be
       -0.35904664 -0.0914652 -0.34234494 -0.18366209
0002b0 d1 17 1c bf 56 06 79 be 0a 49 92 3d 26 2f 00 40
       -0.6097384 -0.24318823 0.07142837 2.0028777
0002c0 14 33 b1 be 66 07 2c 3e 9c 5c 8c 3f ed 49 81 be
       -0.34609282 0.16799697 1.0965762 -0.25251713
0002d0 a9 19 b8 3b 1b 6e 32 bc 38 22 05 be 4e 4f 99 3f
       0.0056182933 -0.010890509 -0.13001335 1.1977327
0002e0 d9 11 42 bf 1a 4a 43 3c a9 cc ce bc d8 19 26 bd
       -0.75808483 0.011919523 -0.025244074 -0.04055199
0002f0 f6 bc 03 3e d8 4e 0f bd ea de 8c 3b 0e 86 3a bc
       0.12865052 -0.0349873 0.0042990344 -0.0113845
000300 7d 32 be bd 98 a0 d9 3d 36 72 5a 3c 4f 42 74 be
       -0.092869736 0.10626334 0.013332894 -0.2385342
000310 0f 48 54 3e af 97 4a be 33 1e ff bc ed bc 22 bd
       0.20730613 -0.19784425 -0.03114233 -0.039730955
000320 27 bb 5d 3d c8 e7 23 3a b9 45 28 3c 31 fe 99 3d
       0.05413356 0.00062524946 0.010270529 0.07519186
000330 ff 0f b5 be fd 70 4e 3e d1 28 32 3e ad f5 92 be
       -0.35363767 0.20160289 0.17398383 -0.2870306
000340 ec fe 23 3e 43 88 7c 3d 90 d4 b6 bd 70 c2 2e bd
       0.16015214 0.061653387 -0.08927262 -0.0426659
000350 5c 74 67 bf 2c 48 00 3f dd 5f 41 3f 13 27 53 be
       -0.90411925 0.50110126 0.755369 -0.20620374
000360 74 92 6a bd 4b b1 28 3e f1 61 09 be e2 66 88 3e
       -0.057268575 0.16473882 -0.13416268 0.26640993
000370 aa 89 11 40 53 e4 c4 3e bf 1e 87 3d 27 c1 b3 3e
       2.2740273 0.38455448 0.06597661 0.351083
000380 80 e4 31 3d 1c e4 b2 3e 5f be 2a bf d4 c7 c9 3e
       0.043430805 0.3493966 -0.66696733 0.3941027
000390 07 e3 cf 3d d5 ae ee be b3 0f d0 3e 2e f2 20 3f
       0.10150724 -0.4661776 0.40636978 0.62869537
0003a0 a5 b5 b8 3f 52 69 d1 be 81 56 02 bf ff ec a6 3e
       1.4430434 -0.40900666 -0.50913244 0.3260269
0003b0 8d 57 91 3d cf f7 8a bf 67 fc cc 3f 45 14 07 be
       0.07096777 -1.0856875 1.6014527 -0.13191326
0003c0 b8 0d ae bd 21 75 ce bd 17 da 93 3d c8 15 9a bd
       -0.084987104 -0.10080934 0.07219332 -0.07523686
0003d0 25 c9 e3 3d 50 57 60 3e 92 50 cf be 5d b6 2a bf
       0.1112235 0.21908307 -0.40491158 -0.66684514
0003e0 ec e9 d8 3c 81 1c ae be 62 38 7a bd 59 5c 50 bd
       0.02647873 -0.34006122 -0.061088927 -0.05086932
0003f0 53 ad 5d be 16 51 be 3e 87 3b ae bd 3b 9f 44 3d
       -0.21648149 0.3717124 -0.08507448 0.048003417

weight_hh_l0 f4 [256, 64]
000000 35 c7 e0 3f 9d 42 64 bf 51 d0 5c 3f 4c c6 17 3f
       1.7560793 -0.89164144 0.86255366 0.5928695
000010 ed 8e 7f 3f 1b e7 15 be f9 e2 2f 3e cd 14 f7 be
       0.9982746 -0.14638941 0.17176427 -0.48258057
000020 fa 68 73 3e 5f 29 43 3e 6f fe 5a 3d 03 ef 34 bf
       0.23770514 0.1905875 0.053465303 -0.706772
000030 a5 32 86 3f 30 55 1a bf 6c f2 b7 3f 6d 08 5d bf
       1.0484205 -0.60286236 1.4370856 -0.8634098
000040 3c a6 21 3e ca 86 7d 3e bb 16 7d 3f 1e d0 dd bd
       0.1578607 0.24758449 0.9886281 -0.10830711
000050 5f 9e ba bf c4 2a f6 be 6d f8 78 bd 54 68 28 bf
       -1.4579581 -0.48079503 -0.060783792 -0.6578419
000060 3e c2 14 be 8f ce 06 be e1 aa b2 3e c2 b5 38 3f
       -0.14527223 -0.13164733 0.34895995 0.7215234
000070 d4 42 de be a4 73 eb bd 47 75 1b bf ae b1 ff 3e
       -0.4341036 -0.11496666 -0.60725826 0.49940246
000080 36 a7 04 3f 25 14 ae be 22 0e 38 3e f5 f5 18 3f
       0.51817644 -0.33999744 0.17974141 0.597503
000090 28 c9 a4 3e 17 c3 c9 3e c2 4a a0 bf 04 c5 76 bf
       0.3218472 0.39406654 -1.2522814 -0.9639437
0000a0 6c cb 88 3f a1 7c 89 be 36 69 3c 3e bb 57 2a 3e
       1.068708 -0.26852897 0.1839951 0.16635029
0000b0 14 df 3d 3f 0a bf 8f bf 70 31 fe bf d4 9b 0b be
       0.74168515 -1.1230175 -1.9858837 -0.13633662
0000c0 b7 c6 7c 3f 76 1c b3 3e f5 70 0c bf 0f e9 dd 3e
       0.98740715 0.3498265 -0.5485986 0.43341872
0000d0 6e 87 f5 3f ad b8 68 3f 9b ae 06 3e b7 02 e5 3e
       1.9181955 0.9090679 0.13152544 0.44728634
0000e0 e4 a4 19 3f 34 12 59 bf fd fa f8 be 69 96 f5 3e
       0.6001723 -0.847934 -0.4862899 0.47966316
0000f0 9c 86 69 3b 34 fb 1e bf d2 7b 32 3f 28 bc 5e 3f
       0.0035633212 -0.62102056 0.69720185 0.87005854
000100 f1 49 b4 be 67 a1 c6 3f 9d d4 b9 bf b8 f4 ba 3e
       -0.35212663 1.5518006 -1.451801 0.3651483
000110 e3 72 3b 3e 85 1e 43 be f9 eb 6e bc 44 2c fb 3e
       0.18305545 -0.19054611 -0.014582627 0.4905721
000120 30 af 68 3e e1 f6 4e be bb 3e 4b bf 2e c2 b7 be
       0.22723079 -0.20211364 -0.79392594 -0.35890335
000130 aa a2 97 bf 0c dc 3e 3e ad b5 43 bf de 53 fe 3e
       -1.1846516 0.18638629 -0.7644909 0.4967336
000140 a8 f2 dd bf e4 1e 09 bf 1b 22 33 be 1d 48 20 3f
       -1.7339678 -0.5356276 -0.17493479 0.62610036
000150 27 41 37 3e 06 8d 15 3e e8 e3 7d 3e 59 b9 80 bf
       0.17895947 0.14604577 0.2479397 -1.0056564
000160 03 c5 a0 3c 3e c8 d5 bf 4b 2a 01 be a8 da 69 be
       0.019625193 -1.6701734 -0.1261379 -0.22837317
000170 b8 c2 36 bf 6c 63 73 bf 08 31 3c 3f f8 ec 05 bd
       -0.7139087 -0.9507358 0.73512316 -0.032696694
000180 97 08 d1 3e 2d 66 15 bd 31 34 eb 3e 4e b7 be be
       0.40826866 -0.036474396 0.45938256 -0.37249225
000190 96 8a 8c bf 9e 8f a4 3e 26 00 26 bf 28 03 a0 3e
       -1.0979793 0.3214082 -0.64843976 0.31252408
0001a0 d7 36 70 bf bd c5 81 bf 0a 6d 45 3f 00 68 85 be
       -0.9383368 -1.013847 0.77119505 -0.26055908
0001b0 45 02 bb be 8c 6f c1 be 40 7d 8e be ea 36 08 be
       -0.3652517 -0.37780416 -0.27829933 -0.13302198
0001c0 64 48 11 3f 14 c4 43 bc 7c 4d 83 3e 21 2b 91 3f
       0.56751084 -0.011948604 0.25645053 1.1341287
0001d0 82 91 3f be fa cb 97 bf 80 bd a8 3e 1e cb 23 3f
       -0.1870785 -1.1859124 0.32957077 0.6398181
0001e0 5e a3 08 3f b3 36 2d be 43 cb 0b 3e 04 c3 9f be
       0.5337428 -0.16915397 0.13651757 -0.31203473
0001f0 18 5c 11 bf f5 e9 0a bf 68 83 42 3d 47 63 8f 3e
       -0.5678115 -0.5426324 0.0474886 0.2800543
000200 15 2c 57 bf 66 9a 86 be ee b5 8d bf 9c 82 0a bf
       -0.8405164 -0.26289672 -1.1071146 -0.54105544
000210 a7 de 99 bf da c0 b0 bf 5a 67 46 bf 9e 4f b9 3f
       -1.2021073 -1.3808854 -0.7750145 1.4477422
000220 bf 3b d1 3d 32 88 4d be 94 38 47 b9 d8 02 0e 3e
       0.10216474 -0.20071486 -0.00018999196 0.13868272
000230 5c 32 63 be 64 86 f1 3d f7 10 fa bd ef 3a 41 be
       -0.2218718 0.11793211 -0.12210267 -0.18870138
000240 66 c6 2b bf 1c 57 b5 3e 8f f9 63 bf d9 25 77 3e
       -0.67099607 0.35418022 -0.8905267 0.24135531
000250 f2 a4 8e bf 80 c4 c9 3f 96 ad 41 bf 2a e8 79 bf
       -1.1144087 1.5763092 -0.75655496 -0.9761988
000260 2b a2 62 bf 70 e4 80 3f f3 f0 b9 3e 90 a9 2b 3c
       -0.885287 1.0069714 0.36316642 0.010477439
000270 4e 82 a2 be fa 00 39 be 91 c6 35 be 95 14 13 3f
       -0.3174004 -0.18066779 -0.17751528 0.5745328
000280 43 4b d1 be c6 e9 a5 3e 6d f8 e8 3e 9a 95 53 3e
       -0.40877733 0.32404917 0.45502034 0.20662537
000290 25 be 7d be d2 bf 4d bf 1f 6e 73 bf 27 b1 9c 3f
       -0.24779566 -0.8037082 -0.95089906 1.2241563
0002a0 1a 5b 39 bf bd dc 1d 3f 26 e9 eb be 34 53 88 3f
       -0.72404635 0.61664945 -0.46076316 1.0650392
0002b0 39 7e 9b 3f aa 25 9a bf a6 ed 8e bf 5d 47 8f 3e
       1.2147895 -1.2042744 -1.1166275 0.27984133
0002c0 22 7f 8d 3c 01 e3 63 bd 6b 5f 07 3d bc 06 8a 3f
       0.017272536 -0.05563641 0.033049982 1.0783305
0002d0 ce 8a 1b bf ea d1 48 be e2 60 23 3f e3 4e 67 3f
       -0.60758674 -0.19611326 0.63819706 0.90354747
0002e0 b2 ce 13 3f e1 25 30 bf ca 1d a5 bd e7 33 1c be
       0.57737267 -0.688078 -0.080623224 -0.15254174
0002f0 d6 e2 16 3e 67 89 6a 3f 65 29 c8 3e 0b be f2 be
       0.14734969 0.9161591 0.39094082 -0.47410616
000300 47 d7 e6 be 63 3d d6 be be e3 c5 3e 6b a5 ad 3f
       -0.4508612 -0.4184371 0.38650316 1.3566107
000310 f9 6b 07 3f bd 75 0c 3e 0f 34 f1 3e 45 5b 37 3f
       0.5289913 0.13716789 0.4711003 0.7162364
000320 03 81 0b bd e1 5c 39 3f 29 f8 a3 3e d9 f2 a4 3e
       -0.034058582 0.72407347 0.3202527 0.32216528
000330 58 1e a5 be f3 a6 b6 be 10 7b 07 c0 b7 54 ba 3f
       -0.32249713 -0.35674247 -2.1168861 1.4557103
000340 b6 44 b6 be 51 da 83 3d 60 1e 48 3d b0 92 60 3f
       -0.35599297 0.06438125 0.048857093 0.8772383
000350 f2 82 29 bf df b8 19 3f a7 1d fe be 66 1e 50 3e
       -0.6621543 0.60047716 -0.49631998 0.20324096
000360 3c 74 89 be d8 0f 96 bd ae be 75 be 9e 2a 13 bf
       -0.26846492 -0.07327241 -0.2399852 -0.57486904
000370 c4 d1 30 bf 13 de f3 3c 6e 0e 0e bf c2 5d 6f 3f
       -0.69070077 0.02976898 -0.5549077 0.9350244
000380 b0 64 3d bf 98 34 3c 3f ad 1c 33 3e 38 2e 77 3e
       -0.7398176 0.7351775 0.17491408 0.24138725
000390 04 74 6d 3f bb 68 da bf d3 79 33 be 03 58 d8 3e
       0.9275515 -1.7063211 -0.17526941 0.42254648
0003a0 c0 f9 9d 3d 74 0c 09 3e 38 46 8c bf 72 3d b4 3f
       0.07713652 0.13383657 -1.0958929 1.4081252
0003b0 02 8f 2a 40 aa b7 f5 bf a6 8d 88 3f 54 51 b8 bd
       2.6649785 -1.9196675 1.0668228 -0.08999887
0003c0 96 e5 21 c0 46 0e b1 3e 58 7e a9 be 56 21 33 3f
       -2.5296378 0.34581202 -0.33104205 0.6997274
0003d0 ee 09 aa bf 1b dd 55 3f af 7a 74 3f 64 4d f1 3e
       -1.328428 0.83540505 0.954997 0.47129357
0003e0 6c 29 e5 3e 6e d6 87 bd 5d 48 44 be 81 7b c3 be
       0.44758165 -0.06632696 -0.1916823 -0.38180164
0003f0 08 0e 7d 3e bc 95 12 3e e9 ba 73 3f 97 b0 ac bd
       0.24712384 0.14314932 0.9520708 -0.08432119

bias_ih_l0 f4 [256]
000000 e8 0f 99 bf a1 71 d7 bf 11 7d 4e bf 2d 70 9a be
       -1.1957979 -1.6831552 -0.80659586 -0.30163708
000010 67 34 54 bf 3d f8 ae bf 74 72 bc bf f1 98 6a bf
       -0.8289246 -1.3669506 -1.4722428 -0.9163962
000020 81 a0 de be e2 a9 a4 bf bb b8 80 bf d9 6d d6 bf
       -0.4348183 -1.2864344 -1.0056375 -1.6752273
000030 c3 c2 67 bf aa 71 4e bf 52 fb 82 bf f7 aa ba be
       -0.9053156 -0.8064219 -1.0232947 -0.3645856
000040 e1 48 cf 3c 40 21 d4 bf ab 12 4c bf 8d 15 a8 bf
       0.025303306 -1.6572647 -0.79715985 -1.3131577
000050 39 22 94 bf 80 b4 66 bf af 26 c1 bf 5c 0f 13 bf
       -1.1572944 -0.9011917 -1.508993 -0.5744531
000060 6e 92 31 bf f2 79 a1 bf 82 e9 25 bf f8 27 54 bf
       -0.6936406 -1.261534 -0.6480943 -0.8287349
000070 33 88 f8 be b9 ec 2a bf 3c 3f 9b be 9c 82 41 bf
       -0.48541412 -0.6676746 -0.30321681 -0.7558992
000080 f0 0d 04 bf 3b f4 5f bf 2c 0a be bf a5 b2 d4 bf
       -0.51583767 -0.8748204 -1.4846854 -1.6617018
000090 02 cf 89 bf 24 cf 9b bf e7 57 5e bf ea 45 91 bf
       -1.0766299 -1.2172589 -0.8685288 -1.1349461
0000a0 97 91 8a be 93 b0 9d bf c2 31 51 bf f8 c3 81 bf
       -0.270642 -1.2319511 -0.8171655 -1.013793
0000b0 9b 77 5d bf 77 6b 93 bf 01 49 39 bf a0 63 91 bf
       -0.8651063 -1.1517171 -0.7237702 -1.1358528
0000c0 8c 6b 9d bf 08 f9 b8 bf da 04 5f be 3f 09 ac bd
       -1.2298446 -1.4450998 -0.21779194 -0.08400201
0000d0 f5 14 1e bf 34 fe 44 bf d3 67 35 bf 13 14 00 bf
       -0.6175073 -0.76950383 -0.7086155 -0.5003063
0000e0 ce 33 b1 bf 7e f6 c7 bf a7 16 74 bf e1 74 8f bf
       -1.3843935 -1.5622098 -0.95347065 -1.1207544
0000f0 f9 9a 94 bf 0b 86 58 bf 4a 0a 22 bf d3 95 8b bf
       -1.1609794 -0.84579533 -0.6329695 -1.0905098
000100 58 e2 91 bf 35 7a 40 bf d0 de a7 bf c6 2d e5 bf
       -1.13972 -0.75186473 -1.3114872 -1.7904594
000110 f7 cf df bf b2 02 5a bf 7d c6 be bf 92 8d 4e be
       -1.7485341 -0.8516036 -1.4904324 -0.20171192
000120 81 71 fe bf 57 dd da be 60 3a 26 bf ba 89 e6 bf
       -1.9878389 -0.42746994 -0.64932823 -1.8010781
000130 81 94 21 bf b9 1d 63 3f 3d aa 9d bf 2d 65 c3 bf
       -0.63117224 0.8871723 -1.2317578 -1.5265251
000140 84 5a e1 bf 7f 16 e7 bf 69 02 48 3f 22 5e 82 bf
       -1.7605748 -1.805374 0.7812868 -1.0184977
000150 f1 6c c4 be 7e ab 43 bf d2 44 c2 bf a6 e5 d0 bf
       -0.38364366 -0.7643355 -1.5177252 -1.6320083
000160 7e 35 55 bf 59 e5 cd bf 82 af 8e be 62 77 69 bf
       -0.8328475 -1.6085616 -0.27868277 -0.9119779
000170 53 0c a5 bf 9d 19 c5 bd 59 27 1c bf 31 ae 84 bf
       -1.2894386 -0.09624026 -0.6099754 -1.0365659
000180 e7 d8 a0 3f 68 3a 89 bd 6c 56 90 bf 02 02 b1 3c
       1.2566193 -0.06700593 -1.1276374 0.021607403
000190 f2 32 02 c0 37 55 28 bf b8 b1 9e bf 4f c9 ac bf
       -2.0343595 -0.6575503 -1.2397985 -1.3498935
0001a0 3a a9 8b 3f f4 b9 d5 bf fb b6 90 3f 17 c5 93 bf
       1.0911019 -1.6697373 1.1305841 -1.1544522
0001b0 23 79 0d be 1e 3e aa 3f 67 12 84 bf 3e 7a ae bf
       -0.13815741 1.3300207 -1.0318116 -1.3631055
0001c0 65 e2 fa bf f2 f1 7e bf 53 3b 12 bf a1 1b ce bf
       -1.960034 -0.9958793 -0.5712177 -1.6102182
0001d0 5c db 4b bf 48 19 a7 bf 8f d8 d1 bf f5 19 80 bf
       -0.7963159 -1.305459 -1.6394213 -1.0007921
0001e0 03 79 f3 3e 31 3d 07 c0 d9 bb 36 3e ac d7 4a bf
       0.47553262 -2.1131098 0.17845096 -0.7923534
0001f0 90 f7 56 bf f2 9e 97 bf a5 cd 4d bf 35 3b 02 bf
       -0.839715 -1.1845381 -0.80391914 -0.5087159
000200 db 01 a7 3e 62 96 8f be 71 a5 5f be 58 3e 26 3f
       0.32618603 -0.2804442 -0.21840455 0.6493888
000210 e3 17 b1 be 7a 32 0c 3f 0a 5f 02 3f d9 20 a7 3e
       -0.34588537 0.5476452 0.5092627 0.32642248
000220 1d 25 43 3f 75 7a 04 bf ee ea 89 be 55 da 55 be
       0.76228505 -0.51749355 -0.2693705 -0.20884068
000230 a0 8b 11 bd 55 ea c6 bb aa 4a 22 3e 08 19 08 be
       -0.035533547 -0.006070415 0.15848795 -0.13290799
000240 2e 3c 7c bc 80 b4 17 3f d0 a2 8e 3e 2e 7b 02 bb
       -0.015395207 0.59259796 0.2785859 -0.0019909847
000250 2e 4c ae 3d 38 d4 c0 be fb 7c 0f be 7f ee b0 be
       0.08510624 -0.3766191 -0.1401252 -0.34556958
000260 20 a6 06 3f 0b 83 dd 3d b2 43 53 3e 3a 5d 1c 3f
       0.52597237 0.1081601 0.20631292 0.6107975
000270 3c 64 2c bf 4b f8 46 bf 01 e1 da b9 88 39 03 3f
       -0.67340446 -0.77722615 -0.0004174784 0.5125966
000280 9a 2c 8c be 29 06 16 3e 34 26 98 be b4 fd 02 bf
       -0.27377778 0.14650787 -0.29716647 -0.5116837
000290 47 ce 9b be 71 54 83 3d 29 9c cc be 66 a4 ee be
       -0.30430815 0.0641259 -0.3996289 -0.466098
0002a0 52 99 e8 bd 40 4e d6 3d 14 bf 22 be 27 20 7e 3e
       -0.113573685 0.10464144 -0.15893203 0.24816953
0002b0 25 c2 1d 3f 68 f4 5a be c1 38 c4 be be 37 d0 be
       0.61624366 -0.21382296 -0.3832455 -0.40667528
0002c0 f6 f7 ff 3e 7c 0a 78 be db 4b d9 bd 57 7d 2f bf
       0.49993867 -0.2422275 -0.106101714 -0.6855063
0002d0 09 dd 07 bf d3 39 77 3e 20 11 b3 3e 7c 2c 35 bf
       -0.5307165 0.24143152 0.34974003 -0.70771
0002e0 b2 59 cd 3e be 11 db be d7 23 8c 3e 92 0a 7b 3f
       0.40107495 -0.42786974 0.27371094 0.98063004
0002f0 3b d5 79 3e 89 0f 6b bf e0 ce f8 3e 29 4c 81 3e
       0.24397747 -0.9182058 0.48595333 0.25253418
000300 78 7f 9c bf 43 70 9e bf 8d bf 5a bf 1c 92 21 bf
       -1.22264 -1.237801 -0.85448533 -0.6311357
000310 e8 ab a4 bf 69 c9 ad bf 31 34 23 bf 19 08 ea 3d
       -1.2864962 -1.357709 -0.6375151 0.11427326
000320 67 8a 6b bf 83 43 0f bf 54 88 83 3f c9 5a c0 bf
       -0.9200806 -0.5596239 1.0275979 -1.5027705
000330 b3 fa 9f bf 66 18 ce 3f e3 d2 66 bf 9c 35 4a bf
       -1.2498382 1.6101196 -0.9016554 -0.7898805
000340 2a ab 72 bf 29 1e 7f bf 13 24 96 3f 9e 99 20 bf
       -0.94792426 -0.99655396 1.1729759 -0.627344
000350 9f 42 68 bf f2 ff 59 bf 4a 3e ce bf 05 c1 b4 bf
       -0.90726656 -0.85156167 -1.6112759 -1.4121405
000360 f5 d6 48 bf f0 8e 4f bf 35 51 3e 3f 17 4e 78 bf
       -0.78453 -0.8107748 0.7434266 -0.96994156
000370 fa 88 3b bf 3e 9d da bf 73 50 0e 3e cb 51 fc bd
       -0.73255885 -1.7079237 0.13897876 -0.12320288
000380 2b d2 9b 3f 50 18 da 3b ee e2 8a 3c 1c 9f a6 bf
       1.2173513 0.0066557303 0.016953912 -1.3017306
000390 02 b9 01 bf 4b 2c 31 bf 06 b6 4a bf b4 68 ac bf
       -0.50672925 -0.6920821 -0.79183996 -1.3469453
0003a0 83 c9 cc bd 41 86 b1 bf 25 40 8a 3f fa b2 60 3d
       -0.09999373 -1.3869096 1.0800825 0.054858185
0003b0 30 85 c7 bf d4 75 9a be 2a 74 a4 bf f3 62 cf bf
       -1.5587521 -0.3016802 -1.284795 -1.6202072
0003c0 85 d2 1d bf 72 9e 79 bf 60 bf 65 bf 48 16 b6 bf
       -0.6164935 -0.97507393 -0.8974514 -1.422555
0003d0 d2 6a a2 be 82 e8 cc bd 17 0b 80 bd c7 2c 8d bf
       -0.31722122 -0.10005285 -0.06252115 -1.102929
0003e0 58 68 51 be c1 ed a8 bf b7 72 92 3f 7b fc dd bf
       -0.2044996 -1.3197557 1.1441258 -1.7342676
0003f0 1f f0 2c bf ee 91 8f bf 9e 33 c1 bf 46 22 16 3f
       -0.67553896 -1.1216409 -1.5093877 0.5864605

bias_hh_l0 f4 [256]
000000 33 66 96 bf 50 57 df bf 78 b0 65 bf 77 17 83 be
       -1.1749939 -1.7448521 -0.89722395 -0.2560384
000010 58 d4 2c bf 1a 3d bb bf 8d fb b8 bf 62 5e 5f bf
       -0.6751151 -1.4628022 -1.4451767 -0.8725339
000020 34 04 a7 be d1 69 a0 bf 4f 54 7f bf 8e 12 cf bf
       -0.32620394 -1.2532293 -0.9973802 -1.6177537
000030 7f 85 74 bf ff ef 28 bf 8f a6 87 bf b0 8e 09 bf
       -0.955162 -0.65991205 -1.0597705 -0.5373335
000040 a9 17 88 3d 5b 67 c8 bf 31 4e 66 bf 21 a4 ae bf
       0.06645138 -1.5656542 -0.8996306 -1.3643838
000050 a5 ae 9c bf 05 d9 6f bf 93 05 bb bf 49 76 19 bf
       -1.2240797 -0.9369052 -1.4611076 -0.59946114
000060 cd bb 44 bf be 3f 96 bf 15 4b 47 bf 5d 2a 6a bf
       -0.7684906 -1.1738203 -0.7784894 -0.9147089
000070 bb 8f 1d bf 94 69 36 bf da 80 bc be ef 32 47 bf
       -0.6154744 -0.7125485 -0.36817056 -0.77812093
000080 7e ab 04 bf 06 dc 69 bf 48 ff cc bf 22 dd d1 bf
       -0.51824176 -0.91351354 -1.6015406 -1.6395609
000090 ca 99 81 bf 12 9d 9d bf 34 32 65 bf 6c 3e 6a bf
       -1.0125058 -1.2313559 -0.8952973 -0.915015
0000a0 c2 d5 7f be 62 32 aa bf eb c3 62 bf 2c 53 95 bf
       -0.24983886 -1.3296626 -0.885802 -1.1666007
0000b0 5f 8a 7f bf a9 da 93 bf c1 5a 64 bf b6 c6 8c bf
       -0.9982051 -1.1551105 -0.8920098 -1.0998142
0000c0 94 f5 9d bf 3f 80 c1 bf 50 9d 94 be f7 c2 08 be
       -1.234057 -1.5117263 -0.2902627 -0.13355623
0000d0 68 55 19 bf d1 94 2b bf 40 88 21 bf b2 16 2b bf
       -0.59895945 -0.6702395 -0.63098526 -0.66831505
0000e0 77 07 b5 bf 7e ed b6 bf c7 59 84 bf b4 b2 7e bf
       -1.4142903 -1.4291227 -1.0339898 -0.9949143
0000f0 bb 02 92 bf 2f 4d 4e bf 76 83 0a bf 3d 5c 76 bf
       -1.1407083 -0.8058652 -0.54106843 -0.96234494
000100 9e 43 82 bf c0 97 40 bf c9 85 ae bf 5d 2e e6 bf
       -1.0176885 -0.7523155 -1.3634578 -1.7982899
000110 a9 3d e1 bf 69 39 56 bf 55 63 cb bf f6 78 c3 be
       -1.7596942 -0.8368135 -1.5889689 -0.38178223
000120 d7 cc e2 bf 9f ad 0e bf 53 69 0c bf cd a9 e8 bf
       -1.7718762 -0.55733675 -0.5484821 -1.8176819
000130 7c c9 1b bf 74 f2 67 3f 56 40 a2 bf e0 4f c2 bf
       -0.60854316 0.9060433 -1.2675884 -1.5180626
000140 6c d0 cf bf 86 48 e5 bf a2 fc 45 3f bb 91 85 bf
       -1.623548 -1.7912757 0.7733861 -1.0435098
000150 de 3a f5 be 1d da 57 bf 95 9b aa bf 91 1a e3 bf
       -0.47896475 -0.8431719 -1.332873 -1.7742482
000160 ec 65 4b bf f3 71 c5 bf 80 b0 88 be 1e 93 6b bf
       -0.79452395 -1.54254 -0.2669716 -0.9202136
000170 8b 19 9f bf 37 33 82 bd 09 26 42 bf 7d 35 6f bf
       -1.242967 -0.06357425 -0.7583929 -0.9344099
000180 5d 20 9a 3f 49 ce 04 be 82 c7 8f bf b8 b4 dd 3d
       1.2041126 -0.12969317 -1.123276 0.10825485
000190 c4 ff 00 c0 2c 93 4c bf 17 0f 9d bf 78 e6 9f bf
       -2.0156107 -0.79912066 -1.227023 -1.2492208
0001a0 be 52 91 3f 87 8f c2 bf f3 6d 92 3f bf 1a 8a bf
       1.1353376 -1.5200051 1.1439804 -1.0789412
0001b0 9e 36 64 be f2 3b be 3f df 8f 8d bf 73 f5 a2 bf
       -0.2228646 1.4862044 -1.1059531 -1.2731155
0001c0 19 35 e3 bf ea a9 72 bf fc 24 02 bf 7e 49 c5 bf
       -1.7750579 -0.9479052 -0.50837684 -1.5413053
0001d0 27 08 72 bf 53 31 92 bf ef 50 cc bf d9 3d 43 bf
       -0.9454369 -1.1421303 -1.5962199 -0.7626625
0001e0 0e 70 10 3f 16 7e 0d c0 cc 98 38 3d 6b bc 29 bf
       0.5642098 -2.2108207 0.045067593 -0.6630313
0001f0 41 42 7d bf d2 e3 8f bf 68 59 40 bf 08 53 24 bf
       -0.9892922 -1.12414 -0.75136423 -0.64189196
000200 ed 17 ac 3e 85 4b 43 be 68 a9 89 be 4b 6a 14 3f
       0.33612004 -0.19071777 -0.2688706 0.5797469
000210 2f 6a f3 be 4f 94 10 3f 97 b3 d7 3e 42 88 76 3e
       -0.4754195 0.564763 0.42129204 0.24075416
000220 8b ec 34 3f 4f 03 11 bf 9f b9 7c be f7 81 3f be
       0.70673436 -0.56645674 -0.24680184 -0.18701921
000230 24 95 f7 bd 49 98 64 3d 6c 03 a5 3e c9 a7 a4 be
       -0.12088993 0.055809293 0.32229173 -0.3215926
000240 67 20 eb bd 20 13 07 3f 66 2b 9d 3e 76 c1 a6 3d
       -0.1148079 0.5276356 0.30697173 0.081423685
000250 1e 4c 58 bd a5 d6 aa be 34 5a a7 3d 32 21 fb be
       -0.052806966 -0.33366886 0.08171502 -0.49048764
000260 7f 99 eb 3e 68 15 79 bd de 0a 04 3e 6e 31 df 3e
       0.46015546 -0.06081143 0.1289477 0.435924
000270 8e 0e 31 bf c1 20 60 bf 20 4a d0 3d 2f 21 f9 3e
       -0.69162834 -0.8754998 0.10170388 0.4865813
000280 a8 f8 95 be a5 db 47 3e 4d e6 6c be b2 01 9f be
       -0.29291272 0.19517381 -0.23134728 -0.3105598
000290 a9 5f c3 be eb 99 28 3e 06 d7 ca be 47 f9 bb be
       -0.3815892 0.16464965 -0.39617175 -0.3671362
0002a0 7c b4 0d 3d b1 7f d0 3d 4b f0 5c 3c 57 90 a8 3e
       0.03459595 0.10180605 0.013485025 0.32922623
0002b0 18 19 14 3f 16 a6 f8 bd 60 68 cc be c0 0c d5 be
       0.5785079 -0.121410534 -0.39923382 -0.4161129
0002c0 df 97 0d 3f 9b ac a2 be 1e bd 0d bd e0 74 33 bf
       0.5530986 -0.31772313 -0.034604184 -0.7010021
0002d0 f9 7a 11 bf 5d a3 81 3e f4 0a b6 3e ca eb 20 bf
       -0.56828266 0.2531995 0.35555232 -0.62859786
0002e0 b0 8b bd 3e 88 5f b7 be 7d c8 a3 3e 68 28 8c 3f
       0.37020636 -0.35815072 0.31988898 1.0949831
0002f0 3f be 79 3e 98 28 64 bf bf 09 a2 3e 68 da b5 3e
       0.2438898 -0.8912444 0.3164806 0.35518193
000300 d7 33 9c bf f2 cc 91 bf 0f 62 6d bf af 46 3f bf
       -1.220332 -1.1390669 -0.9272775 -0.7471723
000310 d4 32 9b bf 3a c4 b4 bf 41 a0 19 bf e5 37 9e 3e
       -1.2124887 -1.4122384 -0.60010153 0.3090202
000320 2d 35 8c bf 98 d1 e4 be c2 7a 5a 3f d1 6a b3 bf
       -1.0953728 -0.44691157 0.85343564 -1.4016973
000330 4a 60 9b bf fb a8 cb 3f ad 31 4e bf c9 2a 67 bf
       -1.213876 1.5910944 -0.8054455 -0.9029966
000340 aa 0b 68 bf 3f e9 81 bf d6 2b 9e 3f 90 dd 51 bf
       -0.906428 -1.0149306 1.2357128 -0.819787
000350 52 61 84 bf 41 12 75 bf 96 fd cf bf b7 4e b2 bf
       -1.03422 -0.9573098 -1.6249263 -1.3930272
000360 c2 a6 43 bf ce 49 72 bf 4e f9 31 3f a9 f0 85 bf
       -0.7642633 -0.94643867 0.69521034 -1.0464069
000370 0a 85 38 bf 96 dd cf bf b9 b0 93 3e 6c da 17 be
       -0.72078 -1.6239498 0.28845766 -0.14829415
000380 e0 40 a6 3f c6 03 bd 3c b8 91 d1 bd 6b da aa bf
       1.2988548 0.023073088 -0.10232872 -1.3347906
000390 76 94 d8 be 31 f0 48 bf 8e 78 32 bf f2 f5 a3 bf
       -0.42300767 -0.78491503 -0.697152 -1.2809432
0003a0 95 d0 bb bd 71 5e c6 bf 92 4b 90 3f ec b4 02 be
       -0.09170643 -1.5497571 1.1273062 -0.12764329
0003b0 da 7a b3 bf da 3b 40 be 3b e7 c3 bf bd e4 df bf
       -1.4021866 -0.18772832 -1.5304941 -1.749168
0003c0 16 bd 47 bf cd 3e 86 bf 02 85 5f bf dc a0 b8 bf
       -0.780229 -1.0487915 -0.8731233 -1.442409
0003d0 14 03 a0 be 5a c4 a5 3d ab 60 07 3d 0d c7 9e bf
       -0.31252348 0.08094092 0.033051174 -1.2404495
0003e0 f4 74 c7 bd 51 f0 a8 bf 0d 6f 96 3f d2 49 f0 bf
       -0.09739104 -1.3198339 1.175264 -1.8772528
0003f0 6a 45 16 bf a5 9e a2 bf ff 8f b0 bf 42 8a 19 3f
       -0.5869967 -1.2704664 -1.3793944 0.5997659

weight_ih_l1 f4 [256, 64]
000000 be 2e ba bf b9 23 51 bf 8c 9e 14 bd 76 68 30 3f
       -1.4545515 -0.81695133 -0.036284015 0.68909395
000010 b4 9b 8a 3e 85 e6 45 3f ff 6e 1b bf 19 a9 41 bf
       0.27071917 0.7730487 -0.6071624 -0.7564865
000020 a8 ca 7c 3e b2 a7 5b 3f 95 9a da 3e 59 ee b2 bf
       0.24686682 0.8580276 0.42696062 -1.3978988
000030 54 4c aa bf 6a 26 8a bd 39 31 e4 3e ab 46 0b bc
       -1.3304543 -0.06745608 0.44568804 -0.008500735
000040 33 9b c0 be da b1 47 3e 46 29 89 bf 3c 28 a3 3f
       -0.37618408 0.19501439 -1.0715721 1.2746654
000050 37 08 ec bf 4c 0c 88 3f 03 18 5a 3f df e3 19 3f
       -1.8440007 1.0628753 0.8519289 0.6011333
000060 3b 4e 35 bf 5f 6a c6 be 98 55 b9 be ef de d2 bf
       -0.70822495 -0.3875303 -0.36198115 -1.6474284
000070 1d 3b b0 3e 3a a3 cd 3f e7 30 a4 bf 53 a9 a1 be
       0.344201 1.6065438 -1.2827424 -0.31574497
000080 f0 3b e7 3e 24 5a 28 3f 97 9e 2c 3f 79 00 8a bf
       0.45162916 0.65762544 0.6742949 -1.0781394
000090 f2 d8 dc be 4e 8a 2d be 3f d7 8c 3f 6e cb a8 3e
       -0.43134266 -0.1694729 1.1003188 0.32967705
0000a0 9f 7e 15 3e 5a cc 97 bd dd 0b 55 3d 7f cf e6 3e
       0.14599083 -0.07412024 0.052013267 0.45080182
0000b0 8b c1 8f bf be 44 51 3e bd d3 6f be e1 68 04 3f
       -1.123094 0.2043638 -0.23420615 0.5172253
0000c0 99 d3 a7 3f 24 38 6c 3f 17 d4 15 bf 05 4e 4c 3f
       1.311145 0.92273164 -0.5852675 0.7980655
0000d0 dc f9 e5 3e 9f 3a 21 3f 49 50 05 be 94 d4 f5 3f
       0.4491719 0.62980074 -0.13018908 1.9205499
0000e0 f4 c4 7a 3e bf 27 08 bf 18 9b 49 bf 0d 77 b1 be
       0.24489194 -0.5318565 -0.7875228 -0.3466114
0000f0 58 e6 d7 be a7 b9 c2 3e 69 fe 24 bf 91 02 3a be
       -0.42167926 0.38032266 -0.644507 -0.18165042
000100 72 b4 26 bf ff 8a a5 be b6 ac 88 be 05 ec 25 3f
       -0.6511909 -0.32332608 -0.26694268 0.6481326
000110 de 25 e8 bc d1 b6 41 bf cc a4 18 bf e8 10 c7 bd
       -0.028338369 -0.7566958 -0.5962646 -0.097200215
000120 f5 15 ac 3f 22 37 83 3e 4f 6c e8 be c1 47 3c bf
       1.3444201 0.25628 -0.45395133 -0.7354699
000130 21 2d 79 be fc a2 23 3f f5 e0 d4 3e 72 4c 92 bd
       -0.24333622 0.6392057 0.4157788 -0.07143487
000140 22 6d ad bd bf 31 61 3f 4e 60 1d bf 11 55 94 3e
       -0.08468081 0.8796653 -0.61475074 0.2897115
000150 6b 5a 9d be a3 79 89 3f f4 22 12 3e 0b 28 82 3e
       -0.30733046 1.0740246 0.14271146 0.25421175
000160 f3 0d c1 bf 88 df 44 be 8f de 06 be 94 8a a6 bf
       -1.5082382 -0.19225895 -0.13170837 -1.3011041
000170 16 ac 5c 3b f0 29 d7 3e bd 17 b1 be 6b a4 c2 be
       0.0033671907 0.42024183 -0.34588423 -0.38016066
000180 dd 59 83 bc 12 ee 45 3f fd 12 2b 3e 5e be ad 3d
       -0.016034061 0.7731639 0.16706462 0.08483575
000190 cb 1a 8e be 7c 6d 39 bf 6a e5 1f 3f 94 9f 86 be
       -0.27754816 -0.72432685 0.62459433 -0.26293623
0001a0 f3 b0 24 bf 98 94 df be 8c d0 e3 3e 79 1e 54 3e
       -0.64332503 -0.43668056 0.44495046 0.2071475
0001b0 83 d2 66 bf c2 a7 db 3e b4 89 a8 3e 0c 3f 25 bf
       -0.90164965 0.42901427 0.3291756 -0.64549327
0001c0 1f 48 15 40 2d f6 2d 3f ab ba 32 3f 82 45 db 3e
       2.332527 0.6795376 0.6981608 0.42826468
0001d0 42 e3 02 3f 21 58 db bd 5a 6a 3d 3e e8 e3 0e 3e
       0.5112802 -0.10710169 0.18497601 0.13954127
0001e0 d9 18 2f 3f ee 40 1e bf 87 a4 3e be 03 6d 30 bf
       0.6839729 -0.61817825 -0.1861745 -0.6891634
0001f0 8c 6c f1 be f6 7b 49 3f 25 f5 ca 3d 6d ec eb be
       -0.47153127 0.78704774 0.09910039 -0.46078816
000200 ad e5 13 3f eb 6b 38 3d 55 fd 13 ba 7b 16 e5 3f
       0.5777233 0.045024794 -0.00056453544 1.7897485
000210 7f d2 fb 3e fc ab c1 3e 77 99 95 bf c9 2d 1a 3f
       0.49184033 0.37826526 -1.1687459 0.6022611
000220 24 2a 06 40 bd 63 f4 be 1a 6c f2 be 2e 85 ec be
       2.096322 -0.47732344 -0.473481 -0.46195358
000230 bd e0 2e bd b4 2f 87 bf e4 fd 7e 3e e0 0a 86 bf
       -0.042694796 -1.0561433 0.24901539 -1.0472069
000240 a5 50 8b ba e0 d1 9c 3f 90 34 e3 be 63 85 1e 3f
       -0.0010628892 1.2251549 -0.4437604 0.6192228
000250 63 5c 55 3d 3c 7e 89 be c5 f9 41 bf 29 00 8e 3f
       0.05209006 -0.26854122 -0.75771743 1.1093799
000260 26 9a 01 bd c3 ff f4 bd b0 f4 89 3e de 19 93 bf
       -0.031641148 -0.11962845 0.26944494 -1.1492269
000270 b7 24 a1 3c 1d b4 09 3e 33 3d b7 bf a8 f6 45 3e
       0.019670827 0.13447614 -1.4315552 0.19332373
000280 f6 7d fe 3e cd 9d ee 3e be 2d b4 3e 0b be 3a 3f
       0.49705476 0.46604767 0.3519115 0.7294623
000290 66 03 c2 be f6 9c 2e bd c8 de 76 bf 70 bb 96 bf
       -0.37893218 -0.04263016 -0.9643369 -1.1775951
0002a0 ef 4e 07 bf 14 d6 c4 3d d8 c1 10 bf df 6a 0a 40
       -0.5285482 0.09611145 -0.5654578 2.162773
0002b0 76 89 83 3d e1 26 9a 3e a1 e4 b0 be 78 a5 a4 be
       0.06422703 0.30107787 -0.3454943 -0.32157493
0002c0 33 ef 2a 40 05 0c 5c 3f c9 e0 f0 be cf 1e ae bd
       2.6708496 0.8595584 -0.47046497 -0.0850197
0002d0 2b 2f b2 be c7 7e 18 3f 1c 30 62 3f cf c8 7c 3f
       -0.3480161 0.59568447 0.8835466 0.9874391
0002e0 60 be 3b 3f 57 65 d6 bf 92 4a 50 bf ed 96 8b bd
       0.73337364 -1.6749676 -0.81363785 -0.06815896
0002f0 30 fb 6f 3e 8b 61 70 bf 49 fb 3f 3f d2 3d 8d 3d
       0.23435664 -0.9389884 0.74992806 0.06896557
000300 95 fd 4f 3f 9a c1 ab be 1f 00 4d 3f 9a 05 d8 3f
       0.8124631 -0.33546144 0.8007831 1.687671
000310 b3 05 15 3e 9c 39 87 be 8b d1 65 bd 92 88 53 3e
       0.14552955 -0.2641114 -0.05610804 0.20657566
000320 69 98 d0 3f a1 dc b1 3e 9e 7c e6 3c d0 73 a6 bf
       1.6296512 0.3473864 0.028135594 -1.3004093
000330 d3 1b 8c be 22 63 2b bf f6 7b 81 3f a4 f8 1e bf
       -0.27364978 -0.6694814 1.0115955 -0.62098145
000340 53 da 89 be 62 79 b4 3f ec b7 38 be 26 e3 08 bf
       -0.2692438 1.4099543 -0.1803891 -0.534716
000350 d4 84 77 3e 8a fa d9 be 88 34 99 be b6 ff 99 3e
       0.24171764 -0.4257396 -0.2992289 0.30077904
000360 b3 94 ef be e6 0b 3b 3c 78 6f 34 be 0d 6a 91 be
       -0.46793136 0.011416411 -0.17620647 -0.28401223
000370 a6 51 af 3e 63 cc dd 3f 8d 11 fb be 9e 0a 6e 3e
       0.3424198 1.7327999 -0.49036828 0.23246238
000380 2e 24 ec 3e a2 13 8c bf b3 c8 36 3e 04 1a c4 3e
       0.46121353 -1.0943491 0.17849998 0.38301098
000390 af 95 f0 bd 19 49 83 3e 27 c9 4a bf ba 13 6a bf
       -0.117473 0.25641707 -0.79213184 -0.9143635
0003a0 1c 10 29 3f 93 40 8f 3e 96 fe 1e 3d 1d 69 4f 3e
       0.66040206 0.27978954 0.03881701 0.20254941
0003b0 ab ed a3 be f6 46 07 3f 12 0a 1f 3e 74 4b 8e be
       -0.32017264 0.5284265 0.15531185 -0.2779194
0003c0 08 94 81 3f e3 61 13 3f d7 ad 28 3f 05 7a 13 be
       1.01233 0.5757124 0.6589026 -0.14402016
0003d0 cc a2 6b 3f 6a 60 2d 3f fb 4b 0f 3f 07 03 7c bf
       0.92045283 0.6772524 0.5597531 -0.9844212
0003e0 b0 b9 21 bf 7d a7 82 bf 6b a5 a4 be ca 56 05 bf
       -0.6317396 -1.0207363 -0.32157454 -0.52085555
0003f0 b7 5e 85 3d 4d cf b6 3f f7 47 46 3f aa 3c 06 be
       0.06512206 1.4282013 0.7745356 -0.13109079

weight_hh_l1 f4 [256, 64]
000000 b5 b0 97 3f d7 96 36 be 90 2a e4 be 58 83 95 bf
       1.1850802 -0.17830978 -0.44563723 -1.1680708
000010 ad 31 10 3e 41 d7 4a 3e 94 7b d9 bd db 39 ad bd
       0.1408145 0.19808675 -0.10619274 -0.08458301
000020 23 a0 72 3f 67 60 92 bf d2 0e 94 bd db d1 5e bf
       0.947756 -1.143567 -0.07229389 -0.87038964
000030 db 3e 35 be 79 2b e1 be f2 5c ab be 1a 29 38 bf
       -0.17699759 -0.4397848 -0.3346935 -0.71937716
000040 34 35 6c 3f 41 00 91 3f 9d 81 8c 3b 1a ed c7 3f
       0.9226868 1.1328202 0.004287912 1.5619233
000050 ed 7c d2 bf 97 76 8d 3e 44 58 a9 3f 09 3c f5 be
       -1.6444374 0.2762954 1.3230062 -0.47897366
000060 33 7d e9 3e ad b3 04 bf 98 28 97 3f 65 de 2d bf
       0.45603332 -0.51836663 1.1809263 -0.6791747
000070 66 39 5f 3f 20 cb 9e 3f 51 0a 53 be f2 71 41 3e
       0.8719696 1.2405739 -0.20609404 0.18891123
000080 93 e9 8e be ab f0 af 3e e3 a1 02 3f b2 62 74 3f
       -0.27912578 0.34363303 0.5102827 0.954631
000090 ba 51 93 bc c3 2c c1 3d b2 60 81 bf f5 2c b8 be
       -0.017983306 0.09432366 -1.0107634 -0.359718
0000a0 09 eb bb bf f4 e2 aa 3e eb d3 3d 3e fb 3b 4c be
       -1.4681102 0.33376276 0.18537872 -0.19944756
0000b0 f0 93 b8 3d 4b a5 1c be 45 7c 4b bf 9f 30 8c be
       0.09012592 -0.1529743 -0.79486495 -0.27380845
0000c0 f9 c1 4e bf b9 95 c9 3e 46 cd b2 3d 89 35 0f bf
       -0.8076473 0.39372042 0.08730559 -0.55941063
0000d0 d9 b7 c7 3d 55 04 4e bf 30 ca 5a be f5 5d 53 3f
       0.09751863 -0.8047536 -0.21366191 0.8256524
0000e0 62 64 da bd a1 98 82 be e0 a4 24 be 9f af ad 3d
       -0.10663678 -0.25507072 -0.1607852 0.08480763
0000f0 66 29 80 3e e0 4c a4 3e a4 61 18 3f 5d 70 71 3f
       0.25031585 0.320899 0.5952399 0.9431208
000100 37 a1 8d 3e 52 7e 33 3e 5b 8c c3 3d 3e 9b 8f be
       0.2766206 0.17528656 0.09548255 -0.28048128
000110 ea 1f 6e 3f 4b 9c 22 3f bc 3f c3 be 9a df 40 3e
       0.93017447 0.63519734 -0.38134563 0.18835297
000120 da f0 af 3e ed 72 31 bf ba 7e 1e bf c7 97 e3 bd
       0.34363443 -0.6931599 -0.6191212 -0.111129336
000130 99 51 19 3d 4a c6 be 3c 9b 56 dc 3e 63 6e e2 bd
       0.037431333 0.023287911 0.43034825 -0.11056211
000140 c6 45 dc 3e c1 0b 44 be 7e 3e bf 3d 91 43 82 3f
       0.43021983 -0.19145109 0.09338091 1.017687
000150 30 1e c6 bd d8 94 57 be 21 90 11 bf 85 e7 f3 be
       -0.096737266 -0.21052873 -0.5686055 -0.47637573
000160 0f 44 f0 3e ec 68 24 3f c6 de ee be 4e 1f ff be
       0.46926925 0.642226 -0.46654338 -0.4982857
000170 10 b9 06 3f 9d 27 25 3f 41 65 11 be 7e 3b b0 3c
       0.5262613 0.6451357 -0.14198782 0.021512743
000180 66 ff 8b be 2f c5 99 bf 38 3c a4 3b b4 6a 8f 3f
       -0.2734329 -1.2013301 0.0050120614 1.1204438
000190 6d 09 0f 3e 01 d5 d8 3d 7e f9 56 bf fe fa 94 3e
       0.1396844 0.10587502 -0.83974445 0.29097742
0001a0 47 88 73 bf ef cf 1d 3f 25 3e b8 be a1 3a 3e 3d
       -0.9512982 0.61645406 -0.35984913 0.04644263
0001b0 1f b5 16 be 2a b2 a8 be 76 e6 5f be 5a be 92 be
       -0.1471753 -0.32948428 -0.21865258 -0.28660852
0001c0 fa 30 60 bf eb 25 5f 3f 37 b8 64 3e 4c ee 70 be
       -0.8757473 0.87167233 0.22335897 -0.23528403
0001d0 68 fe d5 3e 78 9d 31 bf 72 8b 35 3f 27 5d 2d 3d
       0.4179566 -0.69380903 0.709159 0.042325165
0001e0 98 44 21 3e ea 88 af be 04 98 fa be 11 bf e5 bc
       0.15748823 -0.34284145 -0.48944104 -0.02804521
0001f0 7c 5e 67 3d 3e 4d 4e bd d2 3b bb 3e f9 06 ce 3e
       0.05648659 -0.050366633 0.36569077 0.40239695
000200 91 76 c6 3e 1e c3 10 3f 3a 76 bb bf 43 9b 30 3f
       0.38762334 0.56547725 -1.4645455 0.6898691
000210 82 64 d0 3e 7f 65 08 bf 92 42 02 3e e4 cf 9a 3e
       0.4070168 -0.5327987 0.12720707 0.30236733
000220 3b 71 8c be a3 5c e8 3e 6e 83 9f be 85 8e 10 bf
       -0.27430138 0.45383176 -0.3115496 -0.5646747
000230 ed a1 85 be bd 4b a0 bd 10 f5 e6 3e 12 be 87 3c
       -0.26100102 -0.07826946 0.45108843 0.016570125
000240 67 aa 47 3e f0 76 07 40 b1 9a 7d bd 4a 3a 8d 3f
       0.19498597 2.1166344 -0.061915103 1.1033413
000250 cc bb d0 be e3 9d 68 3e 47 ec 88 3f b7 5e 2e 3f
       -0.40768278 0.22716479 1.0697106 0.68113273
000260 8d 67 de be 84 e1 d2 be 93 0c 71 be e6 54 06 3c
       -0.43438378 -0.4118768 -0.23539953 0.008198952
000270 da 64 e6 3c d2 8f 0c bf f8 58 e5 be fd db b8 be
       0.028124262 -0.5490695 -0.4479444 -0.36105338
000280 22 fb 30 3e 59 7a 1f 3e 24 4e a4 be 7d 71 0f 3e
       0.172833 0.15574016 -0.32090867 0.14008136
000290 8a 9a 3e bf c4 29 97 bf 29 7c b7 3e 2e 55 b4 be
       -0.7445456 -1.1809621 0.35836914 -0.35221237
0002a0 81 26 d4 bd f6 5f ec 3e 55 67 76 3f 9a 88 74 bf
       -0.103589065 0.46166962 0.9625142 -0.9552094
0002b0 41 64 1e 3f 54 c1 98 be 6b ac 66 be b9 c6 e3 be
       0.61871725 -0.29834998 -0.2252671 -0.4448755
0002c0 33 b1 95 3e 48 bc 0e 3d 07 46 7e 3e cb 2f 31 be
       0.29236755 0.034847528 0.24831401 -0.17303388
0002d0 99 77 12 3f e7 f9 43 bf 2b 30 92 3e a0 e4 1c be
       0.5721374 -0.76553196 0.28552374 -0.15321589
0002e0 f4 a1 5d bf 9e a4 64 be 08 d8 29 be 11 ad ca 3c
       -0.86575246 -0.22328421 -0.16586316 0.024740728
0002f0 05 c9 1f 3e a4 93 a8 3e 42 eb f3 3d c8 88 aa bd
       0.15604027 0.3292514 0.11910106 -0.0832687
000300 fa b3 ea 3c 2a 99 79 3d ce 07 b9 bf 6b 04 4e be
       0.028650273 0.060937084 -1.4455507 -0.20118873
000310 bc 9c 98 be 69 e8 70 be 30 26 ed be 1e 7b 1d be
       -0.2980708 -0.23526157 -0.46318197 -0.15378997
000320 34 bd 03 bf ca 40 f4 3e 4d bd 36 3f ff 9a 41 3f
       -0.51460576 0.4770568 0.713826 0.7562713
000330 10 ee 97 be e6 fd b2 3d 63 aa b3 3e 87 12 a0 3e
       -0.29673815 0.087398335 0.35090932 0.31264135
000340 f1 8e f3 3e 5e af f3 3f a5 68 91 3d 41 47 bf 3d
       0.47569993 1.9037893 0.071000375 0.093397625
000350 28 c2 2e 3e e2 10 08 3e 19 f7 35 be 36 d6 e2 3f
       0.17066252 0.1328769 -0.17770042 1.7721622
000360 c2 f1 ce 3d f5 8e 10 3f fc e5 54 bf a3 80 bf bd
       0.101047054 0.56468135 -0.8316343 -0.093507074
000370 5d 78 85 be 14 0a 4d 3f d9 45 f6 bd 1c 21 56 3f
       -0.26068392 0.80093503 -0.12025041 0.8364427
000380 0b 97 8f 3f 0a 76 a2 3f 21 44 35 3d d4 33 7f 3d
       1.121797 1.2692273 0.044254426 0.062305287
000390 61 a4 0b bf c7 4a 65 bf 01 c4 43 3e 6e c5 dd be
       -0.545477 -0.89567226 0.19117738 -0.4331469
0003a0 8e a2 8f bd 4f b1 2c 3e 5e 42 87 3f ec 1d f9 bc
       -0.07013427 0.16864513 1.0567129 -0.030409776
0003b0 3b 12 08 be 44 b7 53 3f 63 98 c6 be 87 d9 48 bf
       -0.13288204 0.82701516 -0.38788137 -0.7845692
0003c0 8f 9f 0d 3f a4 08 8d bf 3d 99 96 3e 8f f3 b4 3e
       0.5532159 -1.1018262 0.29413787 0.3534207
0003d0 9b b1 92 3f cf 3f 92 3e 32 a8 24 3d a8 fc e8 bd
       1.1460451 0.28564307 0.040199466 -0.11376315
0003e0 ab 90 62 bf da e2 ef 3e 46 c1 c8 bd 7d eb 0e 3f
       -0.88501996 0.46852762 -0.09802489 0.55828077
0003f0 4f 60 96 3e 03 84 b9 3d d7 46 18 be f5 52 89 be
       0.29370353 0.09058382 -0.14870773 -0.26821104

bias_ih_l1 f4 [256]
000000 c0 f7 b9 bf fb be 2d bf ce ed 8a bf bb d3 da bf
       -1.4528732 -0.6786954 -1.0853822 -1.7095865
000010 74 f2 47 bf a2 21 b2 bf 65 a2 ff bf 9b 3b 9c bf
       -0.7810433 -1.3916514 -1.9971434 -1.220569
000020 43 aa c7 bf 18 63 7a bf 7f 3f b5 bf 87 fb e0 bf
       -1.5598835 -0.97807455 -1.4160002 -1.757676
000030 25 e7 da be b4 2d 8b bf 16 29 1c bf 8d 3e b8 bf
       -0.42754474 -1.0873322 -0.6100019 -1.4394089
000040 ea 5c 9b bf b7 8c 8d 3e 01 b8 ce 3e 8f 81 94 bf
       -1.213773 0.2764642 0.4037476 -1.1602038
000050 63 0a 4f be 54 ef 08 bf 6f 8f 3c bf c0 17 a2 bf
       -0.20218806 -0.53490186 -0.7365636 -1.2663498
000060 a5 34 52 bf 14 75 c2 bf 01 fd 95 bf fb a1 c0 bf
       -0.8211158 -1.519198 -1.1717836 -1.5049433
000070 0f 0b 3b bf c8 12 64 bf 52 29 39 bf 70 bd a2 bf
       -0.7306375 -0.8909116 -0.72328675 -1.2714062
000080 5f 79 ad be 26 48 c5 3b 2a d1 8b bf 14 1d e0 bf
       -0.3388166 0.0060205637 -1.0923207 -1.7508874
000090 b9 47 45 bf 93 47 ce bf 8f 5d f5 bf e5 88 03 c0
       -0.77062565 -1.6115593 -1.9169177 -2.0552304
0000a0 1c 12 48 bf b6 13 52 bf 52 ae 2f 3e c9 d3 7d bf
       -0.7815263 -0.82061327 0.17156342 -0.99151284
0000b0 5d d9 a2 bf ab 6a 56 bf 52 6b 00 be 75 a7 81 bf
       -1.2722584 -0.8375651 -0.1254094 -1.0129229
0000c0 66 ae 5a bf 6d bf cc be ec 0e 3a bf d2 3a 8e bf
       -0.8542236 -0.39989796 -0.7267902 -1.11117
0000d0 6e 1a d3 bf 4c 19 ed bf 85 52 76 bf 60 95 78 bf
       -1.6492441 -1.8523345 -0.96219665 -0.9710293
0000e0 b4 ed b2 bf 3c fb 9c bf bc 42 54 bf 56 36 7e bf
       -1.3978791 -1.2264171 -0.8291433 -0.9930166
0000f0 25 22 09 bf b2 8e 93 bf 3b 8c 29 bf 8b 35 87 bf
       -0.53567725 -1.1527922 -0.662296 -1.0563215
000100 0f 65 3b bf 0c f5 c1 3e 8d bb 6b 3d 3e 2a d2 3e
       -0.7320108 0.37882268 0.05755191 0.41047853
000110 e5 f1 ac be 88 88 14 40 fa 04 ac 3f ff e9 b3 3f
       -0.337783 2.3208332 1.3439019 1.4055785
000120 9b f4 d6 3f 94 83 d3 3d db cb c3 bf 96 6e a4 be
       1.6793398 0.10327831 -1.5296587 -0.3211562
000130 40 1a b2 bf 7f 2d 9c bf 84 1d 37 bf 32 f9 5d be
       -1.3914261 -1.2201384 -0.7152941 -0.21677092
000140 b0 63 bf 3e 93 74 24 40 fe a8 df bf 08 5c 2c 3f
       0.37380743 2.5696151 -1.7473447 0.6732793
000150 53 42 d8 be 6d 72 ae bf 0b 14 35 bf bd cc 67 be
       -0.422381 -1.362867 -0.7073371 -0.22636695
000160 06 6d 52 3f 4d 1c c0 3e d3 a4 7c bf a9 2e e7 3f
       0.82197607 0.37521592 -0.98689 1.8061115
000170 15 2f 55 3f f7 80 61 3f 48 ee 5d bf 74 2b cf 3e
       0.83274966 0.8808741 -0.86691713 0.4046284
000180 f7 ba a4 bf 42 8f a8 bf a7 fd bc 3e 39 71 5e 3f
       -1.2869557 -1.3168719 0.3691227 0.86891514
000190 40 78 8f bf c3 88 e1 3e 3f d1 3d 3e 9c 09 ae 3e
       -1.1208572 0.44049653 0.18536852 0.33991706
0001a0 4a ec bf 3e 6f 61 46 40 5b 49 b2 bf e8 c5 20 3f
       0.37484962 3.0996969 -1.3928636 0.6280198
0001b0 89 3e 48 bf 31 42 31 3d c5 58 cf bf 81 54 91 bf
       -0.7822042 0.043276016 -1.6198965 -1.1353914
0001c0 55 ab 17 be 14 bf 7a bf ea f6 3c 40 f2 72 5d 3f
       -0.14811452 -0.9794781 2.9525704 0.8650352
0001d0 ab e7 33 3f 6c df f0 3f d8 f3 0c be e2 59 0e 3e
       0.7027537 1.8818183 -0.13764894 0.13901475
0001e0 d3 b6 14 3f f6 d8 2e 3f 23 e0 39 bd 93 2d 7e bd
       0.5809147 0.68299806 -0.04537977 -0.06205518
0001f0 2d bd 18 bf c7 ca 0f 3f b7 a4 1a 40 c9 e0 ab 3e
       -0.5966366 0.5616879 2.4163034 0.33569935
000200 54 1f 41 3e 54 9b 6c 3d d2 17 08 bd 78 54 7a be
       0.18859607 0.05776532 -0.03322584 -0.24446285
000210 47 b7 d2 bd d9 bf c2 bd 58 86 9d 3c f3 19 0f 3f
       -0.10288864 -0.09509248 0.0192291 0.5589897
000220 15 14 b8 3d 5b 99 43 3c 62 00 fb 3d 0d a4 b9 bd
       0.08988205 0.011938418 0.122559324 -0.09064493
000230 c4 3b 30 be f3 23 ec 3d 09 78 8b be 47 18 02 3e
       -0.17210299 0.11530294 -0.27240017 0.12704574
000240 29 c7 34 be ed fa 24 be cb aa 8b 3f 35 ab be 3d
       -0.17654099 -0.16111346 1.0911497 0.09309999
000250 79 c7 18 bf b1 e8 6c 3e b1 07 0c 3f 72 d2 15 be
       -0.5967937 0.2313564 0.54699236 -0.1463106
000260 e8 d3 a4 bd c5 38 90 bd 84 95 3d bf 1d 7e 99 3d
       -0.080482304 -0.07042078 -0.7405627 0.07494757
000270 58 9e 23 3e b0 fe d7 3d 2d 93 57 3e 8e b6 05 3e
       0.15978372 0.10546625 0.21052237 0.1305792
000280 5e dc d8 be 67 de bc 3e c3 01 b9 bb 64 30 45 3d
       -0.42355627 0.3688843 -0.005645962 0.048141852
000290 52 98 85 bf f3 2b 31 be bf fd a2 bd 34 09 13 be
       -1.043711 -0.17301922 -0.079585545 -0.1435898
0002a0 55 cc c1 bd 88 b8 5d bc 10 cc 55 3f 90 79 09 3e
       -0.09462801 -0.013532765 0.835145 0.13425279
0002b0 92 47 a9 bd 56 7f 0c 3e b3 ab 8f bf cd 8e 51 be
       -0.08265604 0.1372045 -1.1224273 -0.2046463
0002c0 90 c2 51 be ac 29 9d 3d 54 65 32 bd 76 db 04 3e
       -0.20484376 0.07673964 -0.043553665 0.12974343
0002d0 9d 58 53 3d 51 e5 ee bd 2a 5b 55 be 0a 3a 5e 3b
       0.05159818 -0.116648324 -0.20835558 0.0033909106
0002e0 63 a9 f3 3d a5 0c 32 bd 3d c9 16 be fc c4 1c bf
       0.11897542 -0.04346909 -0.14725204 -0.61238074
0002f0 1d 37 29 be d5 78 d0 bc 2a 37 c1 bd 57 dd b7 be
       -0.1652493 -0.025448242 -0.0943435 -0.35911056
000300 4e ea 27 bf 55 40 6b bf 04 b9 37 3e 30 6a c1 3e
       -0.65591896 -0.9189504 0.17941672 0.37776327
000310 f1 93 87 be 09 a4 b0 3f 1d 9a 39 be f1 4f 94 bf
       -0.26480058 1.380006 -0.18125196 -1.1586896
000320 9a 8c 0b 3e 25 53 37 bf e4 87 b1 bf f5 11 88 bf
       0.13627854 -0.71611243 -1.3869596 -1.063048
000330 10 78 af be 85 09 a4 bf f5 5f 50 bf 3e 51 a1 bf
       -0.34271288 -1.2815405 -0.8139642 -1.2602918
000340 91 f0 4d be 81 a8 14 3f ce 62 e8 3d d1 c7 77 3e
       -0.201113 0.58069617 0.113469705 0.24197318
000350 7f 89 74 bf 4e 89 a5 bd 96 fc a8 bf 51 e5 8a bf
       -0.955223 -0.080828294 -1.3202083 -1.0851232
000360 4d 76 be bf 6e aa c6 bf c1 1f 9f bf 2f 14 fc bc
       -1.4879853 -1.5520761 -1.2431566 -0.030771343
000370 01 8e 1e 3d f7 05 89 3e 0f a0 98 bf eb 21 88 bf
       0.038709644 0.26762363 -1.1923846 -1.0635351
000380 15 87 9e bf a5 b9 f1 be 06 d0 c4 bf b9 ec a8 bf
       -1.2384974 -0.47211948 -1.5375984 -1.3197242
000390 9f 88 9a bf 05 6e 7c bf cf 9a ae bf 22 2e 32 3d
       -1.2072943 -0.98605376 -1.3640994 0.043501027
0003a0 d5 be 6e 3e 7a 43 d8 3f 42 35 63 be 1b 44 56 3e
       0.23314984 1.6895592 -0.22188285 0.20924418
0003b0 08 66 b3 bf 98 59 7b bf 16 3a 4c bf 5d e8 8d bf
       -1.4015512 -0.98183584 -0.7977613 -1.1086537
0003c0 30 e5 95 be 82 6b be bf 05 02 69 3f b4 9b 75 bf
       -0.2927642 -1.4876559 0.91018707 -0.9594071
0003d0 2f 50 b8 bf cf 52 dc be bd 21 b9 bf 65 4b 7b bf
       -1.439947 -0.43031928 -1.4463421 -0.9816192
0003e0 ae 6c c0 3c 59 61 01 bf e4 66 18 bf 45 00 a3 bf
       0.023489323 -0.50539166 -0.59532 -1.2734457
0003f0 ce 8c 8c bf 81 f0 9c bf 27 6a b7 3f 54 2b 99 bf
       -1.098047 -1.2260896 1.432927 -1.1966348
