src/grinding_system_python/model/model.pth (torch, 223623 bytes, 10 tensors)

weight_ih_l0 f4 [256, 15]
0.5364006 -0.25061068 0.1305487 0.19859415 0.16103284 0.60048044 -0.020356357 -0.06732927
-0.19453652 -0.40449372 0.09294969 -0.31646228 -0.22824459 0.24870169 -0.33599034 0.0038802777
0.18442585 -0.033594433 -0.21619578 0.2077275 0.09743506 0.07375522 0.1300939 -0.29652417
0.35326707 0.21862485 -0.24677503 -0.14763266 -0.31024572 0.086995766 -0.17475842 0.32228863
-0.1638689 0.015848203 -0.30119014 0.109542415 -0.060789414 0.21045977 -0.58505803 -0.19563457
-0.42567816 -0.0763042 0.059982754 0.31685278 0.28742075 0.19100231 -0.418915 0.0124179665
-0.2014054 -0.11820023 0.03184061 0.014692056 0.041105278 -0.185217 0.5108779 0.16175382
0.27364528 -0.021449529 0.010064122 -0.16333054 0.052999128 0.07637265 0.15510029 0.067380965
0.1420048 0.120718494 0.00087370264 0.05923684 -0.13079281 -0.29694855 0.021172289 -0.1321772
0.18409756 -0.0012928585 -0.06153025 0.040518526 0.03925782 0.2406594 -0.013607998 0.047958765
0.6966577 0.11350153 -0.09672486 0.06858595 -0.16208158 -0.28964454 -0.48737258 -0.107060365
-0.2149247 -0.44878247 0.0918345 0.14849742 -0.6740611 0.10594425 0.07331771 -0.033716306
-0.18863305 -0.0038862447 -0.32262173 0.15828973 -0.23352194 -0.12233929 0.092416644 -0.081360206
-0.11650765 -0.0017487917 -0.06799979 -0.3780524 -0.103042364 0.023453183 -0.0811752 -0.35004422
-0.10174104 0.21291478 -0.5049508 0.79113936 -0.19432622 0.7520546 0.52385145 -0.031690884
-0.12694964 -0.5234078 -0.008721848 -0.038681224 -0.26990607 0.20018256 0.45631897 0.27672338
0.17103049 0.2020203 -0.12872204 0.009748763 0.098356254 -0.0829525 0.028236182 0.24950264
-0.25464407 -0.061941817 0.16626345 0.048848443 -0.034703232 0.10674719 0.112527825 -0.36073235
-0.14884171 0.08503379 -0.009544002 0.042940315 0.090044275 0.220815 -0.17588173 -0.104869194
-0.63607895 -0.06146233 0.032360937 -0.027987886 0.21152887 0.22368136 -0.42987865 0.17753667
0.054310206 -0.0575377 -0.2184653 -0.22677082 -0.123203106 -0.3319087 0.16766694 -0.2798045
0.2504011 -0.33362266 -0.050733298 0.06741457 0.36780176 -0.1163464 0.6545569 -0.12161987
0.16911249 -0.096405484 -0.101786174 -0.2452384 -0.065420516 0.030763717 -0.03752783 0.12298918
-0.014631931 -0.14129026 0.3539293 0.019774722 -0.11009113 0.0013812761 0.26478276 0.2816455
-0.050215203 0.041700292 0.15647145 -0.13760674 0.2219803 0.3104057 0.07172891 -0.008990442
-0.15527251 -0.24842213 0.03643707 -0.5985866 -0.067296885 -0.30532163 -0.0010301044 -0.008845217
0.039099798 0.02951646 0.1339844 -0.18512389 -0.25128284 0.1241016 0.2554442 -0.037253093
-0.08968774 0.18775906 -0.1504806 0.092033155 0.06527005 -0.21692128 -0.008659109 -0.1473148
-0.16901381 -0.22131838 0.03772768 -0.1446232 -0.017458282 0.15368694 -0.38179535 -0.09614751
-0.05783696 0.08320109 0.13197657 -0.15881835 -0.118863754 -0.08370467 0.06647531 -0.12969796
-0.059044316 -0.037825678 0.0561779 0.09620705 -0.2077201 -0.101780646 -0.05658741 -0.0008883988
-0.28090912 -0.15584305 -0.039533995 0.0015343666 0.067877896 -0.105791956 0.09776657 0.25925055
00000000: 8d51 093f 0b50 80be 8fae 053e 445c 4b3e
00000010: cbe5 243e 16b9 193f 60c2 a6bc eee3 89bd
00000020: 9534 47be cd19 cfbe 685c be3d 5807 a2be
00000030: f3b8 69be a8ab 7e3e ed06 acbe 424c 7e3b
00000040: 21da 3c3e 519a 09bd 6d62 5dbe 85b6 543e
00000050: 088c c73d fa0c 973d 5637 053e 04d2 97be
00000060: 6cdf b43e 31df 5f3e 98b2 7cbe 042d 17be
00000070: 87d8 9ebe d62a b23d dff3 32be 0403 a53e
00000080: 40cd 27be 17d4 813c 9835 9abe c657 e03d
00000090: 52fe 78bd c482 573e 5dc6 15bf 6e54 48be
000000a0: 7df2 d9be 6045 9cbd 7ab0 753d 873a a23e
000000b0: d028 933e 1c96 433e 077c d6be ba74 4b3c
000000c0: 383d 4ebe f612 f2bd 4d6b 023d f3b6 703c
000000d0: 025e 283d 86a9 3dbe e5c8 023f cba2 253e
000000e0: 3c1b 8c3e ecb6 afbc fde3 243c 1f40 27be
000000f0: 9d15 593d 4469 9c3d 9cd2 1e3e 08ff 893d
00000100: b569 113e 423b f73d 3109 653a 54a2 723d
00000110: 8dee 05be a409 98be 8271 ad3c 7659 07be
00000120: 1284 3c3e 2275 a9ba 2507 7cbd c1f6 253d
00000130: cfcc 203d 6b6f 763e 15f4 5ebc 6970 443d
00000140: 2958 323f 7d73 e83d af17 c6bd ca76 8c3d
00000150: b7f8 25be 4a4c 94be e688 f9be 7742 dbbd
00000160: 3815 5cbe d1c6 e5be ba13 bc3d b50f 183e
00000170: 458f 2cbf 4df9 d83d 9827 963d 1c1a 0abd
00000180: 0629 41be 5eb0 7ebb ad2e a5be b416 223e
00000190: 6020 6fbe 068d fabd f044 bd3d 2ea0 a6bd
000001a0: 909b eebd b637 e5ba 7943 8bbd 1690 c1be
000001b0: e007 d3bd e420 c03c 2f3f a6bd ff38 b3be
000001c0: 9b5d d0bd 5506 5a3e 7544 01bf 1c88 4a3f
000001d0: 74fd 46be a686 403f 211b 063f 4dce 01bd
000001e0: 16ff 01be 0efe 05bf 15e6 0ebc 3470 1ebd
000001f0: 2131 8abe a8fc 4c3e a4a2 e93e b0ae 8d3e
00000200: 9e22 2f3e 69de 4e3e b6cf 03be 47b9 1f3c
00000210: 016f c93d 00e3 a9bd 914f e73c 9f7d 7f3e
00000220: b560 82be b4b6 7dbd f740 2a3e 4e15 483d
00000230: fa24 0ebd 459e da3d fd74 e63d e9b1 b8be
00000240: f669 18be 3226 ae3d 725e 1cbc 2fe2 2f3d
00000250: 2269 b83d 541d 623e 571a 34be a9c5 d6bd
00000260: 12d6 22bf edbf 7bbd e78c 043d da46 e5bc
00000270: 069b 583e ba0c 653e 0e19 dcbe 2ccc 353e
00000280: 6174 5e3d a7ac 6bbd 5eb5 5fbe 9c36 68be
00000290: e951 fcbd f0ef a9be e2b0 2b3e 8942 8fbe
000002a0: 9334 803e 97d0 aabe b8cd 4fbd a610 8a3d
000002b0: 8350 bc3e 0547 eebd 0a91 273f d713 f9bd
000002c0: d32b 2d3e 3d70 c5bd 4575 d0bd c61f 7bbe
000002d0: 31fb 85bd 3104 fc3c c8b6 19bd c0e1 fb3d
000002e0: c4ba 6fbc 65ae 10be 3936 b53e 99fe a13c
000002f0: 7577 e1bd ef0b b53a 9b91 873e d733 903e
00000300: 75ae 4dbd edcd 2a3d 0d3a 203e c8e8 0cbe
00000310: ce4e 633e 7fed 9e3e 9be6 923d a64c 13bc
00000320: c2ff 1ebe 5f62 7ebe 0a3f 153d f93c 19bf
00000330: f3d2 89bd 1e53 9cbe 9104 87ba 87eb 10bc
00000340: 1c27 203d 81cc f13c 3533 093e 1e91 3dbe
00000350: 25a8 80be fb28 fe3d 95c9 823e b396 18bd
00000360: 35ae b7bd e943 403e 9617 1abe e17b bc3d
00000370: 4eac 853d 9d20 5ebe efde 0dbc b1d9 16be
00000380: f511 2dbe 49a1 62be 5788 1a3d 1b18 14be
00000390: ac04 8fbc 1c60 1d3e ae7a c3be fce8 c4bd
000003a0: 73e6 6cbd 5565 aa3d de24 073e 47a1 22be
000003b0: d76e f3bd 5b6d abbd 3524 883d 8bcf 04be
000003c0: 74d8 71bd 19ef 1abd cc1a 663d 3408 c53d
000003d0: 94b4 54be 5f72 d0bd 33c8 67bd 6fe3 68ba
000003e0: 52d3 8fbe 5295 1fbe 66ee 21bd cd1c c93a
000003f0: 9103 8b3d 74a9 d8bd d739 c83d 7dbc 843e

weight_hh_l0 f4 [256, 64]
-0.3025756 0.14986746 -0.27384987 0.18088733 0.63962656 -0.369135 0.5209397 -0.49244303
-0.27608258 0.23233622 0.037381046 0.013092011 -0.14229155 -0.15273264 -0.093462 0.012080545
-0.30611965 0.54680765 0.5280148 -0.18340765 -0.12946492 -0.5398448 -0.9013562 0.38191718
0.07435741 -0.20599009 0.18118605 0.3377799 -0.74115485 0.10113213 -0.0935825 0.6726961
-0.4602166 0.14315541 0.94003576 0.55640596 -0.62062955 -0.04131519 0.090845875 0.45576832
0.009101856 0.034149215 -0.88104844 -0.067397214 -0.63493264 0.21861136 -0.51869863 -0.23711619
0.5557736 0.9197778 0.039924454 0.9406976 0.1597875 0.88579416 -0.11894883 -0.22348334
-0.38271555 0.13422021 0.23129706 0.36225134 -0.21748549 0.066313654 0.36952263 0.0987832
-0.20977974 -0.6692535 0.33406705 0.34030747 0.084822945 0.27298605 0.087181404 0.13051513
0.15082121 0.35128736 0.07695177 0.16154829 0.0841817 0.2244096 -0.21337764 -0.27641806
0.54693097 0.1712305 0.15587711 0.27843952 0.28978103 -0.15267803 -0.069796115 0.101128265
0.21051997 -0.1838593 -0.1664022 0.19463389 -0.71390146 -0.14099772 -0.38261104 0.31808954
0.1146168 0.07266018 0.034408502 0.16757955 0.7939792 0.5563879 0.021386335 0.15326206
0.72474843 0.6844044 -0.4335791 -0.007877629 0.507879 -0.019153608 0.122031346 0.11524293
0.05468292 0.83829653 -0.23248874 -0.10959879 0.35707402 0.3346391 -0.41999835 0.18958594
-0.24870831 0.11021353 0.20050128 -0.36004478 0.01593056 0.74681723 -0.7025584 -0.100937255
-0.7027019 0.3670723 -0.0584136 0.08770091 -0.49990857 -0.5933287 0.656258 0.12366198
0.56720424 -0.07847624 0.8878875 -0.57631254 0.034408275 0.30425718 0.24377337 0.17453311
0.30957124 -0.15703204 0.0057963002 -0.10191323 -0.106230736 -0.22203484 -0.5790453 -0.57773066
0.1896073 -0.299072 -0.24263674 0.14416471 -0.21038935 0.14429487 -0.103131585 -0.7892277
-0.26562142 0.027117638 -0.37016582 -0.18880555 0.5976218 0.39691624 -0.1555701 0.097114325
-0.21890461 0.030957947 -0.04314192 -0.30415872 -0.19907193 -0.31794629 -0.050797153 1.1154523
0.22791037 -0.104604356 0.6089854 -0.39765245 0.087942675 0.5122205 -0.2839319 -0.24557015
-0.010763725 -0.14092101 0.3324774 -0.03255543 0.12214031 0.1963013 -0.1805094 0.69993037
-0.0019175914 0.13550305 -0.5126051 -0.327562 -0.01113932 0.44419056 0.05081344 -0.24652807
-0.9697926 0.37327453 0.33092853 -0.016495248 0.18941256 0.25881806 0.24166922 -0.28678918
0.13121882 0.29070702 0.35129955 0.30846977 0.013030675 0.044742372 0.6619333 -0.023333011
0.2466019 -0.14966051 -0.24895741 -0.087041155 0.11085731 0.2067513 -0.31038192 0.38144442
0.105437845 -0.3678666 -0.1484887 -0.06364068 0.15908782 0.14689769 0.1468119 -0.0988723
0.330756 0.21773884 -0.8705547 0.41036195 0.3881926 0.4480426 0.21119452 0.011794949
0.16085906 0.12877402 0.7219381 0.08754574 -0.12080921 -0.14855063 -0.13763323 -0.17484011
-0.31271902 -0.045287214 0.24724163 -0.6311748 0.2041044 0.085101135 0.089489765 -0.2717434
00000000: 30eb 9abe db76 193e 0d36 8cbe 873a 393e
00000010: 91be 233f 43ff bcbe 4e5c 053f 7e21 fcbe
00000020: b25a 8dbe 8ce9 6d3e de1c 193d e07f 563c
00000030: e0b4 11be f265 1cbe 0169 bfbd 7aed 453c
00000040: b7bb 9cbe 96fb 0b3f fa2b 073f 37cf 3bbe
00000050: 7492 04be 4533 0abf 48bf 66bf a68a c33e
00000060: b348 983d 11ef 52be d688 393e 7df1 ac3e
00000070: 53bc 3dbf 5d1e cf3d 2fa8 bfbd d035 2c3f
00000080: 83a1 ebbe 5597 123e 2fa6 703f 9f70 0e3f
00000090: 94e1 1ebf 1e3a 29bd 670d ba3d 775a e93e
000000a0: f31f 153c 0ce0 0b3d 648c 61bf 8d07 8abd
000000b0: f28a 22bf a8db 5f3e 6fc9 04bf 96ce 72be
000000c0: 2e47 0e3f 8f76 6b3f d387 233d 8fd1 703f
000000d0: 569f 233e 68c3 623f 729b f3bd d1d8 64be
000000e0: 4bf3 c3be 0671 093e 23d9 6c3e 0279 b93e
000000f0: 84b4 5ebe 74cf 873d 1232 bd3e d94e ca3d
00000100: 80d0 56be 3354 2bbf d60a ab3e c83c ae3e
00000110: a7b7 ad3d d4c4 8b3e 2a8c b23d c2a5 053e
00000120: e070 1a3e f0db b33e e498 9d3d ea6c 253e
00000130: 7567 ac3d a1cb 653e ab7f 5abe ab86 8dbe
00000140: ab03 0c3f 0c57 2f3e 409e 1f3e a08f 8e3e
00000150: 2e5e 943e a157 1cbe 44f1 8ebd 561c cf3d
00000160: 8c92 573e 9d45 3cbe 5765 2abe 1b4e 473e
00000170: 3fc2 36bf b561 10be 98e5 c3be a2dc a23e
00000180: 36bc ea3d dcce 943d eeef 0c3d f999 2b3e
00000190: 3942 4b3f 706f 0e3f 6532 af3c bbf0 1c3e
000001a0: 1d89 393f 2035 2f3f 14fe ddbe 2c11 01bc
000001b0: 5c04 023f 07e8 9cbc 92eb f93d 7c04 ec3d
000001c0: 33fb 5f3d 9a9a 563f 8711 6ebe 5575 e0bd
000001d0: 68d2 b63e d155 ab3e 060a d7be d122 423e
000001e0: 64ad 7ebe a2b7 e13d 3550 4d3e ca57 b8be
000001f0: ce80 823c 6a2f 3f3f deda 33bf 31b8 cebd
00000200: 46e4 33bf e7f0 bb3e 1943 6fbd 899c b33d
00000210: 04f4 ffbe 64e4 17bf 8600 283f 7e42 fd3d
00000220: 4c34 113f 27b8 a0bd 984c 633f 3889 13bf
00000230: b1ef 0c3d 99c7 9b3e ba9f 793e cfb8 323e
00000240: 1f80 9e3e 02cd 20be e4ee bd3b e2b7 d0bd
00000250: 808f d9bd 1a5d 63be 503c 14bf 28e6 13bf
00000260: 6b28 423e f71f 99be c475 78be ea9f 133e
00000270: 4e70 57be 09c2 133e a736 d3bd d40a 4abf
00000280: 88ff 87be cf25 de3c 6086 bdbe 3e56 41be
00000290: befd 183f 9b38 cb3e c54d 1fbe e0e3 c63d
000002a0: 8828 60be 859b fd3c 95b5 30bd b1ba 9bbe
000002b0: 83d9 4bbe dbc9 a2be ad10 50bd 24c7 8e3f
000002c0: 5661 693e cf3a d6bd 78e6 1b3f 1a99 cbbe
000002d0: 4a1b b43d e220 033f 865f 91be be76 7bbe
000002e0: 565a 30bc 994d 10be 7a3a aa3e d858 05bd
000002f0: b324 fa3d 3503 493e 75d7 38be a32e 333f
00000300: b157 fbba 50c1 0a3e 163a 03bf 35b6 a7be
00000310: b281 36bc f26c e33e c121 503d db71 7cbe
00000320: 5444 78bf d71d bf3e 776f a93e 0b21 87bc
00000330: 5ef5 413e cd83 843e 2378 773e 08d6 92be
00000340: 3a5e 063e 8dd7 943e 89dd b33e c0ef 9d3e
00000350: 9d7e 553c c743 373d 7674 293f df24 bfbc
00000360: 3585 7c3e 9b40 19be b1ee 7ebe a242 b2bd
00000370: 2809 e33d 9db6 533e 61ea 9ebe af4c c33e
00000380: ccef d73d 0359 bcbe 6c0d 18be 0b56 82bd
00000390: ebe7 223e 596c 163e dc55 163e 8f7d cabd
000003a0: da58 a93e eef6 5e3e acdc 5ebf f61a d23e
000003b0: 2ec1 c63e d765 e53e 6043 583e 9a3f 413c
000003c0: 3db8 243e 56dd 033e efd0 383f 2e4b b33d
000003d0: d26a f7bd a81d 18be baef 0cbe 4909 33be
000003e0: b51c a0be 167f 39bd e92c 7d3e ac94 21bf
000003f0: be00 513e 8149 ae3d 6946 b73d f321 8bbe

bias_ih_l0 f4 [256]
-0.07576515 -0.48574367 0.032778583 -0.022716114 -0.16699286 -0.61464524 -0.45483488 -0.4115815
-0.6608265 -0.6517082 -0.14356275 -0.088023126 -0.20186502 0.06307296 -0.31181917 -0.26477933
-0.07497471 -0.2803304 -0.37763128 0.024821136 -0.3474376 -0.22507305 -0.42797318 -0.3666481
-0.41207 -0.24400601 -0.2715615 -0.49135602 -0.39866883 -0.47444722 0.059890132 -0.62875557
-0.33414227 -0.51281863 -0.2716619 -0.40607423 -0.19308703 -0.3722478 -0.23296466 0.04203484
-0.33537796 -0.38084197 -0.5803164 -0.27316955 -0.084355645 -0.04760611 -0.4105563 -0.6867395
0.073407985 -0.40473348 0.1997313 -0.7289021 -0.5379332 -0.56959283 -0.80684096 -0.13389647
-0.6266581 -0.63015586 -0.35942796 -0.32913402 -0.286414 -0.30796134 -0.5117603 -0.41629174
-0.60637224 -0.63349205 -0.46051636 -0.5117154 -0.21740721 -0.2175953 -0.6334001 -0.855449
-0.45654216 -0.6874515 -0.40699816 -0.8830358 -0.5644187 -0.78220737 -0.09373436 0.020003693
0.03448991 -0.447954 0.43571112 -0.009770899 -0.05066437 -0.5375883 0.07835835 -0.3214515
-0.24337807 -0.36333346 0.010566404 -0.48335218 -0.063105725 -0.081783645 0.23211293 -0.770362
-0.34079614 -0.28182262 -1.057835 0.23793793 -0.017399365 0.26123846 -0.36406237 -0.7791116
-0.54660165 -0.24251279 -0.23969239 -0.6631685 0.1905235 -0.5628712 -0.09922948 -0.58273965
0.15807775 -0.8178913 -0.36668158 -1.0108877 -0.20365635 -0.9019564 -0.6123219 -0.02173264
-0.35496002 -0.88928574 -0.20879936 -0.30487162 0.0183026 0.022273531 -0.38009572 0.5676069
-0.32761008 -0.36900207 -0.04146103 -0.21989442 0.50754136 0.04340926 0.18760502 -0.55163485
-0.6614213 0.43259385 0.15277122 0.07986581 0.31361392 0.126354 -0.006554851 0.44976202
-0.053106345 0.36058488 0.23892802 0.11936856 -0.26281705 0.046431463 0.1618725 -0.08669796
-0.08674868 0.14010163 -0.077928804 0.30362296 -0.33323666 0.01962642 -0.31868088 0.19142653
-0.077380106 -0.37724715 -0.24107127 0.16917822 0.25070447 0.19189012 0.23772432 -0.18272544
-0.06857479 0.2192077 -0.10612587 0.14726864 -0.10519658 -0.02996464 0.54146314 -0.2024437
0.14459868 0.054640017 0.14828955 0.23284373 -0.60899633 -0.28802863 0.06653301 -0.19286141
-0.62101835 -0.064031504 -0.103082746 0.18789832 0.19056748 -0.025466362 0.5027256 -0.031842813
-0.52755415 -0.4149547 -0.08364964 -0.328422 0.11689678 -0.6135525 -0.35302213 -0.43945673
-0.23227775 -0.15457587 -0.09835549 -0.5419101 -0.11150826 0.12930578 0.24824935 -0.3763814
0.26289365 -0.46306646 -0.029660797 -0.100780986 -0.46277255 -0.18717287 -0.4915628 0.2000899
0.16501261 -0.2124415 0.10656262 -0.4962613 -0.39636385 -0.08315861 0.03276916 -0.15113337
-0.32804838 -0.1127583 -0.66682273 0.03852672 -0.323648 -0.58833534 -0.58733827 -0.03202076
-0.82468605 -0.33944774 -1.0070415 -0.5920133 -0.22490153 -0.2001658 -0.39351568 -0.60862726
0.08449085 -0.18222798 0.62991685 -0.57713044 0.078011736 -0.65414613 -0.28636408 -0.15327826
-0.7641555 -0.16971749 -0.47764936 -0.4088889 0.14247368 -0.189449 -0.40483758 -0.43719324
00000000: c22a 9bbd 65b3 f8be d642 063d 2517 babc
00000010: 2d00 2bbe 6459 1dbf 1ee0 e8be cfba d2be
00000020: ed2b 29bf 59d6 26bf 1d02 13be 7845 b4bd
00000030: b4b5 4ebe 652c 813d c3a6 9fbe 2891 87be
00000040: 578c 99bd 7787 8fbe e358 c1be b255 cb3c
00000050: 57e3 b1be 8d79 66be 4d1f dbbe 4db9 bbbe
00000060: d7fa d2be b6dc 79be 1c0a 8bbe 0493 fbbe
00000070: 521e ccbe bfea f2be 5b4f 753d 20f6 20bf
00000080: b214 abbe 1548 03bf 4517 8bbe f6e8 cfbe
00000090: 9bb8 45be 4397 bebe 4a8e 6ebe b92c 2c3d
000000a0: a9b6 abbe b8fd c2be 9e8f 14bf e1dc 8bbe
000000b0: a7c2 acbd a0fe 42bd 6f34 d2be 29ce 2fbf
000000c0: ed56 963d 3a39 cfbe 5d86 4c3e 5499 3abf
000000d0: fdb5 09bf d6d0 11bf 218d 4ebf 281c 09be
000000e0: aa6c 20bf e551 21bf f106 b8be 4184 a8be
000000f0: dba4 92be 1cad 9dbe b902 03bf 3124 d5be
00000100: 363b 1bbf 892c 22bf cdc8 ebbe c8ff 02bf
00000110: ff9f 5ebe 4dd1 5ebe 8226 22bf b5fe 5abf
00000120: e5bf e9be d2fc 2fbf 1062 d0be a20e 62bf
00000130: be7d 10bf be3e 48bf cdf7 bfbd c9de a33c
00000140: 4b45 0d3d 3a5a e5be 8715 df3e 1f16 20bc
00000150: 7185 4fbd 639f 09bf 587a a03d 4a95 a4be
00000160: 1a38 79be d806 babe b61e 2d3c f079 f7be
00000170: 933d 81bd 2f7e a7bd 03af 6d3e 7236 45bf
00000180: d57c aebe 0e4b 90be 2367 87bf 00a6 733e
00000190: 1d89 8ebc 0cc1 853e 6266 babe dc73 47bf
000001a0: 16ee 0bbf 4655 78be ec71 75be 69c5 29bf
000001b0: 9818 433e 5418 10bf d338 cbbd 6d2e 15bf
000001c0: 22df 213e 5361 51bf b0bd bbbe c564 81bf
000001d0: 4a8b 50be 9de6 66bf 21c1 1cbf a608 b2bc
000001e0: 52bd b5be 3ba8 63bf 80cf 55be 2218 9cbe
000001f0: 56ef 953c fb76 b63c e89b c2be b04e 113f
00000200: 82bc a7be d7ed bcbe 0ad3 29bd 012c 61be
00000210: 3bee 013f e9cd 313d 881b 403e f137 0dbf
00000220: e852 29bf f17c dd3e 0f70 1c3e b090 a33d
00000230: 0192 a03e f162 013e 13ca d6bb 3547 e63e
00000240: 0a86 59bd 959e b83e 8ca9 743e 8177 f43d
00000250: f58f 86be eb2e 3e3d e8c1 253e b38e b1bd
00000260: 4ba9 b1bd cd76 0f3e 2399 9fbd 7874 9b3e
00000270: ff9d aabe 96c7 a03c 242a a3be 5105 443e
00000280: 7679 9ebd 8a26 c1be 63db 76be 0e3d 2d3e
00000290: 565c 803e d87e 443e 016e 733e 611c 3bbe
000002a0: f170 8cbd fc77 603e 8558 d9bd 97cd 163e
000002b0: 4e71 d7bd 6878 f5bc 549d 0a3f 674d 4fbe
000002c0: ad11 143e 36ce 5f3d 37d9 173e 966e 6e3e
000002d0: 2fe7 1bbf 7d78 93be 7542 883d 767d 45be
000002e0: 0ffb 1ebf f322 83bd 0c1d d3bd 6b68 403e
000002f0: 1f24 433e d59e d0bc a0b2 003f 9c6d 02bd
00000300: ca0d 07bf f174 d4be 8150 abbd ee26 a8be
00000310: 9467 ef3d c711 1dbf 51bf b4be 7900 e1be
00000320: 38da 6dbe 2349 1ebe 9a6e c9bd 9fba 0abf
00000330: 715e e4bd bc68 043e 1435 7e3e 10b5 c0be
00000340: ff99 863e 0c17 edbe 33fb f2bc 4366 cebd
00000350: 86f0 ecbe 3faa 3fbe 1fae fbbe 5ee4 4c3e
00000360: 11f9 283e 448a 59be 813d da3d f615 febe
00000370: 34f0 cabe 104f aabd f438 063d b5c2 1abe
00000380: f5f5 a7be d3ed e6bd e5b4 2abf 32ce 1d3d
00000390: 31b5 a5be 259d 16bf cd5b 16bf 3328 03bd
000003a0: a01e 53bf 18cc adbe bce6 80bf 2f8e 17bf
000003b0: 964c 66be 43f8 4cbe e37a c9be ffce 1bbf
000003c0: 8a09 ad3d f999 3abe 3b42 213f d2be 13bf
000003d0: 9ec4 9f3d 1f76 27bf 509e 92be faf4 1cbe
000003e0: b29f 43bf 6cca 2dbe 758e f4be e359 d1be
000003f0: 9fe4 113e ebfe 41be df46 cfbe cbd7 dfbe

bias_hh_l0 f4 [256]
-0.20042409 -0.60876375 -0.076143436 -0.15729295 0.026302896 -0.4901375 -0.44532996 -0.28294423
-0.73384607 -0.5985312 -0.13978818 -0.04759074 -0.13280906 0.0065363133 -0.2194113 -0.10147766
-0.03660034 -0.27893782 -0.16747884 0.025917128 -0.27101055 -0.20966806 -0.44037786 -0.48933592
-0.42439714 -0.24134174 -0.30538997 -0.6636135 -0.44626814 -0.37225574 -0.06844256 -0.4805907
-0.37025666 -0.48965177 -0.3818892 -0.35050902 -0.21996155 -0.19471663 -0.19019754 -0.09065241
-0.47170362 -0.31054386 -0.64493144 -0.34392485 -0.0476419 -0.27115396 -0.3063455 -0.51902735
-0.0065248483 -0.37660068 0.06693593 -0.66510415 -0.4759634 -0.51016927 -0.87348944 -0.15319398
-0.60934246 -0.5866794 -0.28628388 -0.3670781 -0.12432349 -0.44735315 -0.41811773 -0.42924726
-0.83046263 -0.43150696 -0.45637137 -0.4897254 -0.2784791 -0.20960717 -0.57864434 -0.88791674
-0.51850265 -0.61681235 -0.40540147 -0.96484244 -0.5120362 -0.6443136 -0.19172832 0.1480891
-0.036239482 -0.44023395 0.3297955 -0.11523805 -0.19577555 -0.4887777 0.085429065 -0.41429448
-0.11253934 -0.347524 0.15981407 -0.59176224 -0.1177788 -0.14000984 0.14503412 -0.7466914
-0.23850542 -0.32942364 -1.069943 0.027589763 -0.06946489 0.21345814 -0.32286054 -0.72181815
-0.31555188 -0.06240438 -0.30874613 -0.71996975 0.12246548 -0.43413252 -0.0017814797 -0.6354022
0.12538336 -0.80394053 -0.32112446 -0.9819305 -0.29299915 -0.93250936 -0.55523247 -0.04394486
-0.3445261 -0.8875718 -0.22802892 -0.32293612 -0.09810844 -0.040002797 -0.48793167 0.42440772
-0.21635021 -0.44890776 -0.15372786 -0.2366105 0.37121263 -0.13405265 0.10526615 -0.512992
-0.6671202 0.3640526 0.19789034 -0.03989853 0.15710269 0.034057118 0.06985869 0.4067542
-0.048594285 0.1524351 0.226977 0.16539787 -0.0970621 0.11203318 0.32543337 0.020294305
0.014744831 -0.010865623 -0.2011645 0.19270863 -0.2221652 0.18252172 -0.2744597 0.19232804
-0.20448811 -0.5775746 -0.19618279 0.06783458 0.20584318 0.10162687 0.21780978 -0.0664973
-0.23922907 0.048257746 -0.2964605 0.31644753 -0.07951801 -0.013694548 0.66222537 -0.1699783
0.14733206 -0.023697734 0.21533957 0.25362143 -0.7368347 -0.35407215 0.14128596 -0.4266456
-0.81101817 -0.11895732 -0.080090955 0.1713811 0.34739098 -0.09371007 0.54684186 -0.18775941
-0.4868661 -0.46882704 0.003203826 -0.16647439 0.18770634 -0.60603744 -0.5066582 -0.51892906
-0.3384269 -0.10840729 -0.19260119 -0.57958084 -0.019269383 0.04193685 0.28582343 -0.2858313
0.27862784 -0.48621666 -0.116518356 0.067367636 -0.34510437 -0.08663379 -0.50521296 0.15281929
0.1902389 -0.18425488 0.13702662 -0.4287541 -0.4147305 -0.14306243 -0.08567597 -0.26041472
-0.34829533 -0.06080905 -0.50237036 0.047615472 -0.28131676 -0.6231751 -0.41786966 -0.027337736
-0.6756346 -0.4770267 -0.95592546 -0.3871923 -0.020486582 -0.3508005 -0.38454652 -0.47389764
0.020586599 -0.37684283 0.46555543 -0.61586064 -0.05600336 -0.6706558 -0.31881493 -0.31780615
-0.7345499 -0.2841553 -0.44960895 -0.3385812 0.09835442 -0.16490625 -0.19422378 -0.47608942
00000000: f93b 4dbe f1d7 1bbf 17f1 9bbd 6711 21be
00000010: 2c79 d73c 4df3 fabe 4a02 e4be 11de 90be
00000020: 56dd 3bbf 5739 19bf a224 0fbe 82ee 42bd
00000030: 19ff 07be 922e d63b 5bad 60be 85d3 cfbd
00000040: 3dea 15bd f0d0 8ebe 937f 2bbe 2850 d43c
00000050: e5c1 8abe 39b3 56be 3579 e1be 3d8a fabe
00000060: 954a d9be 4a22 77be 135c 9cbe 93e2 29bf
00000070: 427d e4be 4e98 bebe 9d2b 8cbd fc0f f6be
00000080: 4892 bdbe a3b3 fabe fb86 c3be eb75 b3be
00000090: 9a3d 61be cc63 47be 25c3 42be f9a7 b9bd
000000a0: 2383 f1be 9bff 9ebe 3a1a 25bf eb16 b0be
000000b0: 2724 43bd b1d4 8abe 51d9 9cbe fade 04bf
000000c0: 65ce d5bb ced1 c0be b415 893d 4444 2abf
000000d0: 7ab1 f3be 749a 02bf 019d 5fbf e2de 1cbe
000000e0: defd 1bbf 9f30 16bf cd93 92be a9f1 bbbe
000000f0: 509d febd 790b e5be 8713 d6be 4cc6 dbbe
00000100: 3399 54bf 7bee dcbe 82a9 e9be 4abd fabe
00000110: d094 8ebe 43a3 56be 0922 14bf 834e 63bf
00000120: 97bc 04bf 6ae7 1dbf c890 cfbe eaff 76bf
00000130: ce14 03bf bcf1 24bf 6e54 44be aba4 173e
00000140: da6f 14bd 5866 e1be f5da a83e ed01 ecbd
00000150: 6379 48be 1241 fabe 6ff5 ae3d 681e d4be
00000160: 077b e6bd aaee b1be 4da6 233e bb7d 17bf
00000170: 0336 f1bd bd5e 0fbe d383 143e 2b27 3fbf
00000180: c43a 74be 37aa a8be e4f3 88bf ed03 e23c
00000190: 9c43 8ebd c594 5a3e fa4d a5be 13c9 38bf
000001a0: 0490 a1be bc9b 7fbd f913 9ebe f04f 38bf
000001b0: 2ecf fa3d 9e46 debe 8a80 e9ba b8a9 22bf
000001c0: 7f64 003e 0ccf 4dbf 6d6a a4be cc5f 7bbf
000001d0: fc03 96be efb8 6ebf b723 0ebf 87ff 33bd
000001e0: ba65 b0be e837 63bf 6a80 69be e257 a5be
000001f0: 14ed c8bd f9d9 23bd 2ed2 f9be f84b d93e
00000200: e98a 5dbe 3dd7 e5be d66a 1dbe 064a 72be
00000210: 950f be3e 1945 09be c795 d73d 7253 03bf
00000220: 64c8 2abf 1a65 ba3e c4a3 4a3e a46c 23bd
00000230: 87df 203e 7a7f 0b3d 1312 8f3d 1642 d03e
00000240: cd0a 47bd f217 1c3e a96c 683e 0f5e 293e
00000250: 7fc8 c6bd a771 e53d 349f a63e 3e40 a63c
00000260: 4e94 713c ba05 32bc 11fe 4dbe 6955 453e
00000270: 467f 63be f9e6 3a3e fb85 8cbe a4f1 443e
00000280: 5565 51be eedb 13bf 24e4 48be dbec 8a3d
00000290: 8ec8 523e c021 d03d 8709 5f3e bd2f 88bd
000002a0: 77f8 74be eaa9 453d acc9 97be 6905 a23e
000002b0: 57da a2bd 195f 60bc 9a87 293f cb0e 2ebe
000002c0: 37de 163e c021 c2bc fa81 5c3e abda 813e
000002d0: 33a1 3cbf f248 b5be 44ad 103e 4b71 dabe
000002e0: e39e 4fbf e59f f3bd ba06 a4bd 877e 2f3e
000002f0: 3bdd b13e 11eb bfbd d4fd 0b3f 0144 40be
00000300: 8346 f9be 190a f0be 48f7 513b 4378 2abe
00000310: 1736 403e 4525 1bbf 5ab4 01bf 89d8 04bf
00000320: 4a46 adbe a404 debd 3f39 45be 695f 14bf
00000330: d3da 9dbc f9c5 2b3d 7357 923e 7b58 92be
00000340: 4fa8 8e3e 64f1 f8be 2da1 eebd 0bf8 893d
00000350: 85b1 b0be 0e6d b1bd a355 01bf a97c 1c3e
00000360: fccd 423e 50ad 3cbe b550 0c3e a885 dbbe
00000370: 8e57 d4be f57e 12be e276 afbd 1455 85be
00000380: c453 b2be e912 79bd 589b 00bf 7108 433d
00000390: c008 90be 6788 1fbf 03f3 d5be 63f3 dfbc
000003a0: 64f6 2cbf d83c f4be 88b7 74bf 123e c6be
000003b0: 7ad3 a7bc 209c b3be 48e3 c4be b6a2 f2be
000003c0: 3aa5 a83c 8bf1 c0be 485d ee3e 0ba9 1dbf
000003d0: c763 65bd 19b0 2bbf b63b a3be 7db7 a2be
000003e0: 760b 3cbf ce7c 91be 2533 e6be 845a adbe
000003f0: 0b6e c93d 2fdd 28be 99e2 46be fec1 f3be

weight_ih_l1 f4 [256, 64]
0.88070893 -0.17759863 -0.21481524 0.33354014 0.0046777446 0.048427638 0.031749688 -0.49104592
-0.042753674 -0.30213457 -0.37995163 0.09148986 -0.17596705 -1.0537665 -0.3445095 0.54217637
0.2955401 -0.42298445 -0.11640103 -0.077556916 0.56265277 -0.36271003 -0.15859428 -0.08808072
-0.11212417 -0.15299428 0.033839803 0.0011700684 -0.1870906 -0.29332614 0.10005346 -0.7578707
0.46665624 -0.056520276 0.508602 -0.061983604 -0.23519489 -0.3634842 0.12926593 0.1797954
0.46192217 0.12511967 0.2775351 0.09241577 -0.75927395 -0.09776672 -0.69389844 0.24481039
0.01062894 -0.16778117 -0.28075752 0.018538097 0.53990614 0.056751564 0.020482123 -0.08223091
0.06926551 -0.022217412 0.1079314 -0.27785513 0.19946866 0.35114664 0.30252764 0.38098007
0.5346283 0.3409594 0.22192438 0.11875297 -0.27593684 0.04434664 -0.12025232 1.224388
0.5650889 -1.0170692 -0.26421693 0.28079116 0.048994448 0.16844888 0.01670074 -0.2525738
-0.12907358 0.35506278 0.23716071 0.13122143 -0.04487386 0.077712566 0.46641442 -0.17772694
-0.1839303 -0.12669672 0.5138414 0.1667822 -0.48328263 0.21913528 -0.27195793 -0.5240538
-0.08216495 -0.22097886 -0.10226305 -0.33021113 0.5251414 0.15370165 -0.105592564 0.24779831
0.5279117 -0.11907773 -0.24464832 0.2988207 0.023152431 -0.80622953 -0.39916882 -0.51727676
0.69858474 0.078979895 -0.4707508 -0.11897301 0.4650074 -0.69677484 0.37084195 0.35610113
-0.7588646 0.15384473 0.05993457 -0.05085122 -0.017865786 0.38353452 -0.52017516 -0.33521652
0.5192505 -0.076512605 0.16252649 -0.15907712 -0.10214409 -0.10032929 -0.22899103 -0.04332572
-0.027695056 0.03907869 -0.17736587 0.5565959 0.27468157 0.11316154 -0.016564826 -0.3727468
0.4052694 0.3943718 -0.14778121 -0.20744768 -0.39805937 0.054988533 -0.21546148 0.12615766
0.59111786 0.016300274 0.3037246 0.2173235 0.20625983 0.2656621 0.029724969 0.21059789
0.5485164 0.1464385 0.06778704 -0.24211052 -0.23688014 -0.13067089 0.2218821 0.164521
-0.06265927 -0.06987547 -0.51887524 0.020354673 0.2266324 -0.25469577 -0.006518081 0.3331346
0.024035553 0.037020355 -0.0017927333 -0.0037537855 0.2792082 -0.027128948 -0.045773614 -0.35947967
0.4185605 -0.2702676 0.10155043 -0.09524362 -0.15148303 0.19419977 -0.3176455 -0.0385637
0.1887266 -0.35174727 0.042403463 0.52727026 -0.075019345 0.068141945 0.2505287 0.08757387
-0.6335124 -0.4601644 0.18528461 -0.26131412 0.5592469 0.1569472 0.24716403 0.00068516156
0.23816903 0.17087556 0.29065317 0.31107396 -0.0594806 0.27928522 0.083992966 0.11001077
0.12725827 -0.476677 0.14025165 0.59843767 -0.0853711 0.14718944 0.13529502 -0.27368844
-0.80007285 -0.3481624 -0.20298938 -0.054153513 0.6577888 0.11678172 -0.37905693 -0.50848794
0.12761274 -0.17081574 -0.4956159 0.009071508 -0.15904991 -0.23201862 -0.039729986 -0.04360457
-0.6393538 0.036923483 -0.51440406 -0.21958745 0.59926665 -0.34692177 -0.12071465 0.18027857
-1.4193286 -0.29118207 0.0029929304 0.42549297 0.06965322 0.09864959 0.6428414 -0.05765368
00000000: 2476 613f 6adc 35be 87f8 5bbe c6c5 aa3e
00000010: c447 993b 0f5c 463d f60b 023d 5f6a fbbe
00000020: 7a1e 2fbd 62b1 9abe 0589 c2be 095f bb3d
00000030: b530 34be d2e1 86bf 8d63 b0be 12cc 0a3f
00000040: 0851 973e 6b91 d8be aa63 eebd 29d6 9ebd
00000050: 030a 103f 21b5 b9be 8a66 22be aa63 b4bd
00000060: 5ba1 e5bd 88aa 1cbe 9b9b 0a3d fb5c 993a
00000070: ae94 3fbe d82e 96be d4e8 cc3d d003 42bf
00000080: 91ed ee3e ce81 67bd be33 023f 85e2 7dbd
00000090: eed6 70be 9a1a babe 4a5e 043e 491c 383e
000000a0: 1081 ec3e 5f1f 003e 1519 8e3e 7b44 bd3d
000000b0: c75f 42bf eb39 c8bd 54a3 31bf 93af 7a3e
000000c0: 0125 2e3c d4ce 2bbe 73bf 8fbe 35dd 973c
000000d0: 4a37 0a3f 5474 683d 20ca a73c ae68 a8bd
000000e0: 13db 8d3d 4a01 b6bc 230b dd3d 0743 8ebe
000000f0: 8341 4c3e 7ec9 b33e e7e4 9a3e d20f c33e
00000100: 66dd 083f 3b92 ae3e 2540 633e c234 f33d
00000110: 9847 8dbe d3a4 353d d946 f6bd bfb8 9c3f
00000120: aba9 103f 532f 82bf 7147 87be dcc3 8f3e
00000130: 67ae 483d dd7d 2c3e fecf 883c 5a51 81be
00000140: dd2b 04be caca b53e 42da 723e e95e 063e
00000150: a7cd 37bd c427 9f3d dfcd ee3e 0dfe 35be
00000160: 3958 3cbe c9bc 01be 1c8b 033f f4c8 2a3e
00000170: d270 f7be 0065 603e 123e 8bbe 6428 06bf
00000180: 1946 a8bd 4848 62be 4a6f d1bd 6f11 a9be
00000190: ab6f 063f f763 1d3e ea40 d8bd d7be 7d3e
000001a0: 3925 073f 06df f3bd 1785 7abe 07ff 983e
000001b0: 2baa bd3c 0f65 4ebf db5f ccbe 406c 04bf
000001c0: 73d6 323f 36c0 a13d 4006 f1be 1fa8 f3bd
000001d0: 7315 ee3e d65f 32bf ffde bd3e e352 b63e
000001e0: f344 42bf 7989 1d3e f47d 753d 5e49 50bd
000001f0: 455b 92bc a35e c43e 332a 05bf 80a1 abbe
00000200: 9aed 043f a4b2 9cbd 586d 263e 1de5 22be
00000210: ec30 d1bd 7179 cdbd a07c 6abe 4f76 31bd
00000220: bee0 e2bc fa10 203d 669f 35be 127d 0e3f
00000230: 10a3 8c3e 3dc1 e73d f5b2 87bc abd8 bebe
00000240: 797f cf3e 1aeb c93e f553 17be 2a6d 54be
00000250: 70ce cbbe a83b 613d efa1 5cbe 792f 013e
00000260: 8053 173f 2788 853c ca81 9b3e 0d8a 5e3e
00000270: c735 533e dd04 883e c781 f33c f9a6 573e
00000280: 926b 0c3f f9f3 153e eed3 8a3d d2eb 77be
00000290: b590 72be 97ce 05be 1035 633e 3178 283e
000002a0: 8153 80bd df1a 8fbd 02d5 04bf d8be a63c
000002b0: 5312 683e 7c67 82be a095 d5bb 9e90 aa3e
000002c0: 35e6 c43c a8a2 173d 26fa eaba 1202 76bb
000002d0: 61f4 8e3e 873d debc 1d7d 3bbd b80d b8be
000002e0: 904d d63e 8460 8abe acf9 cf3d 160f c3bd
000002f0: 5e1e 1bbe 4edc 463e 6ea2 a2be f8f4 1dbd
00000300: 8c41 413e 3818 b4be 41af 2d3d 2ffb 063f
00000310: bea3 99bd 018e 8b3d 4c45 803e ee59 b33d
00000320: de2d 22bf ab9a ebbe 40bb 3d3e f7ca 85be
00000330: ce2a 0f3f c4b6 203e 9118 7d3e 6a9c 333a
00000340: 95e2 733e 01fa 2e3e 7ed0 943e 1645 9f3e
00000350: eea1 73bd 79fe 8e3e 8104 ac3d 544d e13d
00000360: fe4f 023e 020f f4be 219e 0f3e 3633 193f
00000370: 0bd7 aebd d4b8 163e c78a 0a3e e420 8cbe
00000380: 93d1 4cbf 5842 b2be 73dc 4fbe 13d0 5dbd
00000390: d964 283f 412b ef3d c013 c2be 442c 02bf
000003a0: eaac 023e 52ea 2ebe 5ec1 fdbe aaa0 143c
000003b0: fbdd 22be 4a96 6dbe e9bb 22bd b59a 32bd
000003c0: b1ac 23bf 143d 173d fcaf 03bf 88db 60be
000003d0: 8a69 193f bb9f b1be 3e39 f7bd f29a 383e
000003e0: 8fac b5bf d115 95be 0a25 443b 37da d93e
000003f0: 59a6 8e3d cc08 ca3d 4191 243f 4426 6cbd

weight_hh_l1 f4 [256, 64]
-0.010581721 0.5474581 -0.09776179 -0.06826319 0.056610752 -0.23728843 -0.11117951 -0.1570009
0.02561155 0.09753313 -0.002292854 0.04292117 0.18667895 -0.18599093 0.15123427 -0.09325199
0.45341533 -0.5149674 0.08272757 -0.27654353 -0.15162136 0.08580773 -0.20873627 -0.05757765
-0.7125547 -0.19095507 -0.13424262 -0.36113545 -0.24967796 -0.3727111 -0.015057008 0.15532087
-0.22556351 -0.25075066 -0.08469073 -0.19278522 0.23928355 0.24681728 0.31927004 0.29023105
0.25974122 -0.15015437 0.16222675 0.25882939 0.4934613 0.23450805 -0.033990238 0.03694799
0.21108975 0.017012326 0.21790223 -0.09184593 0.6694043 0.38645124 -0.3274971 -0.101748824
0.5475992 -0.15473233 -0.15144669 0.301167 0.2078416 0.6413107 0.1389533 -0.076712176
0.23541375 0.58882725 0.44069204 0.022838721 -0.46053737 -0.1554443 -0.24676193 -0.20384957
-0.24390796 0.13889092 0.33792454 -0.44460058 -0.3457707 -0.11386568 -0.5460382 0.22191477
0.4136002 -0.02665291 1.0332365 -0.46940872 -0.24557085 -0.10873344 -0.47981417 0.019429646
-0.66467816 1.1074848 0.06092312 0.055775486 -0.18944347 -0.2104378 0.42711484 -0.5525202
-0.15569569 -0.41932344 0.19195168 -0.40342334 -0.27009156 0.20531543 -0.17318487 -0.13466658
-0.08098877 0.120572135 -0.48050797 0.34169322 -0.03350282 0.057552464 -0.12243688 -0.4024716
-0.06973801 0.20019703 0.35456923 -0.14826712 -0.15848842 -0.018798715 -0.51603055 0.27663505
-0.55953753 -0.0027104898 -0.024064986 -0.15181312 0.2540244 -0.45133635 -0.39032626 -0.23527569
-0.105828196 -0.05482832 0.36992815 -0.28282964 0.012216325 -0.39238065 0.4912799 -0.16725309
0.041650888 -0.5080869 -0.13337559 0.42676455 -0.24456437 -0.38744825 -0.4304608 -0.43200245
-0.1695489 -0.12990731 -0.38229305 0.29327202 0.3750706 0.15412961 0.0699211 -0.014883247
0.25095046 0.14170122 -0.41053692 0.4898925 0.21450809 0.11966771 0.06885027 -0.047361985
0.029036442 -0.069970824 0.5371712 -0.16282602 0.113482386 -0.13662086 0.057403237 -0.27984807
-0.112766325 -0.004732532 -0.23724248 -0.019462796 0.19137356 0.46082303 0.15238823 0.31347844
-0.27077278 -0.012312721 0.21592869 0.19592272 0.24892032 -0.28551278 0.04835969 -0.041011102
-0.28723764 -0.13337122 -0.27471069 -0.05287777 0.121307306 0.40981326 0.0048303823 -0.28798544
-0.17510621 -0.2800735 -0.5686256 0.30329168 0.13426444 0.20770255 -0.046862595 0.34310275
-0.16309762 0.628182 -0.43377045 0.16295701 -0.27892548 0.20993018 -0.3199409 0.19810325
-0.46842957 0.056622915 -0.27020666 1.3456509 -0.37614766 -0.73950624 0.0006480408 0.009186171
0.6138103 -0.40336144 0.13891381 0.16804108 -0.060206596 0.12879744 -0.4889017 0.020212537
0.6439715 0.39445406 0.6727151 0.3890343 -0.6067864 0.07387868 -0.016468104 -0.21387689
-0.28392056 -0.6740374 -0.25552568 -0.23251338 -0.49543363 -0.32728595 0.65452945 -0.20531197
0.09842397 0.06854161 -0.2517655 -0.0956736 -0.62930006 0.49106452 -0.07469825 -0.6008462
0.2549516 -0.060104117 0.5333268 -0.29432842 0.047841545 0.07465756 -0.2577107 -0.44445205
00000000: f45e 2dbc 3726 0c3f 5537 c8bd 92cd 8bbd
00000010: ade0 673d bdfb 72be 15b2 e3bd d8c4 20be
00000020: 50cf d13c 73bf c73d b543 16bb 1cce 2f3d
00000030: c428 3f3e 6874 3ebe 28dd 1a3e e6fa bebd
00000040: 0e26 e83e e7d4 03bf 126d a93d 1d97 8dbe
00000050: a142 1bbe f7bb af3d f6be 55be 8bd6 6bbd
00000060: fc69 36bf ba89 43be e676 09be bfe6 b8be
00000070: 94ab 7fbe fdd3 bebe abb1 76bc 6f0c 1f3e
00000080: 1ffa 66be 6462 80be 5572 adbd 7d69 45be
00000090: bf06 753e abbd 7c3e 5d77 a33e 2a99 943e
000000a0: cdfc 843e 11c2 19be c51e 263e 4985 843e
000000b0: f6a6 fc3e e122 703e 5939 0bbd c756 173d
000000c0: e927 583e 6f5d 8b3c c321 5f3e b819 bcbd
000000d0: 155e 2b3f f0dc c53e b3ad a7be b061 d0bd
000000e0: 762f 0c3f 2772 1ebe d714 1bbe 9032 9a3e
000000f0: 6ed4 543e f02c 243f c649 0e3e 461b 9dbd
00000100: 4d10 713e 62bd 163f 63a2 e13e 4518 bb3c
00000110: 8ecb ebbe ca2c 1fbe 29af 7cbe f1bd 50be
00000120: 02c3 79be 6c39 0e3e 7204 ad3e b0a2 e3be
00000130: db08 b1be 6932 e9bd 29c9 0bbf a03d 633e
00000140: 68c3 d33e 3457 dabc 1841 843f 5756 f0be
00000150: ed76 7bbe a3af debd 34aa f5be ec2a 9f3c
00000160: 5928 2abf 10c2 8d3f 858a 793d d674 643d
00000170: 78fd 41be 027d 57be ccae da3e f771 0dbf
00000180: b16e 1fbe 90b1 d6be fb8e 443e 818d cebe
00000190: 7149 8abe 353e 523e 6057 31be 09e6 09be
000001a0: 71dd a5bd 86ee f63d 2405 f6be 6af2 ae3e
000001b0: 413a 09bd 22bc 6b3d 30c0 fabd c210 cebe
000001c0: cdd2 8ebd 7300 4d3e 198a b53e 56d3 17be
000001d0: ca4a 22be c3ff 99bc 941a 04bf 1ca3 8d3e
000001e0: da3d 0fbf 79a2 31bb ef23 c5bc e674 1bbe
000001f0: 7c0f 823e 8f15 e7be d8d8 c7be 1cec 70be
00000200: 74bc d8bd a993 60bd 3967 bd3e 0ccf 90be
00000210: fb26 483c 1ee6 c8be 0a89 fb3e 6544 2bbe
00000220: 1f9a 2a3d fc11 02bf 9c93 08be e280 da3e
00000230: 156f 7abe 9e5f c6be 5c65 dcbe 6d2f ddbe
00000240: 3a9e 2dbe 6c06 05be eabb c3be c027 963e
00000250: 4109 c03e 27d4 1d3e cb32 8f3d ddd8 73bc
00000260: 947c 803e 201a 113e e531 d2be 31d3 fa3e
00000270: 02a8 5b3e 5814 f53d 5f01 8d3d a4fe 41bd
00000280: d5dd ed3c dd4c 8fbd 0d84 093f ddbb 26be
00000290: 7469 e83d 57e6 0bbe a81f 6b3d 3f48 8fbe
000002a0: 08f2 e6bd 5b13 9bbb b1ef 72be 7170 9fbc
000002b0: 6ef7 433e fff0 eb3e a90b 1c3e 3f80 a03e
000002c0: bba2 8abe 4cbb 49bc 691c 5d3e f79f 483e
000002d0: f8e4 7e3e bb2e 92be cf14 463d 42fb 27bd
000002e0: d010 93be 7792 08be e1a6 8cbe 5c96 58bd
000002f0: f76f f83d 0bd3 d13e 2f48 9e3b d472 93be
00000300: 0b4f 33be cb65 8fbe 7391 11bf 0c49 9b3e
00000310: 9e7c 093e faaf 543e fef2 3fbd 2aab af3e
00000320: 1003 27be 89d0 203f 2917 debe 34de 263e
00000330: 52cf 8ebe f0f7 563e 4bcf a3be 94db 4a3e
00000340: 00d6 efbe 6eed 673d 8758 8abe 4a3e ac3f
00000350: 6d96 c0be 4850 3dbf 48e1 293a 9881 163c
00000360: ac22 1d3f 6485 cebe 6c3f 0e3e f612 2c3e
00000370: 319b 76bd 7ae3 033e 5351 fabe c394 a53c
00000380: 51db 243f e2f5 c93e 0f37 2c3f 812f c73e
00000390: 5a56 1bbf b54d 973d 1ee8 86bc 8b02 5bbe
000003a0: 095e 91be b78d 2cbf 43d4 82be fd17 6ebe
000003b0: 7aa9 fdbe 0692 a7be 3e8f 273f 4d3d 52be
000003c0: 8292 c93d 8b5f 8c3d 68e7 80be 85f0 c3bd
000003d0: cf19 21bf cf6c fb3e 65fb 98bd 0ed1 19bf
000003e0: 0489 823e bc2f 76bd 1b88 083f 37b2 96be
000003f0: 7ff5 433d 10e6 983d a8f2 83be 388f e3be

bias_ih_l1 f4 [256]
-0.66739154 -0.185451 -0.14697142 -0.16189386 -0.528401 -0.22984745 -0.4511367 -0.58077353
-0.10978406 -0.6933682 -0.29357466 -0.68939674 -0.22295229 -0.5201412 0.12276872 -0.55453885
-0.5137587 -0.05223032 -0.12903689 -0.3213989 0.2763327 -0.5206062 -0.48371267 -0.07416892
-0.4955359 0.24633203 -0.55437016 -0.50178385 0.40759587 -0.46050203 0.06119854 -0.73460037
-0.5746822 -0.32597503 -0.7186616 -0.7311408 -0.8597309 0.026857823 -0.45576465 -0.41689458
-0.59578335 -0.44919932 -0.38441235 -0.006208399 -0.5280299 -0.40162587 -0.44302383 -0.30643556
-0.46131992 0.063640654 -0.12423792 -0.108274505 -0.7817264 -0.36200672 -0.31224236 -0.6754861
-0.5050265 -0.759178 -0.3288198 -0.36605278 -0.35261723 -0.4183383 -0.55541146 -0.5398155
0.93505996 -0.060977995 0.81999785 0.84613574 0.4141586 -0.010503183 0.7144573 0.7148889
0.58051825 0.6502332 0.36983547 0.10390839 0.30806714 -0.2066945 -0.25797248 1.0583715
0.66434866 0.49233943 -0.44094333 -0.039862055 0.17097281 -0.23272811 0.5121681 0.9805178
0.22249137 0.5224059 1.0034717 0.92665607 0.28186768 0.41926658 -0.17875247 0.1836946
-0.1795124 0.12194346 0.47393906 0.78443265 0.52922493 1.2996017 1.1252594 0.33818305
1.0911769 0.254957 0.6908327 0.92143595 0.36652756 0.8606822 1.213161 -0.3775648
1.2692462 0.35486844 0.8892889 0.07674218 1.1086836 0.90249425 -0.57122767 0.90205014
0.86142546 0.46889138 0.24080664 1.5860562 1.1691576 0.40789863 0.7963053 0.28924093
0.10264304 0.023713006 0.016181493 -0.0047517805 0.012885764 0.0746073 -0.05351758 0.08671824
0.07879792 0.04759792 -0.1784629 -0.12094686 -0.031924825 -0.0058534304 0.0003203029 0.06994577
0.13066842 0.09885664 -0.039628305 -0.20986475 -0.12746088 0.013458237 -0.003240378 -0.046673372
-0.018804787 0.016752448 0.010020216 -0.03645698 -0.06768168 0.06881672 -0.04645208 -0.070895
0.12848304 0.0011226996 0.0148273595 -0.01924674 0.03984684 0.08282524 -0.0145437475 0.23905177
0.030461622 -0.040401857 0.03873869 -0.17008835 0.0093727065 0.22950754 0.105273016 -0.051707305
0.11034658 -0.010324058 -0.17166613 0.13557148 -0.123717226 -0.0043052854 -0.06463907 0.07864491
0.041173317 0.14543793 -0.060117505 -0.016582884 0.013945376 -0.13711222 -0.10820884 0.0067056147
-0.41633695 -0.31623206 0.1413183 0.24868062 -0.57547826 -0.07859082 -0.4270702 -0.72866565
0.058405075 -0.24265645 -0.22451873 -0.6199 -0.76049715 -0.53850293 -0.47960052 0.038196515
-0.34744272 -0.048834443 -0.2597566 -0.76507384 0.12939495 -0.6690779 -0.39604807 0.42560464
-0.62134194 -0.4394129 0.08858858 -0.11702493 0.09767864 -0.34228933 -0.18996148 -0.57121235
-0.5048936 -0.753977 -0.42334375 -0.65222865 -0.50396687 0.2862411 -0.29205433 -0.27786013
0.061206426 -0.7628687 -0.30116954 -0.1874515 -0.63991386 -0.51110417 0.48780873 -0.48227483
-0.040949427 0.044696275 -0.38975084 -0.05174727 -0.5728074 -0.47692633 -0.6450685 0.07792804
-0.54591584 -0.591071 -0.42891887 -0.010549869 0.1170171 -0.5354206 -0.31848314 -0.8307173
00000000: 2cda 2abf dee6 3dbe ad7f 16be 81c7 25be
00000010: 4a45 07bf 215d 6bbe 64fb e6be 93ad 14bf
00000020: 77d6 e0bd 9480 31bf 6b4f 96be 4e7c 30bf
00000030: 9b4d 64be f927 05bf 2b6e fb3d 42f6 0dbf
00000040: b185 03bf 76ef 55bd 3f22 04be 668e a4be
00000050: 7b7b 8d3e 7346 05bf 30a9 f7be e0e5 97bd
00000060: e2b6 fdbe 773e 7c3e 34eb 0dbf e874 00bf
00000070: 68b0 d03e ecc6 ebbe 52ab 7a3d c50e 3cbf
00000080: 5f1e 13bf 33e6 a6be 35fa 37bf 0b2c 3bbf
00000090: 5317 5cbf f004 dc3c fc59 e9be 3573 d5be
000000a0: 4285 18bf 74fd e5be b2d1 c4be d36f cbbb
000000b0: f82c 07bf e8a1 cdbe 05d4 e2be 1fe5 9cbe
000000c0: 2032 ecbe 0856 823d 7370 febd 06bf ddbd
000000d0: 391f 48bf f258 b9be 3bde 9fbe a8ec 2cbf
000000e0: 6b49 01bf 7d59 42bf 125b a8be 456b bbbe
000000f0: 3f8a b4be 7030 d6be 722f 0ebf 5931 0abf
00000100: 1760 6f3f 10c4 79bd 61eb 513f 5a9c 583f
00000110: 990c d43e 8b15 2cbc ace6 363f f502 373f
00000120: d89c 143f af75 263f 135b bd3e eccd d43d
00000130: faba 9d3e b9a7 53be f814 84be b878 873f
00000140: c112 2a3f ea13 fc3e 53c3 e1be 6546 23bd
00000150: 7f13 2f3e 4750 6ebe 731d 033f 3703 7b3f
00000160: c7d4 633e 65bc 053f c371 803f 5539 6d3f
00000170: f650 903e 1caa d63e e30a 37be 701a 3c3e
00000180: 19d2 37be 7ebd f93d 24a8 f23e 94d0 483f
00000190: 497b 073f 5959 a63f 8008 903f 5426 ad3e
000001a0: afab 8b3f b989 823e 69da 303f 3ae3 6b3f
000001b0: 80a9 bb3e ab55 5c3f dc48 9b3f 2c50 c1be
000001c0: a976 a23f 51b1 b53e 70a8 633f 012b 9d3d
000001d0: 58e9 8d3f dd09 673f fa3b 12bf c2ec 663f
000001e0: 6186 5c3f 8812 f03e 0496 763e e403 cb3f
000001f0: f5a6 953f 17d8 d03e aada 4b3f 6317 943e
00000200: 8436 d23d c741 c23c 0d8f 843c d3b4 9bbb
00000210: d01e 533c b6cb 983d 4035 5bbd 5599 b13d
00000220: ce60 a13d 09f6 423d fabe 36be fdb2 f7bd
00000230: 9bc3 02bd 22ce bfbb 54ee a739 ba3f 8f3d
00000240: f1cd 053e 5a75 ca3d 4a51 22bd c9e6 56be
00000250: 1b85 02be f07f 5c3c 865c 54bb 942c 3fbd
00000260: 7f0c 9abc 6e3c 893c d52b 243c ea53 15bd
00000270: b19c 8abd c8ef 8c3d 8944 3ebd 6631 91bd
00000280: 0f91 033e 8c27 933a 74ee 723c 57ab 9dbc
00000290: 7136 233d 48a0 a93d e648 6ebc fdc9 743e
000002a0: a78a f93c 6b7c 25bd 76ac 1e3d a42b 2ebe
000002b0: fb8f 193c 0604 6b3e 6199 d73d 0acb 53bd
000002c0: 63fd e13d 3d26 29bc 3fc9 2fbe 40d3 0a3e
000002d0: 755f fdbd 5a13 8dbb 7d61 84bd 9510 a13d
000002e0: 5aa5 283d aeed 143e c63d 76bd d4d8 87bc
000002f0: 257b 643c 2567 0cbe 999c ddbd c6ba db3b
00000300: 1e2a d5be 2be9 a1be bfb5 103e 22a6 7e3e
00000310: 8b52 13bf 39f4 a0bd f2a8 dabe d589 3abf
00000320: 293a 6f3d ef7a 78be 3de8 65be c4b1 1ebf
00000330: f1af 42bf 54db 09bf 338e f5be f373 1c3d
00000340: 03e4 b1be a006 48bd d1fe 84be e1db 43bf
00000350: 1c80 043e b048 2bbf d0c6 cabe dae8 d93e
00000360: 4410 1fbf bafa e0be ee6d b53d c4aa efbd
00000370: bd0b c83d 8c40 afbe 4385 42be f93a 12bf
00000380: b540 01bf a304 41bf 83c0 d8be 75f8 26bf
00000390: f903 01bf 328e 923e 2588 95be af43 8ebe
000003a0: 97b3 7a3d 5d4b 43bf e532 9abe 49f3 3fbe
000003b0: 65d1 23bf b9d7 02bf 11c2 f93e baec f6be
000003c0: 96ba 27bd 7113 373d 6c8d c7be f2f4 53bd
000003d0: 81a3 12bf b02f f4be 3623 25bf bc98 9f3d
000003e0: 24c1 0bbf 6e50 17bf 419b dbbe 5cd9 2cbc
000003f0: a9a6 ef3d 5311 09bf 3910 a3be e4a9 54bf

bias_hh_l1 f4 [256]
-0.4930264 -0.17977834 -0.2200105 -0.1162464 -0.6077276 -0.26673415 -0.44283485 -0.58718556
-0.15759517 -0.6321301 -0.10112151 -0.6068188 -0.26812387 -0.35477966 -0.027786734 -0.5885906
-0.5905207 -0.004187867 -0.3067607 -0.19022968 0.105803 -0.3949419 -0.383301 -0.0012039993
-0.39924622 0.21724044 -0.63638115 -0.46954143 0.22824155 -0.369867 0.09056604 -0.58225596
-0.36920953 -0.25411624 -0.67308843 -0.68019706 -0.80822664 0.07795002 -0.3024243 -0.60641056
-0.65457684 -0.41635904 -0.3537634 0.11022487 -0.5844715 -0.45704448 -0.48652235 -0.40418035
-0.451478 -0.068956085 -0.28210732 -0.03804261 -0.8292027 -0.28608194 -0.20037048 -0.5395802
-0.48804793 -0.56955343 -0.3033818 -0.27940616 -0.3970416 -0.43258217 -0.6527939 -0.52842075
0.8623994 -0.109880656 0.82240504 0.7650606 0.40211073 0.07683789 0.7272754 0.5134601
0.52407223 0.58471465 0.5656372 0.13683985 0.2541117 -0.14731084 -0.3712461 0.9319259
0.72603554 0.57653785 -0.5322799 -0.1257569 0.23391344 -0.19498606 0.54592115 1.0051
0.17156625 0.6338088 1.0512675 0.85776216 0.3204185 0.46045876 -0.23684281 0.27723405
-0.26049912 0.090606496 0.47334197 0.60183966 0.5915731 1.2548555 1.3430641 0.45377377
0.97307354 0.42817253 0.73050547 0.89756507 0.2772241 0.935241 1.2413425 -0.26713455
1.1913761 0.5059187 0.78159213 -0.026066346 1.2311479 0.93576425 -0.5832656 0.90450394
0.75687987 0.37982467 0.2669153 1.5453188 1.1861385 0.39501265 0.9389483 0.37254122
0.023315104 0.02014094 0.07324981 0.15338841 -0.059121046 0.092674546 0.00035844446 0.13086957
-0.042187914 0.071168676 -0.09292876 -0.017678568 0.08225345 -0.027228268 -0.23479307 -0.0780444
-0.06099931 -0.045622736 -0.084661335 -0.0702687 -0.030341212 -0.023682903 -0.022394001 0.026781408
0.11988564 -0.1840579 0.0049139084 0.052142013 -0.17734872 0.043263894 0.07730263 0.096242025
0.13108544 0.02965224 0.023056827 -0.070263356 0.00014178456 -0.016557984 -0.20437488 0.12837201
-0.12873355 0.1739247 -0.05785709 -0.12621643 -0.13029456 0.07131217 -0.021448754 0.00514143
-0.00070644985 -0.050042387 0.001484949 0.08554189 -0.10986141 0.13976912 -0.08511622 0.06468941
-0.052194454 0.010385254 0.0075695524 0.15776367 -0.10325302 -0.09031352 -0.12625133 0.023175964
-0.34421325 -0.32610756 -0.0121281 0.23620296 -0.55734766 -0.17626356 -0.5566424 -0.6939044
0.019200237 -0.28855592 -0.23113056 -0.6412085 -0.8685058 -0.46592295 -0.6058596 -0.011995062
-0.11717254 0.021452975 -0.44659144 -0.79239154 0.040191494 -0.6455657 -0.4099215 0.37904078
-0.5363717 -0.457076 0.084604695 -0.14313973 -0.03465471 -0.29665962 -0.22054896 -0.45237836
-0.5986194 -0.71390295 -0.35855094 -0.677322 -0.5157061 0.24445252 -0.31418532 -0.16454579
0.086270034 -0.74962044 -0.13404636 -0.2795724 -0.7465371 -0.4579587 0.3393861 -0.339869
0.10495692 0.05855287 -0.42500976 -0.113420725 -0.3458794 -0.28120953 -0.62834096 -0.07270104
-0.522177 -0.54265183 -0.5157434 -0.10297786 -0.052022506 -0.5452626 -0.39921826 -0.71897286
00000000: f56d fcbe d017 38be 6f4a 61be 9812 eebd
00000010: 0994 1bbf 6191 88be 40bb e2be cb51 16bf
00000020: a160 21be 47d3 21bf cb18 cfbd 7a58 1bbf
00000030: 8847 89be aea5 b5be 01a1 e3bc e0ad 16bf
00000040: 5d2c 17bf 603a 89bb bd0f 9dbe 92cb 42be
00000050: 3eaf d83d d335 cabe 0740 c4be 83cf 9dba
00000060: 006a ccbe 4774 5e3e e0e9 22bf bc67 f0be
00000070: 27b8 693e 355f bdbe b07a b93d ba0e 15bf
00000080: 0809 bdbe 861b 82be 864f 2cbf 6521 2ebf
00000090: f1e7 4ebf 43a4 9f3d 5cd7 9abe b93d 1bbf
000000a0: 5992 27bf 032d d5be 7a20 b5be 94bd e13d
000000b0: ed9f 15bf bc01 eabe 7519 f9be baf0 cebe
000000c0: 2028 e7be d938 8dbd 5f70 90be 91d2 1bbd
000000d0: a146 54bf 5579 92be eb2d 4dbe ee21 0abf
000000e0: 6be1 f9be 41ce 11bf dc54 9bbe 530e 8fbe
000000f0: 0949 cbbe 697b ddbe 801d 27bf 9546 07bf
00000100: 35c6 5c3f 1c09 e1bd 2389 523f 03db 433f
00000110: 75e1 cd3e 2f5d 9d3d b82e 3a3f 1f72 033f
00000120: 9929 063f dcaf 153f 99cd 103f bf1f 0c3e
00000130: ee1a 823e a7d8 16be f813 bebe b292 6e3f
00000140: 77dd 393f fc97 133f 7f43 08bf 6bc6 00be
00000150: 0187 6f3e 6daa 47be 7dc1 0b3f 1ea7 803f
00000160: 10af 2f3e 4b41 223f ef8f 863f 4d96 5b3f
00000170: e50d a43e 40c1 eb3e ec86 72be 9ff1 8d3e
00000180: 2460 85be e68f b93d e159 f23e 2a12 1a3f
00000190: 5671 173f 1b9f a03f 86e9 ab3f 0955 e83e
000001a0: 591b 793f 6e39 db3e 6802 3b3f d3c6 653f
000001b0: 51f0 8d3e f46b 6f3f 50e4 9e3f dcc5 88be
000001c0: 037f 983f e383 013f 6c16 483f 1789 d5bc
000001d0: 4196 9d3f 3f8e 6f3f e550 15bf 928d 673f
000001e0: e1c2 413f 6178 c23e 1fa9 883e 02cd c53f
000001f0: 63d3 973f 193f ca3e ea5e 703f b9bd be3e
00000200: 51ff be3c 9dfe a43c ff03 963d da11 1d3e
00000210: e928 72bd 27cc bd3d 9aed bb39 ac02 063e
00000220: 3ccd 2cbd e2c0 913d 6f51 bebd a5d2 90bc
00000230: 7f74 a83d d10d dfbc 986d 70be bed5 9fbd
00000240: 6ada 79bd e8de 3abd ec62 adbd 09e9 8fbd
00000250: 228e f8bc a602 c2bc a073 b7bc af64 db3c
00000260: 9a86 f53d ad79 3cbe da04 a13b dd92 553d
00000270: e79a 35be 7b35 313d d750 9e3d 8a1a c53d
00000280: 433b 063e 41e9 f23c ace1 bc3c 3ce6 8fbd
00000290: 01ac 1439 9ca4 87bc a647 51be f473 033e
000002a0: bad2 03be 5119 323e 8efb 6cbd e13e 01be
000002b0: f06b 05be 1d0c 923d 4cb5 afbc 7179 a83b
000002c0: 0c31 39ba 3ff9 4cbd 9fa2 c23a 9630 af3d
000002d0: 05ff e0bd a31f 0f3e 6a51 aebd e27b 843d
000002e0: dac9 55bd ea26 2a3c 020a f83b cd8c 213e
000002f0: 5276 d3bd 4bf6 b8bd 0748 01be 85db bd3c
00000300: b83c b0be 92f7 a6be f0b4 46bc 30df 713e
00000310: 56ae 0ebf 6f7e 34be 1e80 0ebf b8a3 31bf
00000320: d149 9d3c 9abd 93be 7dad 6cbe 3e26 24bf
00000330: 6556 5ebf 748d eebe 9d19 1bbf f086 44bc
00000340: 28f8 efbd 26be af3c a2a7 e4be 2cda 4abf
00000350: d69f 243d cb43 25bf 3be1 d1be a211 c23e
00000360: a84f 09bf de05 eabe 3a45 ad3d 3993 12be
00000370: 19f2 0dbd c5e3 97be 96d7 61be 239e e7be
00000380: 1f3f 19bf 58c2 36bf fd93 b7be f964 2dbf
00000390: 5105 04bf c351 7a3e e6dc a0be b17e 28be
000003a0: 58ae b03d 20e7 3fbf 7343 09be 1d24 8fbe
000003b0: 0e1d 3fbf 9079 eabe 04c4 ad3e 4f03 aebe
000003c0: a7f3 d63d 22d5 6f3d e19a d9be 2049 e8bd
000003d0: 1b17 b1be b2fa 8fbe f4da 20bf 48e4 94bd
000003e0: 64ad 05bf 3beb 0abf c207 04bf 0ee6 d2bd
000003f0: 8d15 55bd 5496 0bbf 5666 ccbe 9b0e 38bf
