src/grinding_system_python/model/model_real_MA_NS_v01_sl8_hs64_bs64_num_epochs40_g0.95_l2.pth (torch, 223687 bytes, 10 tensors)

weight_ih_l0 f4 [256, 15]
00000000: 8062 863d 3d79 be3d b63e 083d 53a6 fd3a
00000010: adc4 373b b2c2 ae3b fbed 5a3e 4c92 a4bd
00000020: a4d0 62be d693 1cbe 6ce1 59bb d829 71be
00000030: 7e35 37bd 81b8 cc3c 1aca 8c3e 4186 58bd
00000040: d829 03be c55e 653c 0a44 793d c398 dc3c
00000050: 5900 323e a880 a73d 2ca8 0b3d 9202 c93d
00000060: 6fa1 a83c c591 adbd 5b07 063d da8a 043e
00000070: 386b d23c 6c3a 483e 5db7 5fbd d47d 103d
00000080: 44eb 223d f1da b2bd d786 8cbc 0368 c73d
00000090: c582 54bd 996e ebbd 46ac b13d 3fd6 a43d
000000a0: bb41 0dbc d2df a13d c88d 673c 258a c43a
000000b0: 2001 54bd d931 223e 4a18 60be 2828 763d
000000c0: 26ea d4bd 7c62 913c 46d0 e2be e8d9 c4bf
000000d0: 1aa3 ee3f c31f 183f 3ecb 2f3f 3174 b4bf
000000e0: 8265 3840 510a 9abe 7c3a 5e3e ffc7 e83e
000000f0: 2f09 eabc b7de 07bd a92c 4abd 8129 e4bd
00000100: c30b c3bd e79d b23d fcb8 943d 4b06 dfbd
00000110: 6793 623e fb4b abbe cf6a 893d a8ac 16be
00000120: 4b88 653d 9001 a43d bdb5 c2bc 320c 9b3d
00000130: 0317 b6bd 619a 333d 902a 363d 3fd1 aebd
00000140: 1074 1fbe 8268 de3d c963 a7bd f084 873e
00000150: 0b07 10be 6180 6c3f 4f1d 2ac0 305e 35be
00000160: 3d59 06be a360 2ebe 49d8 e1bc 5965 d03d
00000170: 0ebf 193c 642c d7bd 0105 b53d 9598 e53d
00000180: 1790 8abd 8b89 4b3e 956e 58be 6769 99be
00000190: de7e c03d bbd0 ac3e cd19 fb3d 4580 26bd
000001a0: 2a0a fa3d da63 173b 84c1 2b3e 7223 ca3c
000001b0: c965 ab3d df3f 7bbc 535d fb3b b610 1f3e
000001c0: 88bf 81bd bfaf 28be 2543 4dbe 8615 5dbe
000001d0: 2499 663d 36b4 c5bd 57e6 a23d 5428 c13c
000001e0: 63e5 19bd 6b28 8fbd 8de0 0c3e 5f8a 213e
000001f0: 426b 2e3d 3ebf d03a 8d4d 72be 15b2 65be
00000200: a352 983d fed7 ed3d c493 18be 17a2 45bc
00000210: ab78 26bd 73ea 403d 879c c13d e1cd ddbd
00000220: d451 e13b b132 573c 5d20 8e3d ed9b bbbb
00000230: 9b89 343e 8d0e 1cbe e564 043d 828b f8bd
00000240: 7af0 83bd a170 21be 2ecc 66bd a48e 3abd
00000250: a703 ea3c 46c9 8cbd 71e3 41bd d623 ef3d
00000260: f682 ae3c 3a20 10bd 412e 483e 0da2 06be
00000270: f8dc 95bd a070 843e 4b42 11bd 468c 2cbe
00000280: 365b c33c 0ca6 95bd 5008 d5bd 340f 563e
00000290: 2094 8ebd 0722 0dbe 9735 ba3e 930f 2a3f
000002a0: aafd 103f e29f e33d b2e7 c03e 08ef 7fbe
000002b0: 5357 71bd adcd 72be a064 5ebe ab81 283d
000002c0: c3d3 a9bd 7c58 e7bd 4068 3cbe 2141 183f
000002d0: bab6 43bd b99c 3b3d 7055 e2bd cc05 3b3c
000002e0: 99a1 c33d fa96 65bc 1394 7bbd f50d 8c3d
000002f0: 159c 58bd 9e61 1bbe 483d 32bc 3b84 00bc
00000300: f599 b7bc 1871 e33b 07d6 5ebc ce35 6b3c
00000310: 5cf1 8dbc 7d22 4d3d c138 d93c db1f 16be
00000320: 2fbe f8bc b0f5 603d 5d06 d73d e683 523d
00000330: f8bf ccbc 37d5 39bd c04d d73d e485 043e
00000340: fe38 f2bb 6623 113e 6f45 21be 79a7 363d
00000350: 25d1 21be 36dd 183d 6f23 023e f2eb 8abd
00000360: 442b 7d3c 2b0e 403f 3738 dcbc a97e 033e
00000370: 4b24 643e 687d 70be 73a3 c5be 4626 963d
00000380: dd1e afbb e493 a3bd d0da 54bd f542 d03d
00000390: d937 efbd 54b2 a93d e59c d5bd 34ce 053e
000003a0: 57a4 553e 7b01 e13c be2c 243c fe6d 0d3e
000003b0: 1d2e 183e 2cda 67bb 668f f1bd 30c3 7c3d
000003c0: 887a f2bd 2b01 103f 02d6 963e 8b54 7ebe
000003d0: 5044 80bc 9afa 763e 414f 973e 3fbf f73e
000003e0: 00c0 a63e a262 88be beea a73c b3bc 94bc
000003f0: 9ac5 613d c7bc 23be a3b4 1fbf 0aab a83b
0.06561756 0.09300468 0.03326293 0.0019351937 0.0028040812 0.005333268 0.21379845 -0.080357164
-0.22149903 -0.1529077 -0.0033245934 -0.23551118 -0.04472875 0.024990322 0.2749794 -0.05286241
-0.12808931 0.013999646 0.060855903 0.026928311 0.17382945 0.08178836 0.034095928 0.098149434
0.02058479 -0.08475069 0.03272186 0.12943593 0.025685892 0.19553536 -0.05461823 0.03527625
0.039775148 -0.08733166 -0.01715414 0.097366355 -0.051882524 -0.11495704 0.08675437 0.08048677
-0.008621628 0.079040185 0.014132924 0.0014994784 -0.051758885 0.15839328 -0.21884266 0.06009689
-0.10396223 0.017747156 -0.44299525 -1.5379 1.8643525 0.59423465 0.686695 -1.4097959
2.8811955 -0.30085996 0.21701998 0.45465085 -0.028568832 -0.03317138 -0.049358997 -0.11140729
-0.09523728 0.08721524 0.072618455 -0.10889872 0.22126542 -0.33456406 0.06709825 -0.147143
0.056038182 0.080081105 -0.0237683 0.075706854 -0.08891108 0.0438484 0.044474185 -0.08536004
-0.15571618 0.10859777 -0.081733294 0.2646861 -0.14065187 0.9238339 -2.6580389 -0.17711711
-0.13119979 -0.17029051 -0.027568953 0.101755805 0.00938393 -0.10506514 0.08838845 0.11210743
-0.06765764 0.19876687 -0.21135934 -0.29963228 0.09399198 0.33753 0.122607805 -0.04064967
0.1220897 0.0023100288 0.16773039 0.024675105 0.08369023 -0.015335052 0.007671037 0.15533718
-0.0633536 -0.16473292 -0.20045145 -0.21590242 0.05629839 -0.09653513 0.0795409 0.0235788
-0.037572276 -0.06990131 0.13757534 0.1577544 0.042582758 0.0015926135 -0.23662396 -0.22431214
0.07437637 0.11613463 -0.14900118 -0.012062571 -0.04064242 0.04709859 0.09453683 -0.10830284
0.0068762098 0.013134644 0.069397666 -0.005725375 0.17630617 -0.15239926 0.032322783 -0.12135984
-0.06442352 -0.15765621 -0.056347065 -0.04554619 0.028566195 -0.06874327 -0.047336046 0.11676757
0.021302681 -0.035186984 0.19548894 -0.13147755 -0.07317537 0.25867176 -0.035463613 -0.16850385
0.023847204 -0.073070616 -0.10401976 0.20904237 -0.06961846 -0.13782512 0.3636901 0.66430014
0.5663706 0.111144796 0.3767677 -0.24993527 -0.05892117 -0.23711272 -0.21718073 0.041139286
-0.082923435 -0.11296174 -0.18399143 0.5947438 -0.047781684 0.04580376 -0.11051452 0.011414956
0.09552307 -0.014013046 -0.06142051 0.068385996 -0.052883226 -0.15173957 -0.010878868 -0.007844026
-0.02241228 0.006940972 -0.013600833 0.01435609 -0.017327003 0.05008172 0.02651632 -0.1466059
-0.030364124 0.054921806 0.104992606 0.05139532 -0.024993882 -0.045369353 0.105128765 0.129417
-0.007392048 0.1417366 -0.15749143 0.044593308 -0.15802439 0.03732034 0.1270883 -0.06783284
0.01545221 0.7502162 -0.026882274 0.12841286 0.2227947 -0.23485339 -0.38601264 0.07331519
-0.0053442554 -0.07987192 -0.05196649 0.10169021 -0.11680574 0.082859665 -0.10430316 0.13066941
0.20863472 0.027466526 0.010020433 0.1381149 0.14861341 -0.0035377843 -0.11794929 0.061709583
-0.11839777 0.5625178 0.2946015 -0.24836938 -0.015657574 0.24119034 0.29552653 0.48388097
0.3256836 -0.2663775 0.020497676 -0.018156385 0.05512009 -0.15989982 -0.62385005 0.0051473426

weight_hh_l0 f4 [256, 64]
00000000: 80ea fd3d 134a 613f c231 123f ec8c ccbf
00000010: 4c47 423b 9a4b c43e 1515 d9be 1d37 483f
00000020: c56b 023e fd3b 533c 4d34 663e c3e6 193f
00000030: 5076 4ebe 8a84 613e f9ac 6c3e 04bf 2a3e
00000040: 7cc4 4dbe f80f a6bc 2451 04be f729 ba3e
00000050: 785c 38bf 0512 87be 9c66 763e ff6c c9be
00000060: e166 f63e 658d 5bbf 8620 38bf 6fd6 ad3d
00000070: 5443 7bbf 9e7c e3bd ace1 623e cc1f 7abe
00000080: 5aa6 f63e 7e54 e73e 83b6 c3be 41a0 90bf
00000090: 7f6f 3a3e 7b4e 663e 4b30 043d a94e 53be
000000a0: 9587 45be 7058 1dbe 76ac 8fbe cca4 8e3e
000000b0: 825f a4bf 94ab df3e 1b60 693e fad1 73bf
000000c0: 792a c73e b782 d1be 5158 fd3c 5404 0dbf
000000d0: 80ff fd3d b756 9a3e 738c 9d3d 72b6 51bf
000000e0: a4b5 343d e708 ab3e 2db2 5ebe c7cf 133f
000000f0: 4154 ea3d 6b5a 443f 4c88 1dbf 50e1 95be
00000100: 80b5 803e 90e9 e13e da7e 9fbe b025 8bbd
00000110: de8a 033e 6b5f 323e 5cc5 d03e 0d25 c63e
00000120: 8b31 073e 9d5b ff3d 58cd 1cbe 6f69 40be
00000130: f947 f8bd 153d 82bd 666a 82be 392d 093f
00000140: 6680 efbd 430b 67bd 2428 71be 030f 913e
00000150: 4502 103e 336e 67be 4e0d a5be 38ed 8bbd
00000160: 0d71 a93d ff57 56bf a403 2c3d 0cf4 03bd
00000170: 5be8 d73d 90a3 603e e59d bebe 3ba7 eb3d
00000180: 2a39 093e 3887 11be 54e0 19be d396 463c
00000190: fca3 a0be 6575 1f3d 5a40 923e 3682 2c3f
000001a0: 2ba1 84be bb5c 3b3f 00d4 b43d bf45 bc3e
000001b0: 75e2 63bd e9c1 993c 1947 473f 9f44 7dbe
000001c0: 4b7e 4f3e 4df9 59bf f3fa 2b3e 383f 043f
000001d0: e28c 0dbe 7eb4 b83e 04a5 adbd 0a16 0bbe
000001e0: c4a1 87be a409 2abc ba9d 57bf 15a6 043e
000001f0: 69a9 06be 30b0 ce3e 2e51 aa3b f355 1ebf
00000200: 4cce 0d3e 9051 13be 18bb eebd d6e0 b23e
00000210: 45b4 173f 82d0 46bd 9c90 203f 8872 de3d
00000220: 9ce7 d43e 2ebf 6b3a 77b9 44be 83a6 753e
00000230: 0239 8cbe 1ab0 18bd 96b5 17bf bd91 6fbe
00000240: 9165 d5be 432e 3a3e 909f da3d 158c fe3b
00000250: 56ad 15be 91d7 27bf 0b98 99bd 6d16 443f
00000260: 3404 3c3e 1789 59bf 8b66 a1be 89c7 06be
00000270: 18dc 3ebd 7cca 86bd 29c6 813e 0078 6bbd
00000280: 6aee 98bd 9099 59bd e8c3 8abe 4263 9bbd
00000290: ae6f 963e 41d3 f3bc c360 93be cbe9 aa3e
000002a0: 682a 1abf 6a10 853d 25f8 edbe 6fda 2abe
000002b0: 07d3 34bf 8ec0 863e a046 92be 2e87 2dbe
000002c0: 300a d03e e461 dcbd 8184 6ebe 99a3 92bd
000002d0: 97fc b2be 0a1e 213e 402e ce3d e062 23bd
000002e0: 8fb5 6cbe 4584 88be dc8c 55be def2 393f
000002f0: c3ed 96be a54d ce3e 393d 8cbe 19fc f43d
00000300: 6b04 d8be 5503 29bd f2b0 343e 5b85 1240
00000310: 7e2e de3d 015d da3e 9099 0ac0 038e afbf
00000320: b337 babf 5e8f 90be bb7c 55bf 0029 b9be
00000330: 13ea 25bf 80a5 753e 00b6 a9bf 3ef8 a03e
00000340: 90fb 1dbf 1ca8 17bf b2d4 9d3f 932d 57be
00000350: ccc5 213e de58 f1be 1375 c63e 2d5d a43e
00000360: 2613 abbe cb5f 07c0 c441 253f f689 aa3f
00000370: ebc6 3640 cbf8 e0be 69dd 90bf af52 d9bf
00000380: ba81 91bf 2797 94be 1027 25bf d14f b03e
00000390: 412d 063e 88b0 f63d 6c60 02bd e730 0c3e
000003a0: 7873 033f 860c b9be aa86 103f b391 6a3f
000003b0: 697d 263f 9860 afbe d882 963f 8178 1dc0
000003c0: c3c0 873f 75eb 733f 64c2 ccbe f175 983e
000003d0: 1227 04bf e2c4 13bf 7388 0b3f 81f4 8dbe
000003e0: 6c9f 1c3f 9ac4 b4bf 6f6f 53bd 3444 8240
000003f0: 7f1e bbbe 1730 07be 0d61 bf3e 1809 b23e
0.12398243 0.88003653 0.57107174 -1.5980506 0.0029644547 0.3833893 -0.42398897 0.78209096
0.12736423 0.01289272 0.22480889 0.6011774 -0.2016232 0.22023216 0.23112859 0.16674429
-0.20094484 -0.020271286 -0.12921578 0.36360142 -0.72016096 -0.26380935 0.2406258 -0.3934097
0.48125365 -0.85762626 -0.71924627 0.084881656 -0.9814961 -0.11107753 0.221564 -0.24426192
0.4817379 0.4518165 -0.38225183 -1.1298906 0.18206595 0.22490875 0.03227262 -0.20635475
-0.19290002 -0.15365767 -0.28061265 0.27860105 -1.2841647 0.4368559 0.22790568 -0.95242274
0.38899592 -0.4092004 0.030925902 -0.5508473 0.124022484 0.30144283 0.07692804 -0.81919014
0.04411854 0.3340523 -0.21747656 0.5773892 0.114418514 0.76700467 -0.615361 -0.29273462
0.25138474 0.44123507 -0.31151468 -0.06794298 0.12845942 0.17419212 0.40775573 0.38700143
0.13202493 0.12468646 -0.15312707 -0.1879022 -0.12123103 -0.06359307 -0.254718 0.5358463
-0.11694412 -0.056407224 -0.23550469 0.28331766 0.14063366 -0.22600631 -0.32236713 -0.06832355
0.08273516 -0.8372802 0.04199566 -0.032215163 0.10542365 0.21937394 -0.3722984 0.11506506
0.13400713 -0.14211738 -0.1502698 0.01212092 -0.3137511 0.038930316 0.2856472 0.67386186
-0.2590421 0.7318837 0.08829498 0.36771962 -0.055635888 0.018769221 0.7784286 -0.24733208
0.2026302 -0.8514603 0.16794948 0.51658964 -0.13823274 0.36075205 -0.0847874 -0.13582626
-0.26490605 -0.010378275 -0.84225047 0.1295398 -0.13150562 0.40368795 0.0051976657 -0.618499
0.13848227 -0.14386582 -0.11656779 0.3493716 0.59259444 -0.048538692 0.62720656 0.10861689
0.41582954 0.00089930266 -0.19211374 0.239893 -0.27387244 -0.03727732 -0.59261453 -0.23395438
-0.41679052 0.1818171 0.106749654 0.007768164 -0.14616904 -0.65563303 -0.07499703 0.7659672
0.18360978 -0.8497481 -0.31523547 -0.13162054 -0.046596617 -0.065815896 0.25346497 -0.057487488
-0.07467349 -0.053124964 -0.2710259 -0.07587291 0.2938208 -0.02976382 -0.2878476 0.33381495
-0.60220957 0.06497271 -0.46478382 -0.16684888 -0.706345 0.26318783 -0.28569508 -0.16946098
0.40632772 -0.10760859 -0.23292734 -0.0716011 -0.34958336 0.15734115 0.10067415 -0.039889216
-0.23116134 -0.26663414 -0.20854515 0.7263621 -0.29478273 0.40293613 -0.2739046 0.11962146
-0.4219087 -0.041262943 0.17645624 2.2893894 0.108487114 0.4264908 -2.1656227 -1.3715214
-1.4548248 -0.2823438 -0.8339345 -0.36164093 -0.64810294 0.23988914 -1.3258667 0.31439394
-0.6171198 -0.5924089 1.2330534 -0.21013479 0.1579811 -0.47138113 0.38761196 0.32102337
-0.33413047 -2.1152217 0.64553475 1.3323352 2.855891 -0.43939814 -1.1317569 -1.6978358
-1.1367714 -0.2902157 -0.6451273 0.34435895 0.131032 0.120453894 -0.031830236 0.1369053
0.51348066 -0.36142367 0.5645548 0.9162857 0.6503511 -0.34253383 1.175868 -2.46048
1.0605701 0.95281154 -0.39992058 0.29777482 -0.51622117 -0.57722294 0.5450508 -0.27725604
0.6118076 -1.4122498 -0.051619943 4.0708256 -0.36546704 -0.13201939 0.3737873 0.34772563

bias_ih_l0 f4 [256]
00000000: 9c58 88bf 2089 4fbf 1a1a 82bf 8b78 3fbf
00000010: 2cbc 54bf d4a2 323f 14cf 6dbf 32c6 cabf
00000020: 309a 72bf 07d8 83bf 4769 3abf c20e 9ebd
00000030: 7eed 5dbf f40a 6fbf 57cf 8fbf b753 86bf
00000040: cf94 c8bf 6cde 653f 210a 9abf c433 42bf
00000050: 04dd 98bf 9670 e5be 4318 adbf 1cf6 b4bf
00000060: dc18 6dbf 984a 08c0 6b57 5fbf f832 b3bf
00000070: 254e d1bf 429d 6dbf f88f 69bf 609e c9bf
00000080: 6df0 babf e47b 45bf 443e d7bf 7fe4 a8bf
00000090: 6666 3abf 086d 65bf e1b5 71bf 3181 2bbf
000000a0: b118 bbbf 74e3 50bf bc04 97bf d4a9 53bf
000000b0: 600d 8bbf 13ed 25bf ffe4 dbbf e5e9 80bf
000000c0: 5e64 13bf 3f95 b5bf 21ab 78bf ee18 a4bf
000000d0: d573 7bbf 2519 89bf 3bc4 46bf 72b8 57bf
000000e0: 12bd 40bf 812d 87bf 68f4 debf d2be 0ec0
000000f0: e51e aabf 4178 5dbf ca27 66bf 1a08 7fbf
00000100: 6ae4 4840 56c2 2440 4a40 1140 be22 10c0
00000110: ae98 693f c08c 1fc0 b295 1f3f 09b3 743f
00000120: e790 bf3f 305e 3840 bf2b 3240 f249 06bf
00000130: 14cf 2340 0d76 3340 5a7f 85bf e050 2b40
00000140: 1a57 46bf 3c80 7fbf 5774 823f bde8 5240
00000150: e6bf 8ebe c5b7 353e c3cc 87bf bf62 bf3f
00000160: acec f33f 16dd b93f bbb6 153f 9879 803e
00000170: b992 02c0 eb0c 1d40 72aa 2740 3580 07c0
00000180: 764c 8bbf d560 c03f 4560 6abf bf57 e2bf
00000190: 1287 0f40 e9b5 f43f 7b9e 2640 f2ba 0140
000001a0: 4b86 17c0 baaf 2b40 d146 0a3f ac76 0940
000001b0: a0c2 b03e 65a4 1940 3d0f 44bd d231 823f
000001c0: c1a4 febf 867d 6e3e f5b1 2d40 e906 c13f
000001d0: 5366 2440 0bb0 1740 f6de 1640 d142 1540
000001e0: 74c4 913f 89db 6fbe 0f48 eebe 3a0b f8bf
000001f0: ebe1 e0bf 14ed 5340 cc3d 0ec0 e1dc 0240
00000200: a90a b8bd f952 27be 6f4b 98bd aa49 713e
00000210: 0677 2fbe be7d 84bf 79e4 39be 5e29 e9bd
00000220: 479e 9bbd 25f3 22bc bc5c 3bbd 4501 9fbe
00000230: 3b15 6a3d b6d7 e6bd 0c38 08be c5d1 513e
00000240: 5e13 afbe a7e3 7b3f 278f 2abe 423e e2bd
00000250: 7ff5 e1be a48c 3ebe 3cbc 093f d477 a03d
00000260: e001 7c3e 98d1 9bbe b365 9bbc b1b4 cfbd
00000270: 481f cbbe f5bc bbbc 7db6 1bbe 55a1 203f
00000280: 3e7d b13b 4ce5 b4bd aa44 71bd 0891 6abe
00000290: c7d3 18be 8b53 483d 6fda 88bd e8a7 38be
000002a0: 5b57 55bf 0c57 b4bc f596 f2be a87a 08bd
000002b0: ec11 ed3d 4ea7 203e ba47 293f b8da 0bbe
000002c0: fc64 acbf 16b4 0a3d b5f4 80be 350c e93d
000002d0: 7a34 103e ce26 9fbd 88be 163e 98bc 6d3e
000002e0: 02eb 4e3c 8f4e 6bbe c7c7 bb3d 696f c13b
000002f0: 5fa0 e23e e872 7c3d 1d30 bfbe 0010 243e
00000300: d790 0740 05a1 4640 74b5 0c40 910f 5fbf
00000310: 199a f13f d625 653f 37f5 903f dbc8 f63f
00000320: e71f ca3f f808 3240 9b23 3540 6d7e a2bf
00000330: 847b 1b40 4be8 4540 772e a03f 5e55 1a40
00000340: 7457 cc3d 9f69 29bf d02c 0040 b945 2d40
00000350: f782 69bf cb7d cc3c 4814 d03f 0815 0440
00000360: 3670 0140 3388 ab3e 4a24 99bf ef66 8a3e
00000370: 4212 d73e e250 3440 f238 1340 f172 72bf
00000380: 8645 323f 91ca fd3f 4286 b23f d5ee ecbe
00000390: 009d 1d40 0c89 0d40 77df 2440 4f0d 0b40
000003a0: 0bbe b4be 99d4 3240 bae8 c3bd 768a 1440
000003b0: fe88 d2be e5a3 0340 8ad3 433f d7a1 0540
000003c0: 251e 133f 8c78 ee3f 0f23 1740 2de6 4440
000003d0: 7456 2640 def2 1a40 a28b 1540 c3c8 2440
000003e0: 5e4e b23f 912d ab3f c316 bc3f f17f a6bf
000003f0: 4027 213e b7ae 2b40 24ed 63bf d5de e93f
-1.0652041 -0.8106861 -1.0164216 -0.7479331 -0.8309963 0.69779706 -0.928941 -1.5841734
-0.9476652 -1.0300301 -0.7281689 -0.077176586 -0.8669051 -0.9337609 -1.123515 -1.0494298
-1.5670413 0.89792514 -1.2034341 -0.7586024 -1.1942449 -0.4481246 -1.3523029 -1.4137607
-0.9261606 -2.1295528 -0.87242764 -1.399993 -1.6351973 -0.9281808 -0.91235304 -1.5751457
-1.4604622 -0.7714217 -1.6815877 -1.3194731 -0.728125 -0.89619493 -0.9441815 -0.66994005
-1.461691 -0.81597066 -1.179832 -0.8268101 -1.0863457 -0.6481487 -1.7179259 -1.0071379
-0.57575023 -1.4186171 -0.9713612 -1.2820108 -0.9822362 -1.0710799 -0.77643174 -0.84265816
-0.752885 -1.0560762 -1.7418337 -2.2303967 -1.3290678 -0.8651162 -0.89904463 -0.99621737
3.1389413 2.5743613 2.269549 -2.2521205 0.91248596 -2.4929657 0.6233779 0.95585686
1.4966096 2.8807487 2.78392 -0.5245658 2.559514 2.8040802 -1.042949 2.6768112
-0.77476656 -0.99805045 1.0191754 3.2954552 -0.27880782 0.17745884 -1.0609363 1.495201
1.9056602 1.4520595 0.5848195 0.2509277 -2.0402052 2.4539135 2.6197782 -2.1172001
-1.0882709 1.5029551 -0.91553146 -1.7683028 2.242619 1.9118015 2.6034229 2.0270352
-2.3675716 2.6826005 0.5401431 2.1478682 0.34523487 2.4006588 -0.047866095 1.0171454
-1.9894029 0.23290071 2.7139866 1.5080234 2.5687454 2.3701198 2.3573585 2.3322031
1.1388078 -0.2342359 -0.4653935 -1.9378426 -1.7568945 3.311345 -2.2225218 2.0447314
-0.08986408 -0.16340245 -0.07436263 0.23563257 -0.17135248 -1.0350873 -0.18153562 -0.11384843
-0.075985484 -0.0099456655 -0.045742735 -0.31055656 0.057149153 -0.11271612 -0.1330263 0.20490177
-0.34194463 0.98394245 -0.16656171 -0.11047031 -0.4413261 -0.18608338 0.5380285 0.078353554
0.2461009 -0.30433345 -0.018969392 -0.10141886 -0.39672303 -0.02291725 -0.15206333 0.62746173
0.0054165414 -0.088327974 -0.058903374 -0.22906888 -0.14924537 0.048907798 -0.06682288 -0.18032801
-0.8333642 -0.022014163 -0.47380796 -0.0333201 0.11575684 0.15688822 0.6612507 -0.13657653
-1.3468318 0.03386315 -0.25186697 0.113792814 0.14082518 -0.07771073 0.1472112 0.23216474
0.012629272 -0.22979186 0.09168964 0.0059031737 0.44262978 0.06163302 -0.37341395 0.16021729
2.1182153 3.1035779 2.198575 -0.8713313 1.8875152 0.8951086 1.1324834 1.9280046
1.5790986 2.7817974 2.8302982 -1.2694832 2.4294138 3.092303 1.251418 2.4114604
0.09977618 -0.6617679 2.0027351 2.7073805 -0.9121546 0.024962327 1.6256189 2.0637836
2.0224738 0.3350235 -1.19642 0.27031657 0.42006117 2.8174367 2.3003507 -0.94706637
0.69637334 1.9827443 1.3947222 -0.46275964 2.4627075 2.2114897 2.5761392 2.1726873
-0.3530124 2.794226 -0.095658734 2.320951 -0.41120142 2.0568783 0.7649466 2.088003
0.5746787 1.8630538 2.3615148 3.0765488 2.5990267 2.4210734 2.3366475 2.5747535
1.3930166 1.3373281 1.4694446 -1.3007795 0.15737629 2.6825387 -0.8903372 1.8271128

bias_hh_l0 f4 [256]
00000000: d258 88bf b0d3 45bf ddff 5cbf e6d8 3ebf
00000010: aa15 21bf ed72 373f 93c9 78bf 3e23 dbbf
00000020: b4d4 83bf c4ca 8abf 241b 49bf 3b8e 153e
00000030: 2621 48bf 8a46 3bbf 9a01 9fbf 8b49 9ebf
00000040: 6454 bcbf 0701 543f 7ab9 7fbf bacc 60bf
00000050: 9595 99bf 92da ddbe 4ceb afbf c4ee b0bf
00000060: 032a 8abf 4d04 03c0 402f 37bf cbb5 afbf
00000070: ffc9 ccbf 04eb 87bf e1ca 78bf 7740 d3bf
00000080: 9223 c1bf 943e 57bf 8105 eabf 8cb9 b3bf
00000090: 6325 2ebf 6aca 52bf 2c51 85bf c0ad 27bf
000000a0: 405f cdbf 0d07 51bf 1117 9ebf c0e4 3ebf
000000b0: 8191 a1bf bc18 16bf 1f9d f5bf 27a3 77bf
000000c0: 4048 d5be 7835 a5bf 3b10 82bf d477 97bf
000000d0: c404 70bf 6781 85bf c61a 69bf 255d 3cbf
000000e0: a0bb 2dbf a4a5 91bf c530 ebbf e103 06c0
000000f0: 90a4 b0bf 447a 52bf 8cd6 30bf fa33 86bf
00000100: f198 4d40 28fb 1e40 950e 0940 b92c 14c0
00000110: f05c 703f 0c25 19c0 4609 313f 9fe8 803f
00000120: ca84 be3f 4d3b 3540 fb53 3b40 fd20 11bf
00000130: db4a 1840 978b 2a40 2cec 63bf 1ac1 2640
00000140: 6bd9 48bf 8783 5ebf 16a6 883f 5577 5540
00000150: 5a87 a4be 256c 1e3e 3b38 85bf 942a b13f
00000160: 822a df3f 4338 bd3f 7521 243f 6800 c63e
00000170: 885c 05c0 6524 1d40 4740 2640 c520 06c0
00000180: a9e4 7dbf e0d9 ab3f d2c0 70bf e72c d5bf
00000190: 8b0c 0f40 799d ec3f ca7d 2b40 3cbc ef3f
000001a0: 313b 14c0 1ebd 2240 3965 043f 31e3 0840
000001b0: bc76 503e f5d3 1d40 7794 46bd 8266 6e3f
000001c0: 9df5 f0bf c34c 873d 4cbf 3640 a6e4 c73f
000001d0: c499 2440 019e 2240 d622 2240 e1ae 2140
000001e0: efee 893f 6ecb ecbd f90f cfbe c8b3 f0bf
000001f0: a6d1 e1bf e7ad 4840 0661 1ac0 7cc9 fe3f
00000200: e3cb 67bd 5675 3ebd 084c 32be 4382 863e
00000210: 4fcf 89bd 572b 5abf bd0b aebb e96e 84bd
00000220: 6acd 003d 355b 033e 5505 dbbd 3992 bfbe
00000230: 05e1 a1bd 9f5b a03b be99 36be 601c ac3e
00000240: 32ca fabe 2820 743f 49a1 75bc 0353 57be
00000250: fd75 03bf 1ad5 e3ba 9c89 3b3f 9f15 39bd
00000260: 9d1f e33c acf2 99be f52d 373d 14e2 5a3c
00000270: a92e cabe bc11 40be 3197 b13c ffb1 223f
00000280: baf9 d3bc af22 e73d ece2 b5bd 325d b0be
00000290: a3ca cd3c abd4 013e e517 e9bd c716 303d
000002a0: 608c 65bf c4b0 323c c917 cabe e563 32be
000002b0: 8dbb 193c 364c ea3d 8d2f 1b3f 39d2 93bc
000002c0: 1f98 aabf 3c83 3c3d 919a f2bd e322 353d
000002d0: bc96 903c 3eb7 22be b894 0b3e 422e d83d
000002e0: 1e17 32bd be43 13be edf8 693e c53a b13c
000002f0: 1906 593e c6cb 08be 446d b9be 6b72 673e
00000300: 7b12 0f40 ac3f 3c40 fe95 0140 4208 72bf
00000310: df69 f13f fb2c 313f 2c23 9c3f 9c5a f03f
00000320: b1a5 c03f b666 2840 0ee5 3e40 cb3f adbf
00000330: 1afb 1e40 20c6 4140 8f80 a43f 9eeb 1540
00000340: bc25 b43d cfb7 18bf fd7a 0340 bbc4 3a40
00000350: 0692 47bf 518a 143e c913 e03f 5eb2 0740
00000360: 5ea0 f13f ad86 8e3e 79f1 aabf 5f9b 613e
00000370: 3cdc ac3e 5698 2e40 888a 1540 9e5d 7ebf
00000380: 67ef 143f 2007 fd3f 61e7 c13f 2a6b 22bf
00000390: 82e3 2240 ffb8 0a40 586b 2c40 3470 0740
000003a0: 0654 bcbe 18ff 3a40 a85f a4bd a136 0e40
000003b0: f1e8 0cbf 4c2e 0e40 f639 3a3f 7c6d 0840
000003c0: 49df 123f 5f55 d33f 0c49 1840 153f 3840
000003d0: fa57 2440 adb7 2340 5333 0f40 34d6 1740
000003e0: 3289 ce3f 2347 b43f 3661 b93f a039 b1bf
000003f0: 9ed5 8e3e 1bee 3740 8bc2 53bf e2c5 dc3f
-1.0652106 -0.77276134 -0.86327916 -0.7454971 -0.6292368 0.7165974 -0.9718258 -1.712013
-1.0299287 -1.0843129 -0.7855704 0.14605038 -0.7817558 -0.7315451 -1.2422364 -1.2366194
-1.4713254 0.8281407 -0.9989239 -0.8781239 -1.1998774 -0.43330818 -1.3743682 -1.3822865
-1.0794071 -2.0471375 -0.7155647 -1.3727354 -1.5999144 -1.0618596 -0.9718457 -1.6504048
-1.508898 -0.8407986 -1.828293 -1.4041 -0.680258 -0.8234011 -1.0415397 -0.65499496
-1.6044693 -0.81651384 -1.2350789 -0.74567795 -1.2622529 -0.5863149 -1.9188575 -0.96733326
-0.41656685 -1.2906942 -1.0161203 -1.1833444 -0.9375727 -1.0430115 -0.9105648 -0.7357963
-0.6786442 -1.1378675 -1.8374258 -2.0939867 -1.380022 -0.8221781 -0.6907737 -1.0484612
3.2124598 2.4840794 2.141515 -2.3152297 0.9389181 -2.3928862 0.69154775 1.007099
1.4884274 2.8317444 2.9270008 -0.5669096 2.3795688 2.66477 -0.89032245 2.605536
-0.78456753 -0.86919445 1.0675685 3.3354084 -0.32134515 0.15470941 -1.0407785 1.3841119
1.7434847 1.4782795 0.6411355 0.38672185 -2.0837727 2.4553463 2.5976732 -2.09575
-0.9917703 1.3425865 -0.9404422 -1.6654328 2.2351406 1.8485557 2.6795526 1.872932
-2.3161128 2.5427928 0.51716954 2.1388667 0.20357794 2.4660618 -0.04848143 0.93125165
-1.8824955 0.06606438 2.8554258 1.5616653 2.571885 2.5408938 2.5333762 2.5262988
1.0776042 -0.11562239 -0.40441874 -1.8804865 -1.7642105 3.1356142 -2.4121718 1.9905238
-0.056590926 -0.04649862 -0.17411816 0.26271257 -0.06728994 -0.8522238 -0.005311458 -0.06466467
0.031445898 0.12827761 -0.106943764 -0.37416247 -0.07904247 0.0048937346 -0.17832085 0.33615398
-0.48982388 0.95361567 -0.014992067 -0.2102776 -0.5135191 -0.0017382235 0.7325685 -0.045186635
0.027725035 -0.30067956 0.044721562 0.013359565 -0.39488724 -0.18756765 0.021678539 0.6355285
-0.025875915 0.11285912 -0.088811725 -0.34446102 0.025121039 0.12678783 -0.11381511 0.042990472
-0.8966732 0.010906402 -0.39471272 -0.17420919 0.0093830945 0.11440317 0.6061943 -0.018044578
-1.3327674 0.046023592 -0.118458875 0.044222724 0.01765 -0.15890214 0.1363095 0.10555698
-0.043479078 -0.1438131 0.22848864 0.021634469 0.21193732 -0.13358983 -0.36216176 0.2260224
2.235503 2.9413862 2.0247798 -0.9454385 1.8860434 0.6920926 1.2198234 1.8777652
1.5050565 2.631269 2.9827304 -1.3535093 2.484076 3.0277176 1.2851733 2.342506
0.0879626 -0.5965547 2.0543816 2.9182575 -0.7795719 0.14505889 1.7506038 2.1202617
1.8877065 0.27837124 -1.3354942 0.22031926 0.33761775 2.7280478 2.3365803 -0.993616
0.581778 1.9767799 1.5148736 -0.6344477 2.545136 2.1675413 2.6940517 2.1162233
-0.36782855 2.9218197 -0.080260575 2.2220843 -0.5504294 2.2215757 0.7274469 2.1316824
0.57371956 1.6510428 2.3794584 2.8788502 2.5678697 2.5580857 2.2375076 2.372449
1.6135619 1.4084209 1.4482791 -1.3845711 0.27897352 2.8739078 -0.82718724 1.7247889

weight_ih_l1 f4 [256, 64]
00000000: c095 d6be 0e2f aabd b55b 9cbe 2781 25bd
00000010: d5b1 103e 77e2 383e 6416 523e 0da1 dcbe
00000020: af26 3ebe d845 8b3e 6e5f 993e 9a47 973d
00000030: 9498 e6be bce4 813d ac80 733f 88e6 eebd
00000040: 6a29 95bd 18c9 2fbe f38c 183f 8981 d2bd
00000050: b1cf cd3e e24b 4c3e 4866 33bf 4b71 f23e
00000060: 846f 3abe 52c7 313f bde9 473e 9ae0 4c3e
00000070: f931 043f 8ef7 b93e 87a1 9e3e 0595 0a3e
00000080: 06c0 c1bd 404e bdbe 4f50 963e 8c78 c6bd
00000090: a723 42be a06d 20bf 0994 d43d bd41 773e
000000a0: 63a5 b63e 055d 38be dfd5 2d3f ee2a b33e
000000b0: 4c54 763e 58a9 08be 6f30 f1be 6c1a 44bd
000000c0: 0bd6 be3e 1323 cc3e 0372 033f 264f a4bd
000000d0: 649c 3d3c 32d7 98be 3c0b fc3c b58f e23c
000000e0: d895 efbd b020 0f3f 1ddd 3bbf 4a15 813e
000000f0: 12e0 043e dffb 0e3e 2cce 7e3e 5570 b8be
00000100: 8e7a 13be 2b2d b6be 4147 a93e 8be6 b63f
00000110: 62d4 fbbe 5f79 24bf 48d0 71bf 489f 1bbf
00000120: ceec ab3e 6e9a 093e ca1a 28bf 1a11 80bf
00000130: 3a75 1cbf 95d3 9d3c 3044 e43f 6cfd 17bf
00000140: 90f1 383f c387 ac3f 9608 8dbe f512 873e
00000150: db87 37bf 134e 503e b482 09be d1d4 2dbf
00000160: 3000 873e 744c 083f d5d1 14bf 4860 17bf
00000170: 18a4 203d 533e f5be dab2 103e 2e32 b33f
00000180: 0ba7 943f 32c6 dd3e f535 e3be 1654 29bf
00000190: b566 de3e 2cb6 fc3e 7d0e a23e b39b 8bbe
000001a0: 1572 b2bf 49c7 ea3c ab32 8fbe 7c43 273f
000001b0: fce9 5c3f 68c6 06bd eed0 813d 129c 223f
000001c0: dd6a 33bf 758a 1b3f 15b9 cbbb e20d 993f
000001d0: da71 01bc ac11 323f e4b3 76be e854 c33e
000001e0: d5c1 203f aef3 883e 0625 38bf 5cf6 c9be
000001f0: 4831 1dbf ae11 9fbc 03fc 41bf 8306 2ebe
00000200: 7836 67be 483e 57bd 5308 593e 2feb 12be
00000210: af01 313e 667e b43e 5a92 d13c 89be 5fbf
00000220: b787 cd3e 7fe1 ce3e 0de5 ebbe 2748 cb3e
00000230: 4a28 343d 713e d5be 9b97 8bbe fd7f dfbe
00000240: 62d1 883e d329 6fbe a38f a53e d374 94be
00000250: e205 d83e b9a7 8d3c c005 aa3e 5cd9 b33d
00000260: 547c 4bbe ccc5 e33e 6169 e2be 9e67 a43d
00000270: 98b8 2f3e 3e48 b03c 4b55 7a3e 90b6 5ebe
00000280: 710a 1c3d ee31 24bd 47a9 1fbe 56ab 9e3e
00000290: 9733 183f 0a35 46be 8745 9bbd b5f3 a4bd
000002a0: 92f7 e83e 32c8 d9bc 7670 223f c106 2bbe
000002b0: 6ea6 cd3e 1378 9fbe d7ad cfbe cc88 45be
000002c0: 6109 d03e c899 4d3d fc3f 653e e2e4 bb3d
000002d0: 97bb e8be 5066 71bd a773 26be 105e c2be
000002e0: ebad cc3d 8f01 9bbe bd99 05bf b26e f53e
000002f0: 0934 32be 8667 9bbe cb38 9b3e 6c7d 24be
00000300: de99 f5be f9b1 bcbd 00df bb3e 9ed3 5bbe
00000310: da7b 1f3e b383 563e 9d54 3cbe ade0 29bf
00000320: 79f6 0a3d fc5b af3e 36d9 17be 66e4 9e3e
00000330: dbd8 143e 897a a7be 25df 403d bc76 2dbe
00000340: 1991 c03d 25fc a3be 4174 d13e 7287 293c
00000350: d9d2 b03e 1658 db3c 4e1f 04be 21ee a93e
00000360: 9157 18bf 5d10 c93e 9786 f0bd f66b ab3d
00000370: 5307 e33e ebe0 f1bd 6c97 dc3d 6e19 9ebd
00000380: b247 c43d c834 88bc 20d2 fcbe 5925 5b3e
00000390: edaa dc3e 6210 03bd c01e ec3e bca6 5ebe
000003a0: f4e1 893e a0c2 0b3d 8a45 043f b374 c5bd
000003b0: a7c2 f23d 0101 2e3e 6f74 9abe bd7d 0bbf
000003c0: f420 d53e 64c7 40bd a3e8 433d 2335 c1be
000003d0: 01cb f2be 3709 87be b93b 913d 857a c2bd
000003e0: a385 d83e 32f1 a23f 614d a7be 7544 a53e
000003f0: 3502 6cbe 7a71 70bc 5e2b 973e cabc 093e
-0.41911125 -0.08309756 -0.30538717 -0.040406372 0.14130338 0.1805514 0.20516354 -0.43091622
-0.18569444 0.27201724 0.2995562 0.07386704 -0.45038283 0.06342456 0.9511821 -0.11665064
-0.0728329 -0.17166555 0.5959007 -0.10278613 0.40197518 0.19950822 -0.70077944 0.4735206
-0.18206602 0.69444764 0.19522758 0.20007554 0.5163875 0.36321682 0.3098261 0.13533409
-0.09460454 -0.36973763 0.29358146 -0.09690961 -0.18958913 -0.62667274 0.10379798 0.24146171
0.35673055 -0.18004234 0.67904466 0.3499369 0.24055594 -0.1334585 -0.47107264 -0.04787676
0.37272677 0.3987051 0.51345843 -0.08022909 0.011572931 -0.2985168 0.030767076 0.027656415
-0.11698502 0.5590925 -0.7338427 0.25211555 0.12976101 0.13963269 0.24883336 -0.36023203
-0.1440222 -0.35581335 0.33062175 1.4289106 -0.49185473 -0.642477 -0.94458437 -0.6078992
0.33579105 0.13437817 -0.65665877 -1.0005219 -0.61116374 0.01926593 1.7833309 -0.59371066
0.72243595 1.3478931 -0.27545613 0.2638165 -0.71691674 0.20342283 -0.13428766 -0.6790286
0.2636733 0.5324166 -0.5813268 -0.5913129 0.039218992 -0.47899112 0.14130726 1.3999689
1.1613477 0.43315274 -0.44377103 -0.6614393 0.43437734 0.49357736 0.3165168 -0.27267227
-1.3941065 0.02865948 -0.27968344 0.6533735 0.8629453 -0.03290406 0.06338678 0.63519394
-0.70084935 0.60758144 -0.006217132 1.1957362 -0.0079006795 0.69558215 -0.2409206 0.38150716
0.62795764 0.26748413 -0.71931493 -0.3944577 -0.6140332 -0.01941761 -0.75775164 -0.16994672
-0.22579372 -0.05254963 0.21194582 -0.14347528 0.17285798 0.35252684 0.025582481 -0.8740011
0.40142605 0.40406415 -0.4607319 0.39703485 0.043983735 -0.41649202 -0.27264103 -0.43652335
0.26722246 -0.23355798 0.3233615 -0.2899538 0.42191988 0.01729189 0.33207512 0.087816924
-0.19871646 0.44486845 -0.44221023 0.08027576 0.1716026 0.021518823 0.24446599 -0.2174933
0.038095895 -0.04008668 -0.15591918 0.30990094 0.5945372 -0.1935617 -0.07581621 -0.08054296
0.4550138 -0.026584718 0.6345285 -0.16701795 0.40166038 -0.31146297 -0.40562317 -0.19290465
0.40632156 0.050195485 0.2238769 0.09174515 -0.4545562 -0.058935463 -0.16255055 -0.3796239
0.0999411 -0.30274627 -0.5218771 0.47936016 -0.17402662 -0.3035242 0.30316767 -0.1606347
-0.47968954 -0.09213633 0.36693573 -0.21467444 0.1557459 0.20948677 -0.18391652 -0.66358453
0.03392646 0.34249866 -0.14828953 0.3103363 0.14535849 -0.32710674 0.047087807 -0.16939825
0.09402675 -0.3202831 0.40909007 0.010347234 0.34535864 0.026775401 -0.12902567 0.3318949
-0.59508616 0.39270297 -0.11744421 0.08370201 0.44341525 -0.11810478 0.10771069 -0.07719694
0.09583987 -0.01662673 -0.49379063 0.21400966 0.43099156 -0.031998046 0.4611721 -0.21743292
0.269302 0.034121156 0.5166861 -0.09641399 0.11853533 0.1699257 -0.30166957 -0.54488736
0.41626704 -0.047065154 0.04782928 -0.37735853 -0.47420505 -0.26374218 0.07091469 -0.09496025
0.42289457 1.2729857 -0.32676223 0.3227879 -0.23047717 -0.014675492 0.29525274 0.13450924

weight_hh_l1 f4 [256, 64]
00000000: a363 5ebf b864 9cbe a449 8cbe d3d7 eebd
00000010: 79c9 68bf f614 be3f c4d7 e13e 1a1c 9dbe
00000020: 6b02 1dbf 91bf e3be 313e 27be f4c4 3d3f
00000030: fb6c 7cbf 9099 093f addd 203e 6cbb b93a
00000040: b2ff 66be 1b35 713e fb53 0e3f 166f aebe
00000050: 88b8 58be 8ac8 39bf 104d 853e 32ad 6bbe
00000060: 5988 6c3e aafa 913c 5780 713e ad5b 06be
00000070: 6c65 123f 6a4b 123e fa89 473e ee11 0fbe
00000080: 42a1 d43f 507f 213f a3e2 313f 4c16 90bc
00000090: 366f 7f3f 5348 85be 803f 073f c926 a9be
000000a0: b994 96be 034e 793e de0b dbbc 70a9 153e
000000b0: 7305 17be c911 9fbe a6c6 773f 1c69 1ebf
000000c0: f9d3 6cbf 66ae 833e a8b8 66bd aba0 433c
000000d0: 759b 363f 568f b53f 3681 523e fa1c 58be
000000e0: ee4f fd3e 4deb 3dbe bb67 1f3f a772 3fbf
000000f0: 5d6e 023e 7525 793f 093d 6f3e 91c6 9ebe
00000100: 120e 41bf 2e31 e23e eb0a 473f 5f69 afbe
00000110: 17fb 91bf 6857 2140 9477 57bf f375 7bbe
00000120: 7c08 44bf 8109 aabe 9fdf 83bf 01c0 8e3f
00000130: 7307 32bf 9131 67bf 3872 c43c 3444 9a3e
00000140: 4c33 e53f aca3 563f 09a4 c03e f269 89bf
00000150: 8d6c b83f 8346 7640 de66 073e 1140 563e
00000160: 50fa 6b3f 21c0 1f3e a776 ddbe 355b 0dbf
00000170: e5a8 7a3e 6233 47bf 266b 853e d074 01c0
00000180: 4a73 c5bd 84c3 bb3e 098e ddbe a0ca 283f
00000190: 7f90 7abf 471e cfbd 25a6 2d3e a3a5 d43e
000001a0: bdbd 04bf 02ea 6c3e 4af8 503f 8d4b b33d
000001b0: 41fc 0d3f 4e44 9b3d 325d f9bd 29b5 3abe
000001c0: e63c 0ec0 3f3a f6bd 5aa7 20bf 0866 34be
000001d0: 24aa 71bf 1649 0cc0 ca30 b5bf 070e 3ebe
000001e0: 2531 d3be a6df b8be 9299 ffbe 2869 39be
000001f0: b516 79be 4e75 b1bf ff23 f83c 4403 8dbc
00000200: bbcc 103f eedb efbe d2d1 0b3f 7d24 d33c
00000210: 3c0f 49be 32fb 0b3f 55c8 78bf f527 073f
00000220: 112e 9abd 7017 bc3e b9c5 0f3e a1cf fc3e
00000230: f140 07be 5e43 f03e d8b2 f1bd 7582 1e3f
00000240: 518c d8be f4d8 acbe 9da4 a63e 0d26 7abf
00000250: a0b6 acbb e32d 113e 10ff c3be f0a9 00be
00000260: 92aa 94bc 89d2 533d e0fa 913e 734c 3cbe
00000270: c894 123e 309b 243e f4a8 f1bd a6dd fdbe
00000280: 6591 013f 833c 54bf 82a5 df3f c1fa 143f
00000290: 8e86 bd3e 9f77 103f a2b7 0f3f 2045 21be
000002a0: 2c62 6c3d 989e a3bd 6c5e 033e a745 333e
000002b0: 30d9 bf3c 55cd 32bf c85b 8b3f 9854 b3be
000002c0: 238c f1be bad3 ad3e 0435 73bd 8917 f13e
000002d0: 5355 d0be c95c 9e3d 33ce 5abe 7915 a1bc
000002e0: 0567 133d d381 283f bc9b 613f 67fe 7d3c
000002f0: ab61 ebbe 8cef 653f e4e8 713d 3443 e63d
00000300: 7128 053f 9a99 363d 3dbc 89bc 6194 703f
00000310: 7481 4ebf 4336 6f3f 26f8 e6be 1463 3dbc
00000320: 79c2 34bf 07b8 9d3e af82 923e 1448 633f
00000330: c928 05bf abe0 503f 8492 073f 86cb 4ebe
00000340: f7f8 7ebf 75c1 23bf c015 193d cd55 24bf
00000350: 7d61 febe a6c6 933e c88d 133e b214 75be
00000360: 368a bd3d f052 be3e 5957 26be 85ff 24be
00000370: cf15 8b3d c986 71be 9344 24bd fc17 80be
00000380: 91d7 963e 7d26 983e 6450 8c3f ce48 ed3e
00000390: 8146 003f 78a1 8e3e e5c9 953e 118f 863d
000003a0: 4ee1 aabe ef70 88be 0dda 36be 7c3e 1e3e
000003b0: 3240 3ebe 6b1f 25bf f0df 843f 11ce 81be
000003c0: 7efb 41bf e51a 373e 1434 ecbd 861f 5cbd
000003d0: d7dd e2be b97c b03e cd07 94bb 3b9f 153d
000003e0: c27b a73f 2e46 ad3e d90a 5e3d 22e6 f73c
000003f0: 2ab6 c73b 4ca8 1c3e eaff 76bc f21b 07be
-0.86870784 -0.30545592 -0.27399933 -0.11662259 -0.9093242 1.4850147 0.4410993 -0.30685502
-0.61331815 -0.4448209 -0.16332318 0.7412865 -0.9860379 0.5374994 0.15709563 0.0014170236
-0.22558478 0.23555414 0.55596894 -0.34069127 -0.21164143 -0.72571623 0.26035357 -0.23015288
0.23098888 0.017819721 0.23584114 -0.13120909 0.5718601 0.1428658 0.19486228 -0.13971683
1.6611712 0.6308489 0.69486445 -0.017588757 0.9977907 -0.26031741 0.5283127 -0.33037403
-0.2941034 0.24346165 -0.026739057 0.14615417 -0.14748172 -0.31068256 0.9678749 -0.61879134
-0.92510945 0.25718993 -0.056328446 0.011940162 0.7133096 1.4184368 0.20557103 -0.21104804
0.49475044 -0.18546791 0.62267655 -0.7478432 0.12737413 0.9732278 0.23363127 -0.3101087
-0.75412095 0.44178146 0.77751034 -0.3426008 -1.1404752 2.5209599 -0.84166837 -0.24556713
-0.76575446 -0.33210376 -1.0302619 1.1152345 -0.69542617 -0.9031001 0.023980245 0.3013016
1.790628 0.83843493 0.3762515 -1.0735457 1.4408127 3.8480537 0.13222834 0.20922877
0.9217882 0.15600635 -0.43254587 -0.55217296 0.2447849 -0.7781278 0.2605831 -2.0227547
-0.0964113 0.36672604 -0.43272427 0.6593418 -0.97876734 -0.10113197 0.1695791 0.4153262
-0.5185202 0.23136142 0.8162886 0.087546445 0.55463034 0.075813875 -0.12175979 -0.1823317
-2.222467 -0.12022828 -0.6275536 -0.17617047 -0.9440024 -2.1919608 -1.4155514 -0.18560039
-0.41248432 -0.3610813 -0.49921852 -0.1810652 -0.24325068 -1.3863924 0.030290602 -0.017213471
0.56562394 -0.4684748 0.54617035 0.025774235 -0.19634718 0.5468017 -0.9718068 0.52795345
-0.07528318 0.3673663 0.14040269 0.49377158 -0.13208367 0.46926397 -0.1180169 0.6191781
-0.42294553 -0.33759272 0.32547465 -0.9771431 -0.005270794 0.1417766 -0.38280535 -0.12564826
-0.01814774 0.051714454 0.28511715 -0.18388538 0.14314568 0.16074824 -0.117998034 -0.49583167
0.5061248 -0.82904834 1.7472384 0.5819512 0.3701672 0.5643253 0.56139576 -0.15749025
0.05771081 -0.07989234 0.12828988 0.17507039 0.023418993 -0.6984456 1.0887384 -0.35025477
-0.47177228 0.33950597 -0.05937673 0.47088268 -0.40690097 0.07732541 -0.21367721 -0.01966356
0.03598692 0.65823096 0.88128257 0.015502549 -0.45972952 0.89818645 0.059059992 0.11243287
0.52014834 0.04458008 -0.016813392 0.9397641 -0.8066628 0.9344217 -0.45111197 -0.011559267
-0.7060924 0.30804464 0.2861533 0.8878186 -0.5201536 0.81592816 0.5295794 -0.20194826
-0.9959864 -0.63967067 0.037374258 -0.6419342 -0.49683753 0.28862494 0.14409554 -0.23933676
0.09254877 0.3717265 -0.16244258 -0.16113098 0.06791269 -0.23586573 -0.04010446 -0.250183
0.2946134 0.29716864 1.0962033 0.46344608 0.5010758 0.27857566 0.29255596 0.065702565
-0.3337502 -0.26648661 -0.17856617 0.15453523 -0.18579176 -0.64501065 1.038084 -0.2535253
-0.7577437 0.17881353 -0.115333706 -0.053741 -0.44309875 0.34470156 -0.0045175315 0.036528807
1.3084643 0.33842605 0.054209564 0.030261103 0.0060947137 0.15298575 -0.015075663 -0.13194254

bias_ih_l1 f4 [256]
00000000: 52f0 9dbf e579 b7bf 5933 6fbf ae26 9dbf
00000010: 3750 c5bf 955a 92bf ab8d 77bf 05d3 b0bf
00000020: 38ab 78bf 929b bfbf b5a7 2dbf 24ae 4abf
00000030: 7d1e 3abf 2608 c0bf 8e2a 8fbf 8710 81bf
00000040: 93de 8dbf c82e a2bf 6bd5 98bf f16b e1bf
00000050: 58e5 a6bf 59d1 9dbe 3227 aabf ab2f 4cbd
00000060: 20d1 a6bf 7d96 94be f96f 2cbf 8557 b4bf
00000070: 1bb8 86bf feec cfbf c61e 3f3c 8e04 58bf
00000080: d89f 13c0 b799 c4bf 2051 cdbf fe46 d9bf
00000090: acdd 8abf f869 cdbf f9d4 9bbf 748d c0bd
000000a0: 400d 8abf f30b 07c0 9ef1 78bf a40e 26be
000000b0: fb51 9abf 6c16 77bf 7350 afbf d6ab afbf
000000c0: 13cb aabf ed16 92be 29d2 83bf 4c26 8ebf
000000d0: 61f8 1ebf 0e97 83bf 45a7 8cbf aae1 4ebf
000000e0: a9d8 a9bf d19e aabf c282 a4bf ad87 2d3f
000000f0: e1d4 93bf f06b 85bf 0ff5 81be becf edbe
00000100: f33b c33f b93c 9b3f fda0 2f40 271d e43f
00000110: e1a1 5c3f f8ac 343e 4519 0d40 2098 9c3f
00000120: a76b 93bf 2515 1c40 ee53 123f d173 b5bf
00000130: b887 58be c30e 8c3f e117 2640 3743 3d40
00000140: ee58 6fbd deba 3540 1b33 eb3f 5a1e ffbd
00000150: e8fd cb3f e01e b6bf 58e5 f93f 23c5 8a3f
00000160: bdf4 c73e f093 af3f 93fb 97be 3bbb 0040
00000170: 5e01 2f40 633a 9d3e 8566 a03f 8694 0c3f
00000180: 6da6 0c40 dcfa 2d3f e955 7f3f f341 b53f
00000190: 45c3 023f cce1 28bf 9621 2d40 088a 973f
000001a0: 8ec1 cf3e 92cf e93f ba9e 3940 8ad2 a63f
000001b0: 47b6 a3bf aa57 2c40 056d afbf 4930 1640
000001c0: a225 6f3f 35ee 873f 125c 3040 7060 1abf
000001d0: ad2c 093f d335 4fbf e08d 2f3f 18d0 2c40
000001e0: 57bd b2be c060 3540 f818 993f e89b e8bf
000001f0: 7e22 2740 9317 a73e 5860 913f b19e bd3f
00000200: 3289 9b3c 58a1 ce3d c3ff 8c3c e2fd d5bc
00000210: 4613 ecbb f48c 10be dd54 bbbc 60f7 1e3c
00000220: c673 c33d 863d b1bc e9e3 f03c 0805 86be
00000230: dd9f e63d f2d0 5cbe 6f42 ac3d 9fef 24bd
00000240: bcb3 b7bd ce10 41be 885c f4bd 514b 8e3e
00000250: 6c97 5fba a6fd a43e e0d8 bd3c bc2a 84bd
00000260: 1990 373e a059 c9bd 0624 6fbe 0eec 1f3e
00000270: 3ffd cebd c496 323d cbba 6a3d f6b8 79bd
00000280: af36 9fbe 8f18 c03b 5baf 93be f8c8 14be
00000290: 11ab c6bc 349c 11be 11e7 143c 15ac 0f3e
000002a0: 8807 253c d400 ce3d 681c 2b3e 30db 27bd
000002b0: f851 50be e893 a73d 2888 d7be 8fdd de3b
000002c0: 9b43 34be a693 c8bb afa0 abbd 5c31 a03d
000002d0: 8020 91bc c4f6 e4be 06a8 acbd 7673 883d
000002e0: 4d1a 87bd c2d7 06bd cce8 ac3c 0d9d 43bd
000002f0: c17d fe3d 7b9e d13d f0ad 97bd c8d2 25bb
00000300: c93f b93f 441c d0be 4629 fb3f bfd3 dd3f
00000310: 8e44 663f ef4e 2ebf 2930 ed3f 064b c93f
00000320: 7a38 1abc 8324 f83f 6656 0dbe 1e55 9c3d
00000330: 959b 00bf f5fc 54be d553 d93f 6efc 0040
00000340: 3796 a5be 8b9b fd3f 38cf 0a3f 39c0 c43e
00000350: 8465 a23f f9a8 99bf 4964 ea3f 1021 8c3f
00000360: b692 33be 8201 353f e898 873e bf94 b8be
00000370: e42c 0640 f869 303f 5ae7 923f 4664 193f
00000380: 51ef 4a3f cd67 dc3f 45aa 13be 9a5f b33f
00000390: 827a 6e3e 3fe8 04be 37d5 0a40 945e 6a3f
000003a0: fc13 15bd 9583 b63f 04e1 fc3f ea54 553f
000003b0: 8631 30bf 3a7e 0340 3c28 383e 9627 ee3f
000003c0: d9ab 70be 95cf 213f da67 0240 23ba a43e
000003d0: da7e 4dbe 8b5e 69bf f2af 603f 82c8 0a40
000003e0: ee2d abbf 0307 0440 d94d 8f3f 273a 82bf
000003f0: 782c e73f ad3e eabe 3880 2d3f 12d2 373f
-1.2338965 -1.4334074 -0.93437725 -1.2277429 -1.5415105 -1.1433893 -0.96700543 -1.3814398
-0.9713626 -1.4969351 -0.67834026 -0.7917197 -0.7270277 -1.5002487 -1.1184862 -1.0083169
-1.1083549 -1.2670527 -1.194013 -1.7611066 -1.303874 -0.30823782 -1.3293211 -0.049850147
-1.303257 -0.29021063 -0.67358357 -1.4089209 -1.0524935 -1.6244199 0.011665052 -0.8438195
-2.306631 -1.535941 -1.6040382 -1.697479 -1.0848899 -1.6047964 -1.2174369 -0.0940198
-1.0785294 -2.1101043 -0.9724368 -0.16216522 -1.2056268 -0.9651859 -1.3696426 -1.3724315
-1.3343223 -0.28533116 -1.0298511 -1.1105437 -0.62097746 -1.0280473 -1.0988547 -0.80813086
-1.3269244 -1.3329717 -1.2852404 0.6778515 -1.154934 -1.0423565 -0.25382277 -0.46447557
1.525267 1.2127906 2.744201 1.7821397 0.8618451 0.17644107 2.2046673 1.2233925
-1.1517228 2.4387906 0.57159317 -1.4175969 -0.21145523 1.0942005 2.5952075 2.9572275
-0.05843442 2.8395305 1.8374971 -0.12456961 1.5936861 -1.4228172 1.9523115 1.0841411
0.39053908 1.3717022 -0.29684123 2.0114276 2.7344584 0.30708608 1.2531286 0.5491413
2.1976578 0.67960906 0.99740463 1.4160751 0.5107921 -0.6596954 2.705175 1.1838999
0.40577358 1.826647 2.900313 1.3033001 -1.2790002 2.6928506 -1.3705145 2.346697
0.934168 1.061957 2.7556195 -0.603034 0.53583795 -0.80941504 0.6857586 2.700201
-0.3491008 2.8340302 1.1960745 -1.8172579 2.6114802 0.32635173 1.1357527 1.4814054
0.018986318 0.10089368 0.0172118 -0.026122037 -0.007204446 -0.1411627 -0.022867614 0.0097025335
0.095435664 -0.021635782 0.029405551 -0.26175714 0.1126096 -0.21564081 0.08411109 -0.040267583
-0.089698285 -0.18854067 -0.119317114 0.27791837 -0.00085293385 0.32224768 0.023174703 -0.064534634
0.17926063 -0.09831548 -0.23353586 0.15617391 -0.101068966 0.043600813 0.057307046 -0.060967408
-0.31096408 0.0058623026 -0.28844723 -0.14529788 -0.024251493 -0.14219743 0.009088294 0.14030488
0.010072596 0.10058752 0.16710055 -0.040980518 -0.20343769 0.08182508 -0.42096066 0.006801314
-0.17603914 -0.0061211167 -0.08380257 0.078219146 -0.017715693 -0.44719517 -0.084304854 0.066626474
-0.06596813 -0.032920606 0.0211071 -0.047757197 0.124263294 0.10235306 -0.07406223 -0.0025302637
1.4472591 -0.40646565 1.9621971 1.7330245 0.89948356 -0.68089193 1.8530322 1.572602
-0.009412879 1.9386142 -0.1380249 0.07633422 -0.502374 -0.2079962 1.6978709 2.015407
-0.32341167 1.9813093 0.5422244 0.38427904 1.268723 -1.2004691 1.8311855 1.094759
-0.17536435 0.70705426 0.26483846 -0.36050984 2.09649 0.68911695 1.1476853 0.5991863
0.7927142 1.7219177 -0.14420421 1.401355 0.2328892 -0.1297922 2.1692636 0.91550565
-0.03639601 1.4258906 1.9756169 0.83332694 -0.68825567 2.0545793 0.17984098 1.8605831
-0.23503055 0.6320737 2.0375886 0.3217326 -0.20067921 -0.91159886 0.8776847 2.168488
-1.3373392 2.062928 1.1195632 -1.0173997 1.8060446 -0.45750943 0.6777377 0.71804917

bias_hh_l1 f4 [256]
00000000: 2cd9 9cbf 8e3e c2bf db18 89bf 1393 92bf
00000010: de90 c2bf 36b8 94bf ae91 83bf 10f2 abbf
00000020: a15b 91bf 5ae4 d7bf e1cd 36bf f2f1 4bbf
00000030: 12d9 47bf cc72 c4bf de5c 9fbf 8dfd 7abf
00000040: 0333 93bf cdfa abbf dd73 9dbf 5910 dbbf
00000050: d41d aebf d7b9 ecbd 8264 b7bf 1532 35be
00000060: 5a82 adbf cc63 a8be 402d 29bf 2a13 abbf
00000070: 2664 86bf d088 cebf 5341 6b3d 4fe1 52bf
00000080: e5c0 13c0 f192 b0bf 02a3 cabf 6776 cebf
00000090: a740 9ebf 0795 d5bf ad40 97bf 108a d2bd
000000a0: 660d 8dbf 75a3 fabf b4ce 6bbf ede3 f1bd
000000b0: 9a7a 90bf c123 74bf 9832 96bf 9a6a b7bf
000000c0: a72d adbf bf4e cfbe daca 6abf 88e7 78bf
000000d0: 564e 12bf fc9a 83bf b231 73bf 03cb 7cbf
000000e0: 0530 b5bf 7ea9 9abf eca9 b4bf 9b83 5a3f
000000f0: 1f13 7cbf c02e 70bf dcaf 3cbe 5118 d0be
00000100: 32b7 c23f 3dea b23f 5202 2e40 c192 e63f
00000110: 11a7 5a3f 3f8f 753e 5f92 0640 d412 903f
00000120: 5fdb 93bf 5f84 1a40 4298 213f 1bf1 a3bf
00000130: dd09 86bd 702a 8c3f 9205 2740 b942 3a40
00000140: c298 93bd 2989 4340 8cef eb3f 4712 393c
00000150: a76f d53f 14f8 b1bf 87c8 fd3f 592e 8a3f
00000160: b450 913e 4ee6 b63f aacc 81be 63e7 0140
00000170: c601 2d40 8cfe fd3e c07f 933f 1cac 103f
00000180: e090 1640 26d4 563f d8b7 913f 7b34 9f3f
00000190: 0343 053f c5b6 33bf 2c8f 2340 fe9c a33f
000001a0: f643 aa3e c444 e13f b7ec 3340 2058 9d3f
000001b0: 9d3d a2bf c235 3340 fa97 a3bf 86d9 1140
000001c0: 8a85 743f bb24 793f 19d0 2f40 d2ab 05bf
000001d0: 9ffa ca3e b74f 71bf 7db9 523f c97f 2940
000001e0: 42ab 07bf f528 3740 caa7 813f 61bd f7bf
000001f0: 688a 2840 dbe4 cd3e 730c 903f 0347 b13f
00000200: 0c5e 76bd f280 ee3d fbf9 40be 50d6 17bc
00000210: b384 a13c 468f 92bd 9584 81bd 0409 9f3d
00000220: 85d8 56bb efd4 c8bb 7095 083d 5407 bcbe
00000230: 13f5 3cbd 2c51 4abe cda9 843d 9fbf 88bd
00000240: 6361 fdbd b00a c5bd bea0 57bd 1f7a 023e
00000250: 16d6 2c3d 7467 b83e 86eb 70bd 9f97 d63d
00000260: 7f2c 163e 49a2 08be 6a18 b3bd 5a7e 4a3d
00000270: e882 a23d 39be f73d e460 8ebd 113c b23c
00000280: 7576 d6be 26cf d63d 65be 10be 4ea8 323d
00000290: 703e e93d 5a0b 0bbe 0ffe 5abd 5a7a e0bc
000002a0: 38fc e53b cbb6 a43c 616a 64bd 5c68 bb3c
000002b0: a4a7 36be 06c3 05bd b542 d9be 1d24 153e
000002c0: f69f 85bd 0109 d63d 8749 2c3d 8569 363d
000002d0: 119a ca3d fdf5 e3be 4220 0dbc bf7a 493d
000002e0: c8ba cebd 7320 7e3d 81ec 413d b678 a9bd
000002f0: 32b1 eb3c 50eb e93d de0d c2bd c3ca 23bd
00000300: 73a9 a73f 5845 02bf 2a03 fd3f 9826 e13f
00000310: fc41 503f e118 20bf ca7a 0040 894e c83f
00000320: 1110 f73d 3419 ed3f 4201 a7be 34ac 1a3c
00000330: ad06 13bf c031 c1be 0022 e53f e394 0140
00000340: f793 9bbe 83d6 f23f 23f8 f03e 19f1 ea3e
00000350: 7709 983f 6382 a5bf 7423 d33f 3efc 893f
00000360: 1422 d8bd b4ac 5a3f 2e43 d93e 7cd8 9fbe
00000370: 050e 0f40 54ae 5b3f 6787 803f 7d76 f23e
00000380: dab7 463f 37dd d33f 3121 f3bc 3e91 a83f
00000390: b8e0 db3e 62fe 2e3d f10b 1040 3ceb 763f
000003a0: f031 843d 5ec0 a63f 9991 ef3f 65b1 2d3f
000003b0: b580 32bf 87b0 0640 8a4a 753e 19e8 de3f
000003c0: bbd5 69be 9609 193f 4778 f73f 9a6f d73e
000003d0: 6268 133c c01b 87bf 2ff9 5a3f c3ee 0440
000003e0: 42f3 a5bf da4f f13f 5e29 843f edc1 84bf
000003f0: 2860 f33f 0848 f3be 39e9 533f f49f 113f
-1.2253776 -1.517534 -1.071071 -1.1451133 -1.520046 -1.1618717 -1.0278833 -1.3433247
-1.1356088 -1.6866562 -0.71407896 -0.79666054 -0.780656 -1.5347533 -1.2450216 -0.9804314
-1.1499943 -1.3435913 -1.2300984 -1.7114364 -1.3602853 -0.11558884 -1.4327548 -0.17694886
-1.3555405 -0.3288864 -0.6608467 -1.3365223 -1.0499313 -1.6135502 0.057435345 -0.82375044
-2.3086483 -1.3794843 -1.5830996 -1.6129884 -1.236348 -1.6686105 -1.1816612 -0.102802396
-1.1019714 -1.9581133 -0.9211228 -0.118110515 -1.1287415 -0.95367056 -1.173419 -1.4329407
-1.3529557 -0.40489766 -0.91715777 -0.9722829 -0.5715078 -1.0281672 -0.94997704 -0.9874727
-1.4155279 -1.2082975 -1.4114356 0.85357064 -0.98466676 -0.93821335 -0.1842646 -0.40643552
1.5212157 1.3977734 2.7188916 1.8013536 0.85411173 0.23980425 2.1026838 1.1255746
-1.1551322 2.4143293 0.6312295 -1.2807955 -0.0654485 1.0950451 2.609715 2.9103224
-0.072068706 3.0552466 1.8432479 0.011295862 1.6674699 -1.3903832 1.9826821 1.0795394
0.28381884 1.4289033 -0.2535146 2.0297477 2.7032332 0.49608266 1.1523361 0.5651262
2.3525925 0.8391746 1.138423 1.2437891 0.52055377 -0.7020076 2.5556135 1.2782285
0.33254975 1.7599111 2.811323 1.2292519 -1.2675053 2.800156 -1.2780755 2.2789016
0.95516264 0.9732167 2.7470763 -0.522153 0.39644334 -0.9426226 0.8231428 2.6484244
-0.52995694 2.8618748 1.012933 -1.9354669 2.6334476 0.40213665 1.1253799 1.3849796
-0.060148284 0.11645688 -0.1884536 -0.009267405 0.019716596 -0.071562335 -0.06324116 0.077653915
-0.0032782864 -0.0061288993 0.03334564 -0.3672434 -0.04613216 -0.19757527 0.064776994 -0.06677174
-0.12372091 -0.09621179 -0.05264353 0.12741898 0.042196356 0.36016428 -0.058818363 0.10478138
0.14665411 -0.13343157 -0.08744891 0.049436904 0.07935125 0.12096829 -0.06952074 0.021757158
-0.4188725 0.10488729 -0.1413513 0.04361754 0.11388862 -0.13578549 -0.053464945 -0.027402092
0.007018592 0.020106694 -0.055765513 0.02287691 -0.17837387 -0.032656692 -0.42433706 0.14564557
-0.06524651 0.10450936 0.04206231 0.044534225 0.09892667 -0.44523612 -0.008613648 0.049189325
-0.100942194 0.062042665 0.04734469 -0.08274977 0.028771017 0.114218354 -0.09475301 -0.03998829
1.3098587 -0.5088706 1.976659 1.7589903 0.81350684 -0.6253796 2.0074944 1.5648967
0.12063611 1.8523316 -0.32618147 0.0094404705 -0.5743206 -0.3773327 1.7901001 2.0247123
-0.30386326 1.8971714 0.47064313 0.45887068 1.1877888 -1.2930416 1.6495194 1.0780103
-0.10553375 0.85419774 0.42434067 -0.31219852 2.2352307 0.8581288 1.0041322 0.47356024
0.77624285 1.6551884 -0.029678913 1.3169324 0.42944884 0.042723067 2.2507288 0.9645269
0.06454837 1.3027456 1.8716308 0.6784881 -0.6972764 2.1045244 0.23954216 1.741458
-0.22835438 0.5978025 1.9333581 0.42077333 0.008997055 -1.0555344 0.85536474 2.0770729
-1.2964861 1.8852494 1.0325124 -1.0371681 1.901372 -0.47515893 0.82777745 0.56884694
