src/grinding_system_python/model/model_real_MA_sl8_hs64_bs16_num_epochs30_g0.9_l1.pth (torch, 89623 bytes, 6 tensors)

weight_ih_l0 f4 [256, 15]
00000000: 9875 7bbd 930b 6abc 3de4 eb3d dc12 a5bc
00000010: 9031 47be db00 e33d 7bd2 333e a2a5 643d
00000020: 66f9 50be 6041 933d cbc4 78bc 894d 213e
00000030: cf23 1f3d fb4e 0c3e 7354 823d c280 143d
00000040: 23ba d23d 57c7 383e 9512 a93d 7745 50be
00000050: 53ff 143e be6f 053d f9b0 f5bd 17f7 2abe
00000060: 655a 1fbd a4b7 8abd ea5e 0fbe 7c92 96bd
00000070: 682e 213d 042e 85bd 5b86 90bd 2509 833c
00000080: 02f2 2dbf cee7 a43e 1a86 f13e bcff 8bbd
00000090: de82 363e 0308 cf3d f469 5f3e 0e23 843e
000000a0: ef24 753e 8f81 d73e f5bf ab3e a944 68be
000000b0: 022c c7be c0fb 45bd 20fa 8c3c 89da 92bc
000000c0: 29b4 6dbd 05e4 56bd 6031 32bd 69cc 74bc
000000d0: 2a6d b13d 0310 5fbe 3829 853e 7c14 83be
000000e0: 84c4 a8bd 5525 5c3d b0b7 30bd 40d2 a4be
000000f0: 34ec 833d cae2 9ebd 8939 183e 9fdb 97bd
00000100: eb1d 433e bb62 4fbd 2257 bd3e d10c a63d
00000110: 9a58 d1be 7ae3 8bbe 76a8 85be f265 dfbd
00000120: b923 95bc 2375 4dbd fd56 4a3f c64c e53c
00000130: a620 773c 2461 88bc 06f8 f9bd e08f debc
00000140: 6bc9 413d c51e 6a3e bfce 4abe c0cc 3abd
00000150: d22e 22bd ee45 5ebd ccd9 943d c772 df3d
00000160: 10ed debc 4fcc d83d 0196 e73d 235e 84bc
00000170: f55e 7ebd 2456 18be 3ea5 043d bf0e a0bd
00000180: b64a 9e3d de6e fdbc ccf4 15be 0aa7 cabd
00000190: 9f38 50bd 397c 7c3c 845e 8c3d 2da3 8e3d
000001a0: 4a5b 133e 7dac 453e 2706 a23d 62b4 f23e
000001b0: cfaa 6b3d 6205 03bf cfe0 acbc 80f5 96bd
000001c0: 8828 543d 1de8 85bd 39dc 393e 7f68 03be
000001d0: dad3 343e 35f3 423e 92ed 8ebd f71e 863e
000001e0: 81db f43e 79c7 39be 0d5f b4bb 7710 b63d
000001f0: 9e77 e7bc b5d8 7e3d 84ff 733d d215 643d
00000200: c6a7 fa3d ac1c 873e dbd4 18be 8464 b3be
00000210: 7b53 83be b029 cbbe 6ac6 d3be 7da5 743d
00000220: 6bcc 62be cd9d 903d 91d6 23be 1ccf 32be
00000230: ad01 72bd 3760 d23d e650 65be 0e45 663e
00000240: 6303 453e 7f08 b0bd 47a7 97bd 9314 9ebd
00000250: 313d 23bc 838c 063e ccbf 9e3d 78b6 fc3c
00000260: 95f4 f53d ca24 c23d 108c 47bc 62e1 5e3d
00000270: 65a9 8f3d c8cf 8dbe 0e6e 97bd e9c0 c23d
00000280: da38 8cbc 83fc b6bd 2a84 d03c ad12 38bc
00000290: c7c5 233e c798 88bb ad59 de3c ba80 673e
000002a0: a7fb 073d 182c 00be 65cb 60bc 2d30 6a3e
000002b0: 9b58 143d f6c4 983b c971 3e3d 4f0b 04be
000002c0: 17ba 8e3b f8a0 cb3c cef4 3b3d 34ee 9c3d
000002d0: 7ec6 b1bc a5d5 d93c 4086 84be 7d67 ecbd
000002e0: b8ad 06be 05de 533c 7994 dabc cadf 9d3c
000002f0: d38c 01be e157 683e 3550 86be fb3e f13b
00000300: d64f e43d a559 e4bc de5f 343e 65e8 a93d
00000310: 7c13 1abd 90b0 003e 007e 8a3c cddd 65bd
00000320: 2ba5 3c3e 9a59 ee3d 8fae a03c 49df a4bd
00000330: f54c 7e3e a778 023e 486b d2bd 9795 fdbd
00000340: a656 433d 66bc f2be 35aa b7bd dca7 db3c
00000350: c43c ac3d c447 d83b ca1f 9e3d 9d4d 0c3e
00000360: 8bf4 1a3e 7887 6fbd f06f c23e bf7b 12bd
00000370: 732a 43bd 9790 4b3e 9d4b 543d 4559 1abd
00000380: 7599 9f3e 5ff6 38be 8fba 573e 0806 ee3e
00000390: 1d09 38bd 57bf 90be 9b20 a73e 1a4f e0bd
000003a0: 9ef2 aabe eb3d 87be 0870 5cbd 1c4e cabd
000003b0: acfd d3be cb0b c33e a63f e93d c113 a93d
000003c0: 005b dabd 12da 6bbd c249 efbc 143a dfbd
000003d0: 6264 ddbc 2574 abbd 91e9 953d 3a7d 8f3d
000003e0: ea8c a33d ba46 e2bb 0a25 b7ba e53b 7dbd
000003f0: 3e9b 163d c2fe ff3c 460d e13d 50f4 2c3e
-0.061391443 -0.014284986 0.11518142 -0.020150594 -0.194525 0.110841475 0.1756076 0.055822022
-0.20407638 0.07190204 -0.015183638 0.15752234 0.03885251 0.13702004 0.06363764 0.036255606
0.10289409 0.18044792 0.08255497 -0.20338999 0.14550523 0.03257727 -0.119966455 -0.1669582
-0.038904566 -0.06773308 -0.1400105 -0.073521584 0.039350897 -0.065029174 -0.07056876 0.015995571
-0.679474 0.32208103 0.47172624 -0.06835887 0.1782336 0.1010895 0.21817762 0.25807995
0.2393987 0.42091033 0.3354489 -0.22682442 -0.38900763 -0.04833579 0.017209113 -0.017926471
-0.058033142 -0.05246355 -0.04350412 -0.014941313 0.086633995 -0.21783452 0.2600801 -0.25601566
-0.082406074 0.05374654 -0.043143928 -0.32191658 0.064415365 -0.077581 0.14865698 -0.07414936
0.19054382 -0.050631266 0.3698054 0.08107913 -0.4088791 -0.27321988 -0.26105088 -0.109081164
-0.01820551 -0.05016054 0.79038984 0.02799071 0.015083468 -0.016647883 -0.1220551 -0.027168214
0.047311228 0.228633 -0.1980543 -0.04560542 -0.039595433 -0.05426591 0.07268104 0.10910564
-0.02721265 0.10585844 0.11307908 -0.01615817 -0.062102277 -0.1487661 0.03238415 -0.078153126
0.07729094 -0.030936655 -0.14644164 -0.098951414 -0.050835248 0.015410476 0.06853965 0.06964717
0.14390293 0.1930408 0.0791133 0.47403246 0.057535943 -0.5118009 -0.02110329 -0.07371044
0.051796466 -0.06538413 0.18150415 -0.12832831 0.1765894 0.19038089 -0.06978907 0.261955
0.47823718 -0.18142499 -0.005504495 0.08889859 -0.02825528 0.062218387 0.05956985 0.055684872
0.122390315 0.26389062 -0.14924948 -0.35037625 -0.25649628 -0.39680243 -0.41362315 0.059728134
-0.22148292 0.07061348 -0.1599982 -0.17461818 -0.05908363 0.10272258 -0.22394142 0.2248728
0.19239573 -0.085953705 -0.074049525 -0.07718768 -0.00996332 0.13139538 0.07751426 0.030848727
0.12009541 0.09479673 -0.01217939 0.05441416 0.07014731 -0.27697587 -0.07394038 0.09509451
-0.017116953 -0.089348815 0.025453646 -0.011234921 0.15993415 -0.004168603 0.02714237 0.22607699
0.03319898 -0.1251682 -0.013720368 0.2286994 0.036217313 0.0046621514 0.046495233 -0.12894939
0.0043556797 0.02485703 0.04588776 0.07662621 -0.021701094 0.026591131 -0.25883675 -0.11543176
-0.13152206 0.012931352 -0.026682125 0.01927175 -0.12651376 0.22689773 -0.26233068 0.007362244
0.1114804 -0.027874777 0.17614695 0.08296279 -0.037616238 0.12567353 0.016905785 -0.05611973
0.18422382 0.11638184 0.019614486 -0.08050401 0.24834044 0.12741338 -0.102743685 -0.123820476
0.047690056 -0.47409362 -0.08968011 0.02681344 0.084100276 0.006600352 0.07720907 0.13701482
0.15132348 -0.058478802 0.37976027 -0.035762545 -0.047647905 0.19879375 0.051829923 -0.03768279
0.31171766 -0.18062733 0.2106726 0.46488976 -0.044930566 -0.2827098 0.32642063 -0.109525874
-0.33388227 -0.26414427 -0.05381778 -0.098781794 -0.41404474 0.38094935 0.11389093 0.08255721
-0.10661888 -0.057581015 -0.029209975 -0.108997494 -0.027025405 -0.08371762 0.0731994 0.07006307
0.079858616 -0.006905404 -0.001397283 -0.061824698 0.036769144 0.031249408 0.1098886 0.16890073

weight_hh_l0 f4 [256, 64]
00000000: 3870 a73e 7e72 09be e242 f43d 33d6 c4be
00000010: 5ce1 cebd 68c0 1ebe 6e2b 4e3d 3874 b73d
00000020: 71eb a5bc 2fb2 babe 22fb 443e a0ff e63c
00000030: c561 79be 698b bfbe de2c e1bd 152c b4be
00000040: b027 e2bd 6877 5dbd a164 ecbe 1019 8fb9
00000050: bd3c 4e3e 7fcd 3c3e 5ed9 10be 35a2 1d3e
00000060: d3ca 8fbd 0293 d23e c6c2 20be c8cb b6be
00000070: d47e 3fbe 1dee f73d 23cb 283f 0769 09bf
00000080: 4803 5ebe f4de 2fbe 6643 20bd 8873 83be
00000090: 250b 8abe 3d8a 913e 24dd c93d d161 803e
000000a0: 0310 eabd 7ce0 dabc 688b a53e 061f b03d
000000b0: 6bd6 843e 93f1 82be eedd 583e 939a 04bd
000000c0: 61d1 ce3d 350d f73c 8af9 69be fea6 22be
000000d0: 8b9b 133e a3f7 24bd 9689 dc3d 3716 b0be
000000e0: 4dcf 1ebe e748 8cbe 34ed 6d3e bdd0 003f
000000f0: 143a 343e 5d47 393e 5c0e 3ebd 51ed afbb
00000100: 1a36 aa3e 323b 17be cb00 a8be 311a f5be
00000110: 813d edbe d378 a43d 57cd 41be 8c63 ee3d
00000120: 2e6d b8be a225 823e 087e 113e b75d db3c
00000130: 79f5 853e 28d6 6dbe a335 37bd 0601 83be
00000140: 74dd 363e 5d71 6cbe 18c4 95be e4ff 93be
00000150: dbcd a8bc 7c01 ecb9 152b b93d f1c3 72be
00000160: 45e7 ddbd 15b0 213d ca9a 86be 1b15 643e
00000170: 1cc0 4d3e 7361 713e 2133 cf3e 2c73 f5be
00000180: 3f5d 48bc 8cc8 f4be 3d77 233e 522d 8fbe
00000190: 54aa b6be 85a0 c83e 0ce2 563e fdf3 7c3d
000001a0: 9f49 e83d 6630 87bd faf8 94be d4b3 e43e
000001b0: 7299 803d 4341 32be 2acf 05be f16c bb3d
000001c0: 18a6 3abc 0fd2 913e 5715 94be dc99 f7be
000001d0: 5f16 2abd 013a 89bd 86b7 9cbd 5d57 cebc
000001e0: f193 893e bdcd a9be c0e1 8d3e 105e 203e
000001f0: fbf7 f7be 495a c73c a886 873e e1e7 e2be
00000200: cd24 1cbe 682c f93e 977b 8e3e eb74 973e
00000210: d1ab 0fbf 9197 c5be 19d3 c53e 37bb 303f
00000220: 99bb 44be c3cc 89bd 533b a03d 689b febd
00000230: 7c61 7ebe 95b0 d83e 50c7 8dbe 9abe d73e
00000240: aa61 86be 3f51 9c3e 52f3 90be 9ff9 b63d
00000250: 853d d0be 95a3 9dbe 96a6 e13e 4580 9b3e
00000260: 08ad b13e c1ca a23a fa84 6b3e cc52 cd3e
00000270: 7e82 a5be 41bf 10be 8a0f 98be 2759 99be
00000280: 8a51 3a3e fece 473f fd64 b6bd 4211 65bf
00000290: f311 8a3e dc43 d9be a502 c83e fd5f 3d3e
000002a0: a310 063f 7407 0d3e 075c 79be 01a6 46bf
000002b0: 0fb5 003f 2993 30bd 9234 b1bd 8fe2 9c3e
000002c0: add0 773e 37b6 1abd 2f02 b1bd ecd2 babe
000002d0: 5026 1bbf cfbb 1ebe 8424 0fbe 198c a6be
000002e0: a17b 7bbe c311 08bf ad67 bbbd 14d8 bbbd
000002f0: dcc2 fd3e 2a5e 033f df4e 883e 2f8f c6be
00000300: fb7e 003e f542 b53e 6956 e0bd 53c1 6a3e
00000310: 876b 353e f139 093d ac1d 96bd 3c0a 6abe
00000320: ec0a 803e 6e10 793d 1747 b13c a3fa ccbe
00000330: 583e ae3e 66ed 0a3f 77c4 2abd 47af 19be
00000340: 7810 67bd b9a2 d43e 6d43 713d 86dc 3d3e
00000350: 5f1d 84be d97c aebd 589c 90be 6699 04be
00000360: 4a0d 613e 880a 0dbe c2ba 1b3e 2324 70be
00000370: 31ba 843e 3249 84be 278d 8d3e 4682 b2be
00000380: d90e 023d c954 abbd 3123 e63d 904e 453d
00000390: 9ee3 1ebe 6066 3cbe 3ff4 523e 7271 ec3d
000003a0: d42d 7fbe 1e9b cf3d 23af 96be b087 c43e
000003b0: 6578 9f3d 7244 9abc d78c 463e 6689 113d
000003c0: 3501 adbd 645d bebe 2e2b 34be 51dc 54be
000003d0: 21db f0bc a0b1 57bd 5406 09be f747 7e3e
000003e0: 6cc6 28be d9ec 94be 1b2d 9c3c f8ef 80bd
000003f0: 9406 203e 98ce 02bf 16b7 003f 8d3f a03e
0.32702804 -0.13422582 0.119268194 -0.3844467 -0.10101578 -0.15503085 0.050334387 0.08957714
-0.020253869 -0.36464068 0.19236425 0.028198063 -0.24353702 -0.3741105 -0.10994886 -0.35189882
-0.11042726 -0.054068953 -0.46170524 -0.00027293758 0.20140357 0.18437766 -0.14145419 0.15393908
-0.070211075 0.41127783 -0.156993 -0.35702348 -0.18700725 0.121059634 0.6593496 -0.53675884
-0.21680939 -0.17174894 -0.039126776 -0.2567408 -0.26961628 0.2842578 0.09856632 0.25074628
-0.11428835 -0.02671837 0.3233292 0.08599667 0.25944838 -0.25574932 0.2117841 -0.032373976
0.100985296 0.030157665 -0.22849098 -0.15884015 0.14414804 -0.040275227 0.1076843 -0.3439195
-0.15508766 -0.2739937 0.23235017 0.5031851 0.1760028 0.18093629 -0.046400413 -0.0053688665
0.332444 -0.14768675 -0.32813105 -0.47871545 -0.46335986 0.08030858 -0.18925987 0.11640081
-0.36020797 0.25419337 0.14208233 0.026778085 0.26163843 -0.23226225 -0.044728886 -0.25586718
0.17857915 -0.2309012 -0.2925117 -0.28906167 -0.020605972 -0.00045014534 0.0904142 -0.23707558
-0.10835127 0.039474566 -0.2628997 0.22273676 0.20092815 0.2357233 0.40468696 -0.47939432
-0.012229263 -0.47809255 0.15963455 -0.27964264 -0.35676825 0.39184967 0.20984668 0.061756123
0.11342167 -0.06601028 -0.29096204 0.44668448 0.06279267 -0.17407708 -0.13067308 0.09151638
-0.011392139 0.28480574 -0.2892253 -0.48359573 -0.04152524 -0.067005165 -0.07652192 -0.025188142
0.26870683 -0.33164778 0.27711296 0.15660882 -0.48431382 0.024335044 0.26469922 -0.44317535
-0.15248413 0.48666692 0.27828667 0.2958139 -0.56121546 -0.38592198 0.38637617 0.6903567
-0.19212188 -0.06728508 0.07823815 -0.12431985 -0.24841875 0.4232222 -0.27691126 0.42137605
-0.26246387 0.30530736 -0.2831064 0.0893433 -0.40671936 -0.30788866 0.44072407 0.303713
0.34702325 0.0012420045 0.22999945 0.40102232 -0.3232612 -0.14135458 -0.29699355 -0.2995083
0.18195167 0.7805022 -0.08905981 -0.8947946 0.2696682 -0.42434585 0.39064518 0.18493648
0.52369136 0.13772374 -0.24351512 -0.7759705 0.50276273 -0.043109093 -0.08652605 0.306416
0.24200697 -0.03777143 -0.086429946 -0.36489046 -0.60605335 -0.15501331 -0.13978773 -0.3252876
-0.2455888 -0.531521 -0.09150634 -0.09172073 0.49562728 0.5131556 0.26622674 -0.38781115
0.12548439 0.35402647 -0.109539814 0.2292531 0.177168 0.033502523 -0.07329878 -0.22855467
0.25008333 0.060806684 0.021640344 -0.4003497 0.3403194 0.5426849 -0.04169127 -0.15008269
-0.05641219 0.41530398 0.058902193 0.18541154 -0.25803658 -0.085199066 -0.2824428 -0.12949142
0.21977726 -0.13773549 0.15207961 -0.23451285 0.25923303 -0.25837094 0.27646753 -0.34865016
0.03175244 -0.08365781 0.11237181 0.048170626 -0.15516517 -0.18398428 0.20600985 0.115450755
-0.24919826 0.10137008 -0.29430494 0.3838477 0.07786635 -0.018831465 0.19389664 0.035531424
-0.08447496 -0.37180626 -0.17594597 -0.20787169 -0.029401364 -0.05265963 -0.1338132 0.2483214
-0.16481942 -0.2908695 0.019064477 -0.062957704 0.1562751 -0.5109649 0.50279367 0.31298485

bias_ih_l0 f4 [256]
00000000: 20bc fbbd 25a2 a0bd eea9 733b 1f18 3fbd
00000010: 31bc 01bf ebc4 acbe c33a d13d 7205 0ebf
00000020: 5ada 0abf 55da 1cbf e670 50bf f8d3 8ebe
00000030: 4019 1a3d 77b1 3dbf fca6 42bf 4af5 4dbf
00000040: 0cb1 c5be 1305 27bf 6765 67bf e5a8 5fbf
00000050: 1b55 54be a310 febe 087f babe 6065 47bf
00000060: 1822 7bbd 6708 44be ac61 5dbf 1498 53bf
00000070: b9ed e4be b38a 0c3e 2050 e2be b638 eabe
00000080: 8282 2ebf 7e32 6cbf d245 9dbe 23df 16bf
00000090: 0aa2 f7be 6c90 aabe 2216 80be 7151 e1be
000000a0: 910c 6ebe d8f3 e9be 18b3 06bf de14 ac3c
000000b0: 4426 50bf 5ea8 22be 8228 2ebe 9658 74be
000000c0: b9f2 9ebe 4970 873e 2838 adbe 46f0 bfbd
000000d0: e517 1bbe 7332 0abf 2bf2 41bf f8bd c73d
000000e0: 19f2 a5be 95de a73d 947a 3abf 6c0b 27bf
000000f0: c917 17be 8653 d13d 2147 41bf 5dcf 4fbe
00000100: 5b47 6e3f 80f8 af3d 7d54 0dbf 6966 e13e
00000110: 25e2 aabd f5ad b33f 22f5 a63f 9c1c 52be
00000120: c12b 043d cf04 0e3f 49e7 783f ed18 513f
00000130: 71e2 b7bd ae2a 4abf 4fb2 9dbf 464b c03d
00000140: ef9e 6d3f 3a54 2bbf dd10 0abf d621 77bf
00000150: df68 f93f a9d8 db3f 0213 ad3f ce5f 083f
00000160: f1f8 3e3e 1196 8d3f cbba 4dbf 7e98 cd3f
00000170: 5bfd 913f 3601 86be 66e1 2cbe 74bb 82bf
00000180: 800a 1ebf c116 5fbf 13b5 ed3e 854a 05bf
00000190: 7d9d 0c3f b2cc 24bf da79 dd3f 05bb 0cbd
000001a0: 8f25 843f 06e2 0440 1363 ae3f 479e 533f
000001b0: e881 6ebe 7497 bf3f 3080 40bf 5058 603f
000001c0: 0857 d33f a0e0 05bf 8c23 f13f b3b7 b8bd
000001d0: e528 753e 60bf 2d3f 9e84 3abc 7a37 4dbf
000001e0: 715d 07bf 04f8 bdbd b74c e93f 3bde f53e
000001f0: 067c 13bf 08c1 063f 1dd6 883e 763b 1fbf
00000200: 0777 e23d afc2 583d 3dbc 39be 556b 39bd
00000210: 6a76 ba3d 4ba8 e43d da51 333d a4c1 bfbd
00000220: ac4a bc3c 9683 4cbd b369 eabd 9f02 8f3d
00000230: 88b7 a43d 32ea 96bc feea d9bd e632 21be
00000240: 34c5 cd39 154b 9abc 89a2 8a3d a1dc b3be
00000250: 8ebe c1bd 6d15 c03c 9f9f f8bd 4e1e 5c3e
00000260: 5133 fe3c 22e5 ae3c 8391 413e b26c 9cbc
00000270: fec3 0a3d 9fce 8dbd c3a3 95bd 3a20 923d
00000280: 6a98 20be 8e5d fc3c ee77 803d 84f1 b6bd
00000290: 1eff 7a3e b6be 0bbe 8985 4d3c 3788 e53c
000002a0: 7921 9ebd cccf 64bd a617 1fbe 7c5b 213d
000002b0: f347 9e3e f300 a5bc aa4a 213a 0060 80bb
000002c0: d615 73bd 1eac 8a3d 7ad7 563e c0b6 ed3d
000002d0: 1425 943d 3ad9 b6bb 67cc 023e 3fdb 333e
000002e0: fa27 a9bc 005d 583e 5fe3 55bd 115f 8bbd
000002f0: 1478 1fbd 2c62 083e 6e8e 0c3e 9ece 303d
00000300: 06b0 173f 74d5 43bd 6274 3fbf 930c ad3e
00000310: a99c 54bf e056 a13f 75f3 093f 614f 8ebd
00000320: d07c 243e 4ffc 483f 374f 443f e9ab 533f
00000330: fc02 273f fa8a dd3e eb6c 003f 5102 e7be
00000340: dc09 a83f 8e55 debe e52d 2ebd eccb dcbd
00000350: 758e a23f 9db7 fc3f 8dd2 8a3f c29c 5e3e
00000360: 80db 2a3f c8de d13e 0c84 733e a368 7f3f
00000370: 9dbd 8e3f 1767 4bbf f31d 4b3f 8810 5ebe
00000380: cacb ac3e 0609 ff3d af00 88be aa99 153f
00000390: 63a3 ed3e 0eca 04be 0709 af3f 2f18 f9bd
000003a0: ea3b 4a3f 56e7 703f e6b6 8d3f d2de 083f
000003b0: 42f5 f1be e0ff 963f e693 e9bd 4362 843f
000003c0: 6fe8 bc3f 9843 533e 35d9 c03f f928 c93e
000003d0: ce8c 233f 73a5 d13e e981 b6be 7a3b 85be
000003e0: 6fa5 123c e055 0a3f d2ad 6f3f 91b6 f73e
000003f0: 4c4f 6f3e aa14 733f 3a3d 04bf 89a4 37be
-0.12291741 -0.078434266 0.0037180143 -0.046653863 -0.5067778 -0.33743986 0.10216286 -0.5547706
-0.5423943 -0.6127065 -0.8142227 -0.27896094 0.037621737 -0.74098915 -0.7603605 -0.80452406
-0.3861164 -0.6524212 -0.903891 -0.8736709 -0.2073559 -0.49622068 -0.36425042 -0.7788906
-0.06131181 -0.1914383 -0.8647716 -0.8265393 -0.44712618 0.13724785 -0.44201756 -0.45746392
-0.6816789 -0.92264545 -0.3071733 -0.5893423 -0.48365813 -0.3331331 -0.25016886 -0.44007447
-0.23246981 -0.4569385 -0.52617025 0.021006044 -0.8130839 -0.1588454 -0.1700764 -0.23861918
-0.31044558 0.26452854 -0.33831906 -0.093720004 -0.15145834 -0.5398323 -0.75760144 0.097530305
-0.32411268 0.08196751 -0.7284329 -0.65251803 -0.14755167 0.10221009 -0.7549916 -0.20293947
0.9307763 0.085923195 -0.55207044 0.44023445 -0.08343915 1.4037462 1.3043559 -0.20518726
0.03226829 0.5547609 0.97227913 0.8167866 -0.08978737 -0.78971374 -1.232004 0.09389357
0.9282064 -0.66925395 -0.5393198 -0.96536005 1.9485129 1.7175494 1.3521426 0.53271186
0.18649651 1.1061422 -0.8036315 1.6062162 1.1405443 -0.261728 -0.16882858 -1.0213456
-0.6173477 -0.87144095 0.4642721 -0.5206683 0.5492781 -0.6437484 1.7302811 -0.034358043
1.0323962 2.0762954 1.3623985 0.8266339 -0.23291743 1.4968095 -0.751956 0.87634754
1.6510935 -0.52295876 1.8838973 -0.09019413 0.23941381 0.6787014 -0.011384157 -0.80162776
-0.52876955 -0.09275821 1.8226537 0.4802111 -0.5761112 0.5263829 0.26725855 -0.62200105
0.11057859 0.05292004 -0.18138213 -0.045268375 0.09104617 0.11164912 0.04377923 -0.09363106
0.022984825 -0.049930178 -0.11445942 0.06982922 0.08042818 -0.01842222 -0.10640524 -0.15742072
0.00039247575 -0.01883463 0.06769282 -0.35129264 -0.094601735 0.023447717 -0.1213982 0.21495935
0.031030329 0.021349493 0.18903165 -0.019094799 0.03387832 -0.069241755 -0.07306626 0.07135053
-0.15683141 0.03080633 0.06272875 -0.08932784 0.24511382 -0.13646969 0.012544044 0.028019054
-0.07721228 -0.055862233 -0.15536365 0.039393887 0.30914268 -0.020142054 0.00061527884 -0.003917694
-0.059346996 0.0677111 0.20980635 0.116071224 0.072336346 -0.0055800946 0.12773286 0.17564104
-0.020648945 0.21129227 -0.05221879 -0.06805242 -0.038932875 0.133187 0.13726208 0.043165796
0.59252965 -0.047810987 -0.7478696 0.33798656 -0.83051544 1.2604637 0.5388711 -0.06948734
0.16063237 0.7850999 0.7668337 0.8268419 0.6523893 0.43270093 0.50166196 -0.45118955
1.3128009 -0.43424648 -0.042524237 -0.107810825 1.2699724 1.9743534 1.0845505 0.21739486
0.6674118 0.4099028 0.2378084 0.9976904 1.1151615 -0.7945418 0.79342574 -0.21685994
0.3374923 0.12452893 -0.26563022 0.584376 0.46413717 -0.12967703 1.367463 -0.12162816
0.7899767 0.9410299 1.1071441 0.53464997 -0.4725743 1.1796837 -0.114051625 1.0342487
1.4758433 0.20631254 1.5066286 0.39289072 0.63886726 0.4094654 -0.3564599 -0.2602194
0.008950575 0.54037285 0.93624604 0.48381475 0.23370093 0.94953406 -0.51655924 -0.17933859

bias_hh_l0 f4 [256]
00000000: 025b d4bd 490a 41bc 82c1 f8bd 962d a5bc
00000010: b8ef ebbe 859b afbe 0f8e 043d 99c2 0bbf
00000020: 8601 bbbe 5704 1cbf 2398 37bf bd2c 88be
00000030: 2056 03bd 0312 3abf e12a 4dbf 0eee 3dbf
00000040: 4969 04bf b3b2 2cbf 7cba 3ebf 7370 86bf
00000050: 2e47 9fbe 6e39 0dbf aea3 bfbe fbbc 69bf
00000060: 5ad0 84be 6b31 b4be 10aa 53bf ac4b 4ebf
00000070: 7639 e2be d561 c83d 91f9 19bf 1582 f9be
00000080: 32fb 2dbf 4902 76bf d839 92be 1161 fabe
00000090: 9435 03bf d2a4 a7be 62d3 c0be e71b 78be
000000a0: c175 ebbe 9ca6 8cbe e447 3cbf 9298 06be
000000b0: fa94 56bf 4b69 4cbe 9c9b 10bd ebec 88be
000000c0: 249e cabe 382e 463e de72 fbbe 267a 30be
000000d0: ac51 71be fcb6 07bf 7c4c 21bf e408 853c
000000e0: 98f3 97be 3e64 c03d 3b17 34bf 78c8 06bf
000000f0: a086 fcbd 138e 103e fc4b 6ebf f554 a8bd
00000100: e398 893f 3ef6 f3bc 8f60 0abf 24bd 073f
00000110: 3101 d0bd a70e b93f 8d23 973f d623 21be
00000120: 47db 433d 226b fb3e f9b5 893f 4541 683f
00000130: cd83 87bc 44a0 4fbf 352f 99bf 76c0 52bd
00000140: 23f6 763f 9eff 39bf fe48 a8be 2b11 6bbf
00000150: d9c7 f03f dfc5 ef3f 5136 903f cb18 ef3e
00000160: ff0f af3e 0b19 a53f 0785 2abf 3efb ce3f
00000170: fb42 943f da44 aabe e9d6 f2bd 8a2d 65bf
00000180: eaab 15bf 8710 51bf a278 123f 1f82 96be
00000190: 5192 113f 8d19 41bf a8bf e33f 95e5 313d
000001a0: 92d9 953f e8c7 0340 6e1b c13f 441b 463f
000001b0: ffe8 64be 68eb d33f 7f74 3abf 19a3 5f3f
000001c0: 0189 d63f 012c b8be f740 0040 af34 3fbe
000001d0: 2e98 1c3e 1576 553f 6a17 173e d657 5bbf
000001e0: 8d6e 26bf c2a6 73bd 711c f43f c899 263f
000001f0: a79c 16bf 1b83 ef3e b227 a93e 2b24 27bf
00000200: 08dc 363d 76ef 4f3d 44a0 883c d906 a9bd
00000210: 3d7c 763d 516e 8e3d 792f cebd ccd4 d5bd
00000220: 9a67 c53d e5f9 313e 9980 86bd 7f8f 40bd
00000230: 5d7e 0e3d 46c4 223e 6082 b9bd 74e2 c6bd
00000240: b73c dbbd 81d3 263d 32d9 48bb a403 babe
00000250: 11d6 b43d bc6a 193e 6133 3abd 8477 ab3e
00000260: d6bc 813d 8d09 2c3e 851c 6a3e 1603 033d
00000270: 965e ca3b 2c77 9ebd 1dd3 7fbe bf6a c83d
00000280: a4f5 1dbd bc63 d4bd 9a4c 5c3d 8aef a1bc
00000290: 70d8 643e bbea eabd a25d 8c3b f2c3 f13c
000002a0: 55a4 cfbd 5c44 7dbd 72fa b43b df70 443e
000002b0: fe31 4f3e 2ae2 64bd 38e8 1a3d 4b96 8bbd
000002c0: 48fd 5c3d abe6 17bd a36c 833d e3dd 0a3e
000002d0: 68b9 803c eff8 42bd 8c9c f53d 0e4d c43d
000002e0: cda0 75bd 8ee9 243e 67ce acbd 4921 2f3d
000002f0: d60d e5bd 61e5 bc3d ab22 173b d0e2 cdbc
00000300: 110e 283f 9e5f 0fbd 0bd3 31bf 47c8 a93e
00000310: 373b 37bf 92bb 983f 93e8 0c3f 1781 70bd
00000320: 663c af3e 36ac 253f 3a49 113f f76e 6e3f
00000330: b8cf 193f f628 803e 18ab 203f 0295 04bf
00000340: 70d4 b33f d6b8 cabe 83f0 abbc b683 28be
00000350: dae2 9b3f 4dee ea3f 38b2 7d3f d49f 6c3e
00000360: 6ddc 523f 74b2 dd3e 288a 143e 04ec 813f
00000370: f6fc a63f 586e 43bf 7f78 523f a98d 9fbe
00000380: 6271 893e bac7 4e3e 01ac bebd ee01 ec3e
00000390: cb05 343f cb89 9ebe 7d7e 9c3f a651 d5bd
000003a0: 267b 2e3f a1ba 683f cf88 763f b667 073f
000003b0: f617 94be 9bf4 a03f 5ef8 d13d 10a6 8b3f
000003c0: f2ab c43f a7c3 d83d ff8a c53f 0ee1 d73e
000003d0: 95e5 273f 248a f23e 67fe c4be 7e0e 8fbe
000003e0: afea 033e d6d3 023f 277c 5d3f 4d2e 0a3f
000003f0: 0a12 a03e b504 3e3f 596d 16bf 65a6 15be
-0.10368921 -0.011782237 -0.12146284 -0.020163339 -0.46081328 -0.3429834 0.03236204 -0.5459381
-0.365246 -0.6094412 -0.7171652 -0.26596633 -0.032064557 -0.72683734 -0.80143553 -0.7419137
-0.5172315 -0.67460173 -0.745033 -1.0503067 -0.31108993 -0.55165756 -0.37429565 -0.91303986
-0.2594021 -0.35193953 -0.8268137 -0.80584216 -0.44184464 0.09784285 -0.60146433 -0.48732057
-0.6796142 -0.96097237 -0.28559756 -0.4890218 -0.5125363 -0.32742935 -0.37661272 -0.24229394
-0.45988277 -0.27470863 -0.73547196 -0.13144138 -0.8382107 -0.19962041 -0.03530465 -0.26743254
-0.39573777 0.19353569 -0.49111074 -0.17234096 -0.23566312 -0.53013587 -0.6300733 0.016239591
-0.29678035 0.0939412 -0.70347947 -0.5264964 -0.12330365 0.14116697 -0.9308469 -0.08219329
1.0749782 -0.029780503 -0.54053587 0.5302298 -0.10156477 1.4457597 1.1807724 -0.15736327
0.04781654 0.49105173 1.0758659 0.90724593 -0.01654234 -0.8110392 -1.1967531 -0.051453076
0.96469325 -0.72655666 -0.3286819 -0.9182307 1.8810989 1.873226 1.1266576 0.46698603
0.34191892 1.2898268 -0.66609234 1.6170423 1.1582941 -0.33255655 -0.11857397 -0.8952261
-0.58465445 -0.81665844 0.5721532 -0.2939615 0.56863886 -0.7542961 1.7792864 0.043431837
1.1707022 2.0590763 1.5086496 0.77385354 -0.22354506 1.6556215 -0.7283401 0.8735824
1.676056 -0.35971072 2.0039651 -0.18672441 0.15292427 0.83383304 0.14755026 -0.856809
-0.6501244 -0.059485205 1.907118 0.650784 -0.5883278 0.46779713 0.33038098 -0.6528956
0.044643432 0.050765477 0.016677983 -0.08253259 0.060177077 0.06954635 -0.100676484 -0.104409784
0.09638901 0.17380483 -0.06567497 -0.04701185 0.03478848 0.15895185 -0.0905807 -0.09711161
-0.1070494 0.04072905 -0.0030647037 -0.36330903 0.088298924 0.14982122 -0.045459155 0.3348962
0.06334846 0.16800518 0.22862442 0.031985365 0.0061758263 -0.07737574 -0.24982877 0.09785985
-0.03856434 -0.10370585 0.05378399 -0.019767541 0.2234819 -0.114705525 0.004283623 0.02951238
-0.10138766 -0.06183277 0.0055230195 0.19183682 0.20233914 -0.05587975 0.037819117 -0.068157755
0.053952485 -0.037085216 0.06417205 0.13561206 0.015713409 -0.047600683 0.119927496 0.095850095
-0.059967805 0.16104719 -0.084378056 0.042756353 -0.111842796 0.09223438 0.0023061435 -0.025132567
0.65646464 -0.035003297 -0.6946265 0.33160612 -0.7157473 1.1932242 0.5504238 -0.05871686
0.34225768 0.647159 0.5675236 0.9313807 0.6008258 0.2503125 0.6276107 -0.5178987
1.4049206 -0.39594144 -0.020988708 -0.16456494 1.2178605 1.8353974 0.99100065 0.23107845
0.82367593 0.4330021 0.14505827 1.0150151 1.3045948 -0.76340246 0.8221511 -0.31162766
0.26844317 0.20193377 -0.09310151 0.46095222 0.7032134 -0.30964503 1.2226101 -0.10415964
0.6815666 0.90909773 0.96302503 0.52892625 -0.2892453 1.2574648 0.102524504 1.0910053
1.5364974 0.10584193 1.5433043 0.4216389 0.6558469 0.47371018 -0.38475344 -0.27940744
0.12882493 0.51104486 0.86517566 0.539769 0.31263763 0.7422593 -0.587606 -0.14614256

weight f4 [15, 64]
00000000: d18d 123f 6afe b93c 6a0d 403e b12e e4bd
00000010: dafe 00bf 1fc3 da3b 7b4c a23e 8664 38be
00000020: 67d9 76bf e913 ecbe 806b 853c cccb 47bf
00000030: 3981 1ebf 8d8c aebd c6e4 103d 25e2 243f
00000040: bfc3 0c3d dbcf 12bf 2ed4 253d 780d 91be
00000050: eaa3 163f e1a0 79bf 1a78 f33c 598c c0be
00000060: ed63 e73e 1358 dabc 3b11 a93e 8c91 d1bd
00000070: f95d 1cbe dedb 063e b884 283e adba bb3d
00000080: b59e 00be 1d28 ccbe 0851 d53d c2c3 91be
00000090: da98 84bd 6b68 c93e b680 81ba 11b1 be3c
000000a0: 5871 26bd da70 c5be d4b2 cdbd 0a9a 9c3d
000000b0: 71dc be3e 7a20 c6bd 4456 df3d d4d4 56be
000000c0: 01fd 073f e72a d4be 4ec0 873f c999 76bd
000000d0: afee 4f3f f014 1dbe eb88 c73e dd67 17be
000000e0: fd5e 28bd b563 29bf 6e26 d13e 7620 b43e
000000f0: ce39 c03c f617 023f 6eca ca3e 1aa6 05be
00000100: 6f0c 393f 4e90 3bbf 6f6d 65bf 8fe9 57be
00000110: 9f8b c7be 23bb 363f 1627 2a3e 07c9 aabf
00000120: 3738 313f 3545 903e 4c82 0d3f 7aeb 373e
00000130: d67b fb3d 5c89 b9bd 1c1b c73d fac3 bc3b
00000140: 20d2 3abe 2730 3a3f bcb1 e3be 6196 80bd
00000150: 30b2 483f 368a 073e 75bd c1bd 111a fe3d
00000160: b89e 6d3e 92b5 51be 9548 73be 5bb8 d93e
00000170: dbaa b73b bb24 1e3e 5d72 93bd b334 333f
00000180: 7b33 65be 3b91 14be b973 f2bd b48b abbe
00000190: bee5 a2be 1da1 1b3f 9c3a 21bf bffe 2c3e
000001a0: 80ef a8be 3105 57bf ad51 cd3e 23fd 18bf
000001b0: 8a18 e13e 950a acbe d01c 623c 08d3 543f
000001c0: 8a14 86bf 887f 5abe 38b6 a53e 6073 2ebd
000001d0: 7730 913f d64c 32be 9f54 303e a2e8 923e
000001e0: eaba 88bb 9771 b03e b881 51be 4524 953e
000001f0: dcc9 093e df67 a0be f38d ed3e 015a 38be
00000200: 86f6 08bf 77ff 48bf 0d0f 4a3f 8973 7dbf
00000210: 04ac 053f 23d8 fbbe f01d 18bf 926b 1cbf
00000220: a61d 733e 655c 2d3d 05ff 11bf dbf1 36be
00000230: c0ec 05bf 6e3a 74bd 3f0c c3bd 41d6 8b3e
00000240: e147 1dbd 752e 9f3d f3d9 023f 1ea7 bdbe
00000250: a68d a6be 0186 09bf c50c e1bd ae15 b93d
00000260: 7f25 31be 0ccb db3e 5cde b1bd e46c f2be
00000270: 9e13 1fbe 08be ac3e e9a4 c8bc e0a1 da3c
00000280: 484f 383c c776 3f3e 3f2f cd3d 3496 1f3f
00000290: 5570 d13e d4c2 263f 6e02 ecbe ed08 723f
000002a0: 189d c8be 4891 9cbc 06c5 603e db47 1a3f
000002b0: 3c4a 6cbe 000f f53e 7c3e a4be b342 733e
000002c0: 8a54 dd3e d446 54be 2f9f b63d 3e7b 783e
000002d0: 70e7 a93d e4ba 003f 64ff 2abe 4b17 f33e
000002e0: 3514 24bc 4612 a03e 3a73 9c3d bc54 703e
000002f0: fedf 2cbf 04be 62be bb88 14bd 3a9a 8a3d
00000300: fc48 47bc ca94 75be 692b 23bf aaee abbe
00000310: 509a c33c e9bf de3e c3dc 483e d8bd 893d
00000320: 030d c4be 45c7 91bf 3d5f 4b3e dc1b 34bf
00000330: 6df2 203e 55fc b23e 4bd4 97bd 1dce 0dbe
00000340: f5f0 603d 1ecb bebe e068 6fbf 6ee2 1a3f
00000350: 834e efbe 12e7 7e3e 5296 50bf 2aff e3be
00000360: 18b7 4cbd d355 293f 47a2 97bd 27da 59bf
00000370: fdb1 a7bc 55f4 77be 0f78 9abd d513 d4be
00000380: 3dc8 38be bafd 86bd e87d 9ebd 55ad 443d
00000390: 158f 5cbe 1449 8a3d aeb6 7f3f 4df2 5f3f
000003a0: 8324 253f 41d1 cebe 43e4 443f 0b33 20bf
000003b0: cb14 8d3e dc33 87be 2bba b33c 455a d6be
000003c0: 389d 0abf ac0b 99be 6aaa 173f 3b4c ae3e
000003d0: c348 57bf 26af 6fbd 94dd a53e d822 d23e
000003e0: 6b90 1cbe 9b09 3fbe bc49 70bf 3198 64be
000003f0: b2c2 ac3d 5d1d cbbe f93a 113f 8bab 073e
0.57247645 0.022704322 0.18755117 -0.11141718 -0.5038887 0.0066760923 0.31698975 -0.18007097
-0.9642548 -0.4610894 0.016286612 -0.78045344 -0.6191593 -0.08522902 0.035374425 0.6440757
0.034366366 -0.5734841 0.040485553 -0.28330588 0.58843863 -0.97511107 0.029720355 -0.37607077
0.45193425 -0.026653325 0.33020958 -0.10232839 -0.15270223 0.1316981 0.16456878 0.09166465
-0.12560542 -0.39874354 0.10415846 -0.28469664 -0.064744666 0.39337477 -0.0009880278 0.023277791
-0.040635437 -0.3856266 -0.100438744 0.07646568 0.37277558 -0.09674163 0.10905126 -0.20979625
0.5312043 -0.41438982 1.0605562 -0.060205255 0.8122358 -0.15340018 0.38971648 -0.14785714
-0.041106213 -0.66167766 0.40849632 0.35181016 0.023465063 0.5081781 0.39607567 -0.13051644
0.722846 -0.73267066 -0.8962011 -0.2108519 -0.3897371 0.713793 0.16616473 -1.3342599
0.692264 0.281778 0.5527694 0.17960921 0.12279479 -0.09059402 0.097219676 0.005760667
-0.18244219 0.72729725 -0.44471538 -0.062786825 0.7839689 0.13236317 -0.09459964 0.124073155
0.23205078 -0.2047942 -0.23758157 0.42523465 0.0056050844 0.15443699 -0.071995474 0.7000229
-0.2238292 -0.14508526 -0.118384786 -0.33505023 -0.31815904 0.60792714 -0.62980056 0.16894053
-0.32995224 -0.83992296 0.40101376 -0.59761256 0.43964034 -0.33601823 0.013800815 0.8313451
-1.0475018 -0.21337712 0.32365584 -0.0425905 1.1342915 -0.17412123 0.1721978 0.2869311
-0.0041726725 0.34461662 -0.2045964 0.29129234 0.1345591 -0.31329247 0.4639736 -0.18003084
-0.53501165 -0.7851481 0.78929216 -0.9900442 0.522156 -0.49188337 -0.5942068 -0.6110164
0.23741779 0.042324442 -0.57029754 -0.17865698 -0.52314377 -0.059626035 -0.0952382 0.273119
-0.038398627 0.07772533 0.51113814 -0.37041563 -0.32529944 -0.537201 -0.10988764 0.09037338
-0.1729946 0.4292835 -0.0868499 -0.47348702 -0.15534827 0.33738732 -0.024492698 0.026688516
0.011249371 0.18697654 0.10018777 0.62338567 0.40906015 0.65141034 -0.46095604 0.9454487
-0.39182353 -0.019112244 0.21950158 0.6026589 -0.23075193 0.47863007 -0.32078922 0.23755912
0.4322856 -0.20730144 0.089170806 0.24265763 0.08296096 0.5028517 -0.16698986 0.4747871
-0.010014583 0.31263942 0.07639165 0.23469824 -0.67529285 -0.22142798 -0.03626321 0.06767698
-0.012163397 -0.2398254 -0.63738114 -0.33580524 0.023877293 0.4350579 0.19615464 0.06725663
-0.38291177 -1.1388937 0.1986055 -0.7035501 0.15717478 0.3495814 -0.074135385 -0.13848157
0.054917295 -0.3726434 -0.935194 0.60501754 -0.46739587 0.24892834 -0.8147937 -0.44530612
-0.0499793 0.6614658 -0.07403999 -0.850985 -0.020470614 -0.24214299 -0.075424306 -0.4142138
-0.18045135 -0.06591363 -0.077388585 0.048016865 -0.21538956 0.0675222 0.9988812 0.87479097
0.6450884 -0.40394023 0.769108 -0.62577885 0.27554926 -0.26406753 0.021939358 -0.41865745
-0.54146147 -0.29891717 0.59244406 0.34042534 -0.840954 -0.058516644 0.32395613 0.4104221
-0.15289466 -0.18656008 -0.9386251 -0.22323681 0.08435573 -0.3967084 0.5673061 0.13249032

bias f4 [15]
00000000: 19be c6bc 6212 86bd 0b95 59bd 7b83 89ba
00000010: 22b2 863d 2722 47be c794 80be 2ac5 e03c
00000020: 25e0 693e e8d5 47bb 286f f9bb e961 e83c
00000030: ccb4 a1bc fa55 cbbd f883 efbb
-0.024260568 -0.06546475 -0.053120654 -0.0010491455 0.06576945 -0.19446622 -0.25113508 0.027437765
0.2283941 -0.0030492488 -0.007612128 0.028367 -0.019739531 -0.09928508 -0.007309433
