src/grinding_system_python/model/model_cart.pth (torch, 223559 bytes, 10 tensors)

weight_ih_l0 f4 [256, 15]
000000 a4 07 84 3e cb 89 a5 bf 0b 91 7b 3f fc 46 ce be
       0.2578708 -1.2932676 0.98268193 -0.40288532
000010 3a 00 70 be c9 d0 09 3f a7 57 81 be 8e 97 5d be
       -0.23437586 0.53834206 -0.25262186 -0.21639845
000020 87 4f 8d bf 43 2b 3d be 1b 93 76 bf 9c d7 ad 3f
       -1.1039895 -0.18473534 -0.96318215 1.3581424
000030 a3 72 e0 be b8 39 85 3e 1b bb ab bf d6 1d ef 3b
       -0.4383746 0.26020598 -1.3416475 0.007297258
000040 8e f0 eb 3f 11 30 01 c0 6f 29 09 40 4b d7 d0 bd
       1.8432786 -2.0185587 2.143154 -0.10197314
000050 e6 c8 7f 3e c3 f7 b4 be a4 9e 9b 3f 7e 7a 9e 3f
       0.2497898 -0.35345277 1.2157788 1.2381132
000060 35 bb 36 bf 58 ad 23 3f 0d 21 27 bf 9e 04 30 3f
       -0.71379405 0.63936377 -0.65284806 0.68757045
000070 71 43 13 3f 5f 47 32 bf 88 41 06 bf 1a 67 2f 3e
       0.5752478 -0.69640154 -0.5244374 0.17129174
000080 00 69 2f bd 7a 00 71 3d fa f4 18 3f 42 29 34 3e
       -0.042824745 0.058838345 0.59748805 0.17593864
000090 a8 fc b3 be f4 de 37 3f 8d 10 c1 be d4 6b 37 be
       -0.351537 0.71824574 -0.3770794 -0.17912227
0000a0 5e db a4 be 4b b0 6a 3e 2d b9 1f 3d 3b 4e 95 3e
       -0.32198614 0.22918813 0.038994957 0.29161248
0000b0 0e 07 75 3f d0 67 4e 3f af 57 49 3d cb cf ee be
       0.9571389 0.80627155 0.049155887 -0.46642908
0000c0 4e 1a dd 3e 5e ef 3a bf 61 b8 29 be 77 a0 79 bf
       0.4318413 -0.73021495 -0.16574241 -0.97510475
0000d0 38 92 57 3f fe 3e c4 3f 79 44 6c 3f b6 c3 3b bf
       0.8420749 1.5331724 0.9229198 -0.73345506
0000e0 69 d3 60 3e d5 1d f5 3e e3 e2 32 bf bf 86 c9 3d
       0.21955647 0.47874323 -0.6987745 0.09840154
0000f0 b3 4e 0f be ea e3 b5 be 9a 12 9f 3d 58 47 a3 3c
       -0.13994865 -0.35525447 0.0776722 0.01993148
000100 73 27 96 3e 85 17 2c 3e 14 73 cf bf 51 36 4e bf
       0.29326972 0.16805847 -1.6206994 -0.8055163
000110 75 85 fc be a8 b7 55 3e 96 99 e4 3e 81 10 9a be
       -0.4932057 0.2087084 0.44648427 -0.30090716
000120 ba 5d 02 3e 84 83 99 be 5a 83 ba 3d 0a b0 ba be
       0.12731066 -0.2998315 0.091070846 -0.36462432
000130 57 ca 99 be 8f 7f 1d 3f c0 64 ed be 0d 06 53 3e
       -0.30037186 0.61522764 -0.4636593 0.20607777
000140 8f 5a 4a 3f a4 56 00 3c b2 3f 2f 3f bc de 6e 3f
       0.7904443 0.007833157 0.68456566 0.93308616
000150 96 79 e0 be 2c d6 b9 bf 70 76 bd 3f 24 18 93 bf
       -0.43842763 -1.4518485 1.4801769 -1.1491742
000160 4b a9 f8 3e e3 61 31 bf d0 ca 87 3e 7e 42 86 3f
       0.4856666 -0.6928999 0.2652192 1.0489042
000170 92 3f c4 be 31 a6 75 be b1 0c 3e be e2 90 b7 3e
       -0.3832975 -0.23989178 -0.18559529 0.35852724
000180 17 19 b5 3f 20 9c 93 bc 73 a0 17 be ea 53 f9 3e
       1.4148282 -0.018018782 -0.148073 0.48696834
000190 15 0d ea 3e 3b 61 98 be 50 39 b9 3e 52 66 04 bf
       0.45713106 -0.2976168 0.36176538 -0.5171863
0001a0 fb e0 82 3f a0 8f 0f 3e e4 47 4c bf ef 49 3e 3f
       1.0224909 0.14019632 -0.79797196 0.74331564
0001b0 81 d0 16 bf 80 1a 8e bd 26 15 f9 3d f9 53 1f 3e
       -0.589119 -0.06938648 0.12162237 0.15559377
0001c0 a3 b6 6b 3f 3b c7 80 3f ec ed 5c bf 47 15 88 3d
       0.92075557 1.00608 -0.8630054 0.06644683
0001d0 bd b3 61 be 45 57 c8 3e c4 f2 45 3f c6 52 89 3d
       -0.22041221 0.3912908 0.77323556 0.06705241
0001e0 4f e2 dd bc a4 0e 8f bf 7f b7 aa 3f 9c d4 b0 bf
       -0.027085451 -1.1176343 1.3337249 -1.3814883
0001f0 b2 ae 04 3e 35 89 20 be e3 5c 36 be 6b 3e a7 3e
       0.12957266 -0.1567734 -0.17808871 0.3266481
000200 80 ce 2a 3e f2 c8 15 bf ef 7c 83 bf 06 ca c0 3f
       0.16680336 -0.58509743 -1.0272502 1.5061653
000210 c9 5b b5 bf 47 82 31 3f d0 23 7b bf 9f fd 4f be
       -1.4168636 0.6933941 -0.9810152 -0.20311593
000220 5e 4c 12 c0 8f 98 de 3f dd 88 96 bf e7 41 a0 bc
       -2.285911 1.7390307 -1.1760517 -0.019562675
000230 0e 9e ee be 83 2b a8 bf c3 d8 ab be b2 a4 35 bf
       -0.4660496 -1.3138279 -0.33563814 -0.7095443
000240 c8 ea db 3d 94 60 96 bf 11 a3 0d 3f d2 b9 64 3e
       0.1073814 -1.1748223 0.55326945 0.2233651
000250 46 b1 d5 bd bb 80 76 bf 6a c5 26 be cb fc 15 3e
       -0.10434203 -0.9629018 -0.16286245 0.14647214
000260 dd ab 2a be 4e 5b 83 3e 53 39 15 3e 9b b8 99 be
       -0.16667123 0.25655597 0.14572649 -0.30023655
000270 d5 20 a0 be 23 9e ac bf 4f b1 ac bf 7a 81 4e 3f
       -0.3127505 -1.348576 -1.349161 0.80666316
000280 3c 73 e4 3d 16 99 09 3f 26 bc 23 bf dd 8c 55 bf
       0.11154792 0.53749216 -0.63958967 -0.83418065
000290 e0 e5 0b bf 08 a9 1a bf 9a d5 1e 3f e2 70 27 3e
       -0.54647636 -0.6041417 0.6204468 0.16351655
0002a0 0b a2 9d be 06 68 11 3f 3e 50 24 bd f0 33 97 3f
       -0.3078769 0.5679935 -0.040115587 1.1812725
0002b0 65 80 68 be 70 be 4e bf 39 00 74 3f 11 98 b1 3f
       -0.22705229 -0.80759335 0.9531284 1.3874532
0002c0 94 4d 78 bf f1 3f 93 3e 13 82 65 bf 77 8c 4b 3f
       -0.96993375 0.2875972 -0.896516 0.7951121
0002d0 16 0c a0 3f 57 2b 97 be 35 e9 1e bf 42 b2 a5 3f
       1.2503688 -0.29525253 -0.62074596 1.2945025
0002e0 b5 33 9f bf bc 28 7f be fc a8 ab bf 6a da 66 bd
       -1.2437655 -0.24917883 -1.3410945 -0.05636064
0002f0 57 dc d2 bd 86 d4 98 be 6a 17 f1 3e 6a 60 79 bf
       -0.10295933 -0.29849643 0.47088176 -0.9741274
000300 2f da 6a 3f e9 6a a6 3e 58 97 de 3f c3 cd 7b 3e
       0.9173917 0.3250344 1.7389936 0.2459021
000310 cb 37 a8 be 48 17 52 bd c9 35 86 3e a6 c7 c2 be
       -0.32855067 -0.051291734 0.2621291 -0.38042945
000320 20 cc e7 3e c0 92 e2 3d 6b ab 99 3f b7 10 83 3f
       0.45272923 0.110631466 1.2005438 1.0239476
000330 cd 50 84 bf fb 64 a4 bf c0 20 b0 3f 6a 85 87 bf
       -1.0337158 -1.2843317 1.3759995 -1.058759
000340 89 e6 4f 3f 0a 29 4c 3f 10 17 c9 3e 39 c9 83 be
       0.81211144 0.7975012 0.39275408 -0.25739458
000350 05 4a 63 3f ea e1 95 bf ed 80 78 be 8f f0 13 bc
       0.8878482 -1.1709569 -0.24267931 -0.009029522
000360 be 81 1a 3f 48 31 55 3d b7 df d4 3d a8 38 c0 be
       0.6035422 0.05204895 0.10394233 -0.37543225
000370 39 ab 62 bf 32 1d dd 3f ba a8 e1 bf c9 8c 98 3e
       -0.88542515 1.7274535 -1.7629616 0.2979491
000380 15 5e 9e 3f 3d b8 bf 3e 6b f0 18 3e b4 87 8d 3e
       1.2372462 0.3744525 0.14935462 0.27642596
000390 bd 6c 97 be ae 45 9b be 1b 3f e6 3c 7a 91 40 3f
       -0.29575148 -0.303266 0.028106263 0.7522198
0003a0 43 4c 71 be ac a2 e1 be ed d2 b3 3e d4 e7 9d 3f
       -0.23564248 -0.4406942 0.3512186 1.2336373
0003b0 1a ec bf bf 50 a0 9f 3f e0 04 cc be 0e a8 7b bf
       -1.4993927 1.2470798 -0.3984747 -0.98303306
0003c0 6e ff 0b bf 6d 98 0c be 63 85 2f bf 4d c6 3c 3f
       -0.5468663 -0.13730021 -0.68562907 0.7374008
0003d0 7b 8a 00 3f 3a 6c 5c 3d e7 cb d0 be a4 82 64 bf
       0.50211304 0.05381415 -0.40780565 -0.8926184
0003e0 c4 5a 83 3e 04 82 8c be ab a7 4f 3e 90 ee 05 bf
       0.25655186 -0.27442944 0.20278804 -0.5231714
0003f0 a0 ff 59 3f d7 47 34 3e 10 b9 1e 3f e6 a3 90 3e
       0.8515568 0.1760553 0.6200113 0.28250045

weight_hh_l0 f4 [256, 64]
000000 66 17 8e 3f 97 d3 d7 bd f7 12 62 3f d0 cd 4d 3f
       1.1100891 -0.105384044 0.8831019 0.8039217
000010 de 60 c9 3d 62 6f 9e bd 0c 53 04 3f 9c c3 e0 3e
       0.09832929 -0.07736088 0.5168922 0.43899238
000020 42 a8 c7 be 58 86 46 bf fb 7b a3 bf 8e a2 1d bf
       -0.38995558 -0.7754874 -1.2772211 -0.61576164
000030 e4 57 a1 bf 36 37 44 be 64 0f 99 be a8 e6 c3 3e
       -1.2604947 -0.19161686 -0.29894555 0.38261914
000040 31 b8 09 3f 54 b8 aa bf 42 49 ad 3e d7 00 89 3e
       0.5379668 -1.3337502 0.33844954 0.26758453
000050 8e 9c b4 be b0 dc 30 bf 20 cd 41 bf ea 26 8c be
       -0.35275692 -0.6908674 -0.7570362 -0.2737344
000060 16 3d c8 bf ec 9e 1b bf b2 73 d7 be a2 a0 c3 be
       -1.5643642 -0.6078937 -0.42080456 -0.3820849
000070 46 8e 52 bf 4c 1d c9 3f 1f f6 aa 3d 84 5a 51 bf
       -0.8224834 1.5712066 0.08347725 -0.8177874
000080 7c 50 b5 3e 54 ab 4a bf 6f 54 82 bf d6 1a d8 bd
       0.35412967 -0.79167676 -1.0182017 -0.105519935
000090 94 df 79 3f 63 32 47 3f bb f4 ab bd 55 a0 17 bf
       0.9760678 0.7781126 -0.08396288 -0.5922902
0000a0 d0 15 b0 3f 8d 79 9f 3d 7f 4c 6f 3f 71 e9 16 3e
       1.3756657 0.07786856 0.934761 0.14737488
0000b0 a4 6c a6 3f c4 e1 14 3e 60 d1 f5 3c 8b 61 68 3f
       1.3001904 0.14539248 0.030007064 0.9077384
0000c0 3b 26 18 bf ce a2 47 3f 61 54 6b be e9 71 24 bf
       -0.59433335 0.77982795 -0.22981407 -0.64236313
0000d0 12 ed 61 bf 3b d2 44 bf c3 de 00 bf 39 9a eb 3f
       -0.88252366 -0.76883286 -0.5033991 1.840644
0000e0 ce 87 c5 3f db b9 b6 bf 25 27 61 3e 62 12 0b 3f
       1.5432069 -1.4275469 0.21987589 0.54324925
0000f0 5c cd 07 bf 3d 13 3b be d3 b5 20 3f 85 d3 c5 be
       -0.5304773 -0.18269058 0.6277744 -0.3863794
000100 ed 0b d0 bb 8e cc b6 bf d4 ff e4 be 3d 6c 22 3e
       -0.006349078 -1.4281175 -0.4472643 0.15861602
000110 a6 26 eb be aa 79 bd 3e 2f 86 b0 be a4 5c 58 3f
       -0.45927924 0.37006885 -0.34477374 0.8451636
000120 06 75 0c 3f 4d ad 19 bf 16 13 23 3f db e6 7a 3f
       0.54866064 -0.6003006 0.63701 0.9800851
000130 de c9 35 bf b6 b2 4a 3d 71 11 cd 3e 8c 38 c0 be
       -0.7101115 0.04948684 0.4005237 -0.37543142
000140 b5 85 0f bf e5 c0 a2 be cf 76 83 3e 4c 37 ed bf
       -0.56063396 -0.31787792 0.2567658 -1.85325
000150 0e e2 90 be c3 21 ec 3f 25 3d b7 bd b9 f2 0f 3e
       -0.28297466 1.8447803 -0.08947209 0.14057435
000160 4d fa 66 3d 6e 43 e2 3e 08 83 85 3f 03 ca eb 3e
       0.05639105 0.4419207 1.0430613 0.4605256
000170 48 d3 5a be cf 7c 0b 3f f9 14 72 bf 74 b0 a5 3f
       -0.2136966 0.5448732 -0.9456325 1.2944474
000180 89 36 99 3d 2e 26 9e 3e 7e 88 b4 be 60 07 bf be
       0.07481105 0.30888504 -0.35260385 -0.37310314
000190 43 cc 32 bf be 9c 2c 3f 92 0c 14 3f 23 8b 6c bf
       -0.6984293 0.6742667 0.5783168 -0.92399806
0001a0 f1 65 ab 3e 2b 1a 92 3e 0d 6b f5 bf d1 18 71 3e
       0.33476213 0.2853559 -1.9173294 0.23544623
0001b0 5e 1a 55 bf 60 a6 d9 3d 8b e7 81 3f 27 40 07 bf
       -0.8324336 0.10627437 1.0148786 -0.52832264
0001c0 b5 63 a0 be 9d 58 10 3f 28 33 3e 3f eb 69 00 c0
       -0.3132607 0.56385213 0.7429681 -2.0064647
0001d0 42 76 a2 3c 6c fd c0 3e d2 76 95 3f c7 cb 24 3f
       0.01983178 0.37693346 1.1676886 0.6437344
0001e0 eb df 8a bd 26 1b 86 bf 1e be a1 3f 85 5c 0e 3f
       -0.0678099 -1.0477035 1.2636144 0.55609924
0001f0 77 f4 59 3e b4 e8 92 3f a2 ab 45 bf 46 1a ce bf
       0.21284662 1.1477265 -0.77215016 -1.6101768
000200 14 d8 c0 3e 82 ec 60 3f d8 25 d4 bf ec fc c1 be
       0.37664855 0.8786088 -1.6574049 -0.37888277
000210 bd b1 c7 3e 5a a4 5a 3f 9d 6d 40 be 0a 39 d9 be
       0.3900279 0.8540703 -0.18791814 -0.4242633
000220 81 42 97 3e e1 4e ea 3e a4 b4 88 3e 3a e0 c7 3f
       0.29542926 0.45763305 0.26700318 1.5615304
000230 1e 2d 5d be 80 94 8f bf 41 9a 0f 3e 2e e6 9e be
       -0.21599242 -1.1217194 0.14023687 -0.31034988
000240 7c 2b 9d 3e e9 2c bb bf 97 c2 a7 bf 3d d9 80 3f
       0.30697238 -1.462308 -1.3106259 1.0066296
000250 f9 95 c9 be ac 8a 19 3e ce 74 2c 3d 11 03 06 3f
       -0.39372233 0.14994305 0.04210358 0.5234843
000260 5c df 2d bf 6c 03 e2 3f 0a c3 cc 3f a1 8c 6f bf
       -0.67918944 1.7657294 1.5997021 -0.9357396
000270 05 d8 3d bf 16 8d a1 3f 84 63 ac bf b7 33 85 3e
       -0.74157745 1.2621181 -1.346787 0.26016018
000280 40 d4 4c 3f a8 ee 5c 3f b1 68 5b 3f 14 f2 02 bf
       0.8001137 0.8630166 0.8570662 -0.5115063
000290 05 d4 bd 3e 76 cd 4c 3f 43 df c0 3e 8b c5 e0 3e
       0.3707582 0.8000101 0.37670335 0.43900713
0002a0 db 76 45 bf a0 f5 41 3e 1d 62 d8 be a6 85 82 3e
       -0.77134484 0.18941355 -0.42262354 0.2549259
0002b0 4b e3 e0 3e a8 65 20 be f9 69 dc 3f 7a 24 86 3e
       0.4392341 -0.15663779 1.721984 0.26199704
0002c0 83 37 83 bf 26 a4 e7 be 80 cc c6 3e bf 6c 1a 3f
       -1.0251316 -0.45242423 0.38827896 0.60322183
0002d0 8b d5 bc be b3 2e 0f bf 90 78 8a 3e 32 71 58 3f
       -0.3688167 -0.5593063 0.27045107 0.8454772
0002e0 58 1a 0e bf 0d 07 0c bf 00 79 b5 3e 68 6c 0f be
       -0.5550895 -0.5469826 0.35443878 -0.14006197
0002f0 e7 74 ae 3e ce 6d 0d 3d 1b 1e d5 bf a2 92 05 bf
       0.34073564 0.034528546 -1.6649812 -0.5217687
000300 a3 c0 77 bf 08 c9 a1 3e ef f3 2f 3f 9f 26 c9 bf
       -0.96778315 0.31598687 0.6873159 -1.5714911
000310 37 79 5f bd 0a 86 23 3f ca 5a f5 be 23 a2 04 bf
       -0.05455896 0.638764 -0.4792083 -0.518099
000320 d2 67 a6 bf a0 51 2d bf a4 c6 c6 3e 90 d4 5e be
       -1.3000433 -0.67702675 0.38823426 -0.21760774
000330 ea 82 50 40 a0 bb 17 bf 9f 4a bc bf e6 50 a6 bf
       3.2579904 -0.5927067 -1.4710273 -1.2993438
000340 71 b1 77 bf 1f a6 0d 3f e2 72 15 3f e9 c6 c7 bf
       -0.9675513 0.55331606 0.5837842 -1.5607578
000350 91 20 b9 3f cf 91 f9 3d c8 6b db 3f 41 1e 0d 3f
       1.4463063 0.12186014 1.7142267 0.5512429
000360 e0 5f de bd a1 92 95 3f f7 d6 8a be a0 bf 94 3f
       -0.108581305 1.1685373 -0.2711713 1.1620979
000370 5c db eb 3b a3 6a 56 bf aa a7 e9 3e 3d 34 db 3e
       0.0071977805 -0.83756465 0.4563573 0.42813292
000380 68 c8 34 be bd 0f 38 bf f9 ce bd be 0f 57 77 3e
       -0.17654574 -0.71899015 -0.3707197 0.24154304
000390 1c 6e a2 be b7 9a 87 bf a3 78 84 3f 94 18 48 3f
       -0.31724632 -1.059409 1.0349315 0.78162503
0003a0 d7 fe 74 bf 48 80 b5 3d a4 c6 d4 be 55 31 a7 bf
       -0.95701355 0.08862358 -0.415578 -1.306193
0003b0 ba d8 d7 bd a3 51 73 3d d2 38 a5 bf 38 24 5e bf
       -0.10539384 0.059404027 -1.2907965 -0.86774015
0003c0 72 cb 56 3f 78 31 2d bf 14 cb df be 03 69 d3 be
       0.8390418 -0.6765361 -0.43709624 -0.41291055
0003d0 36 01 82 3e 44 41 c3 3f 94 39 75 3e b8 c3 0f bf
       0.2539155 1.5254292 0.23947746 -0.5615802
0003e0 cf 4e ae bf 01 e1 19 3f 58 60 37 b9 c0 8a 3b 3d
       -1.36178 0.60108954 -0.00017488131 0.04578662
0003f0 9d fb b5 be da f1 66 bf 19 bb 8f bf d2 8c 96 be
       -0.35543528 -0.90212786 -1.1228973 -0.29404312

bias_ih_l0 f4 [256]
000000 cd cf 67 bf 43 2a 2a 3f 9f fa 35 bf 24 b6 83 3f
       -0.90551454 0.66470736 -0.7108554 1.028996
000010 5c fd 89 bf 57 d6 93 3e d8 08 f9 be ee e0 20 3e
       -1.0780444 0.28874466 -0.4863956 0.15710804
000020 7e bd 98 3e db a7 9d bf c7 18 9f bf 5f 58 22 bf
       0.2983207 -1.231685 -1.2429436 -0.63416094
000030 33 89 1f bf ed 79 cc be 02 e9 7b bd 01 5a 4b bf
       -0.62318724 -0.39936772 -0.06150151 -0.7943421
000040 55 22 3e bf 4a af a7 be f7 fd 48 3f b6 6c c7 be
       -0.74271137 -0.32750922 0.7851252 -0.38950127
000050 e0 db ca be fc 45 05 3e 57 fa 23 3f c2 f3 1f 3d
       -0.39620876 0.13014978 0.64053863 0.039050825
000060 2e 41 b3 bf 90 04 17 bd 78 11 60 bf e2 ab 4e bf
       -1.4004266 -0.036869586 -0.87526655 -0.8073102
000070 17 84 3f bf 50 85 f7 3d 4c 95 a8 bf f6 20 ea be
       -0.7481093 0.12085974 -1.3170562 -0.45728272
000080 69 f6 fb 3d 21 ab cd bf 1d 7b a1 bf 00 46 e4 bf
       0.123028584 -1.6067849 -1.2615696 -1.7833862
000090 ec 4c d2 3e 2e e4 2c 3c 68 98 af bf 4b 44 c7 bf
       0.41074312 0.010552449 -1.3718386 -1.5567716
0000a0 4b 7f d2 3e 3c 1f 67 3f 34 7b e2 3d 94 6d 68 3f
       0.41112742 0.90282035 0.110586554 0.907922
0000b0 1d 19 14 bd a2 c4 d7 bf 99 aa 30 bf 9b 2c 99 bc
       -0.036156762 -1.6856883 -0.6901031 -0.018698027
0000c0 f6 77 9f bf 74 74 19 3f 29 04 6f 3e 81 23 73 bf
       -1.2458484 0.5994332 0.2334143 -0.9497605
0000d0 54 bb 1e bf e1 cd 83 be db de d3 bf 83 3a 2e 3f
       -0.6200459 -0.2574301 -1.6552385 0.6805803
0000e0 17 64 2e 3e 20 11 3d be bb 1d 0b c0 ce 06 a3 be
       0.17030369 -0.18463564 -2.1736896 -0.3184113
0000f0 40 2f 81 bf bd 7e ce 3d 10 4b 10 bf 18 a4 e9 be
       -1.0092545 0.10082767 -0.56364536 -0.45633006
000100 8a a6 80 bf 78 b2 25 bf 17 22 03 bf 79 8e 23 bf
       -1.0050824 -0.64725447 -0.5122389 -0.6388927
000110 47 10 41 bf 10 7d 20 bc 0d 4c b1 bf db 21 82 be
       -0.7541546 -0.009795442 -1.3851334 -0.25416455
000120 9d 05 c8 3e 25 db 9d bf 27 2f 67 bf 8e 19 d7 be
       0.39066783 -1.2332503 -0.90306324 -0.42011684
000130 4b 2c b7 be fc 8a 2b bf 18 8d 94 bf 2e 83 e6 bd
       -0.3577598 -0.6700895 -1.1605558 -0.11255489
000140 2e 94 53 bf 93 04 68 bf 5d b1 53 bf 27 46 40 be
       -0.8264798 -0.9063198 -0.8269251 -0.18776761
000150 6b f8 a0 bf 6a a4 46 be 5b 9f 64 be 2c 11 ff bd
       -1.2575811 -0.19398656 -0.22326414 -0.12454447
000160 f4 1a cb bf 04 0b 32 bf 70 71 b1 3e 23 d0 47 bf
       -1.58676 -0.6954806 0.34656858 -0.78051966
000170 15 82 c9 bf a0 c9 a7 bf e7 a7 ba bf c8 c6 37 bf
       -1.5742823 -1.3108406 -1.458249 -0.7178769
000180 c1 81 1a bf 42 9a ac bf a9 71 7e bf 19 74 1e bf
       -0.6035424 -1.3484576 -0.9939218 -0.618959
000190 34 c5 b6 be 24 8f bf be d1 12 a5 bf b5 40 cc be
       -0.3569733 -0.37413895 -1.2896367 -0.39893118
0001a0 f3 a0 81 bd 1c 87 71 be ad aa c7 bf f0 68 b1 bf
       -0.06329527 -0.23586696 -1.5598961 -1.3860149
0001b0 7c 41 b5 bf b4 63 81 be 36 40 4c bf 64 db a6 bf
       -1.4160609 -0.2527138 -0.7978548 -1.3035703
0001c0 50 54 ea bf 17 83 8f 3d 5d 8c a9 bf 4f 97 bf be
       -1.830698 0.07007425 -1.324596 -0.37420127
0001d0 62 d8 85 bf d6 c5 74 bf 9e 47 c1 bf a4 25 47 bf
       -1.045666 -0.95614374 -1.5099981 -0.7779181
0001e0 5e f6 1a bf 40 b2 5e 3e ef 48 ad bf 3f 4b b8 bf
       -0.60532176 0.21747684 -1.3537883 -1.4397963
0001f0 ed 99 7c bf 6d 7a b3 bf e5 c1 a6 bf 11 ea 08 bf
       -0.9867237 -1.4021736 -1.3027922 -0.53482157
000200 87 e4 8e bd 40 c5 48 3f 45 a3 ac be 7d 6f ba bf
       -0.06977182 0.7842598 -0.33718315 -1.4565274
000210 8b f7 c8 bd 86 44 02 bf 7f b0 80 bf 99 38 bf bf
       -0.0981284 -0.5088581 -1.0053862 -1.4939147
000220 e4 aa 8b bf 92 08 29 3f a4 62 bc 3e f8 c8 a7 3c
       -1.0911527 0.660287 0.36794007 0.020481572
000230 0b 3f 97 3f 23 a4 1d bf 16 d6 a6 3e ed 65 30 bf
       1.1816114 -0.6157858 0.3258521 -0.68905526
000240 27 4c 68 bd eb 42 64 3f 6d 0e 28 bf cf 52 9d bf
       -0.05671325 0.8916461 -0.6564701 -1.2290896
000250 fe aa 1f 3f 9e 65 55 3f ae 71 e8 3f 63 7d 99 3f
       0.6237029 0.8335818 1.8159692 1.199139
000260 00 5f 6e 3f f0 b0 f7 3e b5 0c 85 be 97 f9 12 3f
       0.9311371 0.4837718 -0.25986257 0.57412094
000270 ef d4 06 3f 7c 4b c6 bf 53 42 b5 be e7 ab 34 3f
       0.5266866 -1.5491786 -0.35402164 0.705748
000280 65 35 7e bf 21 4c 7e be 9b b2 18 3e 87 45 53 3f
       -0.99300224 -0.24833728 0.14911883 0.82527965
000290 98 7a 92 bf 85 3c e0 be b5 41 81 3f 66 57 5b 3e
       -1.1443663 -0.43796173 1.0098177 0.21420059
0002a0 01 38 85 bf ea 40 f1 bf c3 a1 5b bf c4 05 fd be
       -1.0407716 -1.8847935 -0.85793704 -0.4941846
0002b0 2a b0 0c bf e7 43 f3 3d 68 33 5a 3f 7b e7 c3 3d
       -0.54956305 0.11878186 0.8523469 0.09565636
0002c0 2c 7b 8c 3f 15 cc a9 bf 68 91 a7 3c 93 9e 1b 3f
       1.0975089 -1.3265406 0.020455077 0.6078884
0002d0 dd a7 77 3f dd 08 13 3f d6 e9 fa bc 1a 72 8d be
       0.96740514 0.574354 -0.03062908 -0.27626115
0002e0 35 09 f3 be 81 61 0a 3f cb 91 e2 bd 96 9d 1b bf
       -0.47467962 0.5405503 -0.11062964 -0.6078733
0002f0 8a c9 0f 3f cd 5f 36 3f 41 58 bb be 7b 4c 31 3f
       0.561669 0.7123993 -0.3659077 0.69257325
000300 35 e4 a0 bf 3b 65 09 3e 65 a0 be bf 05 9c 4a 3e
       -1.2569643 0.13417523 -1.4892699 0.19786079
000310 05 cc bd bf 05 7e d6 3d ad 76 ec bd 70 4e 86 3e
       -1.4827887 0.10473255 -0.11546073 0.26231718
000320 d2 82 04 3f 3d c6 e8 be 0f 16 86 bf 96 50 d5 bf
       0.51762116 -0.45463744 -1.0475482 -1.6665218
000330 bd 80 22 bf d0 20 d9 bf d4 ae a3 bf de b2 21 3d
       -0.6347769 -1.6963139 -1.2787728 0.03947722
000340 78 04 0a c0 1d 60 a5 bf 94 8a 64 bf d7 d2 93 bf
       -2.1565228 -1.2919956 -0.89273953 -1.1548718
000350 ef 14 a3 bf 44 f8 0f bf 51 da 11 3e 77 f1 51 3f
       -1.2740763 -0.562382 0.14243437 0.8200907
000360 da 7a 3c bf 57 c6 14 bf 51 8e d4 bf 4e 0f 7d bf
       -0.73624957 -0.5811514 -1.6605932 -0.9885148
000370 81 6b cd bf 79 ef 0a 3f 8f 2f 7c bf f0 53 e6 be
       -1.6048433 0.54271656 -0.9851007 -0.44985914
000380 36 29 6a 3f e8 97 97 bf 8e ed ce bf f0 5a a1 bf
       0.9146913 -1.1843233 -1.6166246 -1.2605877
000390 f1 8d a9 3e 11 08 94 bf a1 00 52 bf e1 8b 97 3e
       0.33116105 -1.1564962 -0.8203221 0.29598907
0003a0 02 bc b9 bd ae 2e d8 bc 41 35 02 bf 83 32 7f bf
       -0.09069063 -0.026389446 -0.5086251 -0.9968645
0003b0 ae 06 bd bf f8 ae c4 bf db 32 85 be 76 32 8f bf
       -1.4767663 -1.5365896 -0.26015362 -1.1187274
0003c0 e0 18 f9 bf 4a 97 b3 be 88 86 66 bf af b2 de bf
       -1.9460716 -0.35076362 -0.9004903 -1.739828
0003d0 07 79 93 bd 48 6d 6b be 57 c0 82 bf 36 37 98 bf
       -0.072008185 -0.22990906 -1.0214947 -1.1891849
0003e0 42 3a 65 bf 53 cc 0d 3f 39 65 c4 bf 53 09 14 bf
       -0.8954202 0.553899 -1.5343391 -0.5782673
0003f0 d9 9e ab bf 0d 3f 88 bf a2 ce 2a bf 2d 50 d6 bf
       -1.3407851 -1.0644242 -0.66721547 -1.6743218

bias_hh_l0 f4 [256]
000000 c3 ae 7a bf d2 1c 4c 3f 1b a9 50 bf 93 6f 9c 3f
       -0.97922915 0.79731476 -0.81508034 1.222155
000010 51 2f 7c bf 45 e1 aa 3e cd fc 1e bf 42 87 18 3e
       -0.985097 0.33374992 -0.62104493 0.14895347
000020 3b b2 70 3e 1b ff a6 bf a7 fe 9c bf 7e ea d6 be
       0.2350549 -1.3046602 -1.2265214 -0.41975778
000030 ea 0e ff be ce c0 d4 be eb d1 d0 bd 92 96 47 bf
       -0.49816066 -0.41553348 -0.10196289 -0.7796413
000040 57 b4 30 bf 90 0d 01 bf 95 e6 43 3f 9e da 8c be
       -0.69025177 -0.5041132 0.76523715 -0.27510542
000050 99 14 f4 be bd e1 dc 3d c4 c9 0a 3f 7e 8c 87 bc
       -0.47671965 0.10785244 0.5421412 -0.016546484
000060 3b c2 a9 bf c5 31 11 be b0 85 52 bf 37 49 43 bf
       -1.32624 -0.14179142 -0.8223524 -0.7628359
000070 1c ba 63 bf 32 0e a7 bc d9 ab 94 bf ff ce 1a bf
       -0.88955855 -0.020392511 -1.1614944 -0.604721
000080 dd 39 1f bc a7 0c d4 bf e5 b2 9c bf 61 34 f3 bf
       -0.0097183855 -1.6566361 -1.2242094 -1.900036
000090 5a 1e 1f 3f 10 b2 c9 bd a0 07 bc bf 8e d1 b2 bf
       0.6215569 -0.09848416 -1.4689827 -1.3970201
0000a0 f3 00 cd 3e 94 e0 73 3f ee bd 1f 3e 2e 7e 4a 3f
       0.40039787 0.95264554 0.15599796 0.79098785
0000b0 e3 e9 94 3c 0d 5d d1 bf 01 24 34 bf 52 7a 49 be
       0.018177932 -1.6356522 -0.7036744 -0.19675568
0000c0 14 da bc bf 0f bf 07 3f 75 85 a3 3e 8a 36 50 bf
       -1.4754052 0.5302591 0.31937757 -0.8133322
0000d0 9a fd 23 bf 70 5c ba be 5a 47 d6 bf be 34 3e 3f
       -0.6405884 -0.3639865 -1.6740525 0.7429923
0000e0 bd 9d 63 3e 5b 39 24 be fb ad 04 c0 f8 7f af be
       0.22228141 -0.16037504 -2.073119 -0.3427732
0000f0 a8 28 8d bf be 6b e8 3d 14 a5 45 bf e5 ec c4 be
       -1.1028032 0.11348675 -0.77205014 -0.38461986
000100 ed f7 88 bf 0d 2d ed be 47 63 21 bf 93 ac 2e bf
       -1.0700661 -0.46323434 -0.6304211 -0.6823208
000110 58 f7 50 bf e8 1c 31 be ec 5a c3 bf 5f 7a e8 be
       -0.81627417 -0.17296183 -1.5262122 -0.45405862
000120 64 a0 c1 3e b9 19 94 bf 87 00 82 bf 70 f4 8d be
       0.3781768 -1.157035 -1.0156411 -0.27725554
000130 88 1f e2 be b7 a3 32 bf 29 f5 a1 bf ff 54 a1 bd
       -0.4416468 -0.6978106 -1.2652942 -0.0787754
000140 54 2f 55 bf a1 55 66 bf 92 d3 32 bf e6 7c 80 be
       -0.8327534 -0.8997441 -0.6985408 -0.2509529
000150 ee 87 b2 bf f7 0b 3d be e4 fd 22 be d2 8e 95 bd
       -1.3947732 -0.18461595 -0.15917164 -0.073026314
000160 8e 3d c7 bf 18 b0 27 bf 83 d2 de 3e e8 aa 45 bf
       -1.556566 -0.6550307 0.43519983 -0.7721391
000170 b5 2e d7 bf e2 93 9d bf d8 2f bb bf 4a 52 2d bf
       -1.6811129 -1.2310755 -1.4623976 -0.6770369
000180 1b 42 29 bf e8 05 b0 bf 32 db 74 bf 45 08 37 bf
       -0.66116494 -1.3751802 -0.95646966 -0.71496993
000190 a1 ad fc be d6 63 7b be 58 4b 9d bf 28 1e c7 be
       -0.49351218 -0.24549803 -1.2288618 -0.38890195
0001a0 fa 54 ea 3c 64 f2 0a be cb 07 c4 bf 7b 30 ca bf
       0.028604973 -0.13569027 -1.5314878 -1.5796045
0001b0 e7 31 c4 bf d9 97 85 be ac 26 2c bf 86 58 b4 bf
       -1.5327729 -0.26092413 -0.6724651 -1.4089515
0001c0 da ef e5 bf 0f 28 85 3e 8d f5 b8 bf 04 ce 00 bf
       -1.7963822 0.26007125 -1.4449936 -0.50314355
0001d0 11 dc 63 bf 84 bd 38 bf cf 82 b3 bf 05 a9 4e bf
       -0.8900767 -0.7216418 -1.4024295 -0.80726653
0001e0 61 2b ea be 88 58 c7 3d 2b 4e b1 bf 19 f1 b7 bf
       -0.4573622 0.09733683 -1.385198 -1.4370452
0001f0 40 f6 56 bf 5a 18 c2 bf 66 28 b0 bf 1b 82 bf be
       -0.839695 -1.5163682 -1.3762329 -0.3740395
000200 0c 2d 52 be 5a da 3c 3f 48 53 ce be 2a da b2 bf
       -0.20524997 0.7377068 -0.40297914 -1.3972828
000210 91 35 a0 3c 29 a8 3e bf b2 99 77 bf b7 9f b1 bf
       0.019556792 -0.7447534 -0.96718895 -1.3876866
000220 90 8a 91 bf 62 62 14 3f 17 0f b2 3e 1c 2c d0 bd
       -1.1370411 0.5796262 0.34777138 -0.10164663
000230 0c 57 9d 3f d0 17 10 bf c7 3b eb 3d 5e 37 2f bf
       1.229219 -0.56286335 0.11486011 -0.6844386
000240 36 ad 23 be bc cd 83 3f 4b a9 0b bf c3 3d a9 bf
       -0.15984043 1.029716 -0.54555196 -1.3221973
000250 45 96 11 3f 26 e3 40 3f 79 73 d5 3f 53 db a6 3f
       0.5686992 0.753466 1.6675864 1.3035682
000260 76 60 3d 3f 80 c3 c3 3e 20 c5 2d be 67 96 de 3e
       0.7397531 0.38235092 -0.16969728 0.43474123
000270 a9 36 0a 3f 8c 0a ca bf d7 85 7b be 8b a3 29 3f
       0.53989655 -1.5784469 -0.24562775 0.6626517
000280 27 25 72 bf 80 c2 e2 bd 60 0f 60 3e a7 55 73 3f
       -0.9458794 -0.11072254 0.21880865 0.9505257
000290 c0 7d 8d bf 7b 0e f6 be 6b db 57 3f dc fb 48 3e
       -1.1054001 -0.48057923 0.8431918 0.19627327
0002a0 dc 9e 86 bf 30 50 d8 bf af e6 62 bf 06 0b b7 be
       -1.051723 -1.6899471 -0.88633245 -0.35750598
0002b0 ef 32 c0 be 33 3b 2a bd 88 02 64 3f c9 87 5a 3e
       -0.3753886 -0.041560363 0.8906636 0.2134086
0002c0 94 7a 83 3f 0d b9 9a bf 2e e9 d3 bc 0b 6d 0a 3f
       1.0271783 -1.2087723 -0.025868025 0.54072636
0002d0 62 dd 70 3f c1 e9 39 3f 3c ca 6c bd 84 7a a7 be
       0.94087803 0.72622305 -0.057810053 -0.3271066
0002e0 32 8c ac be af b8 13 3f 1b d3 c0 bc 62 33 17 bf
       -0.3370071 0.5770368 -0.023538163 -0.5906278
0002f0 36 03 09 3f 32 7c 5a 3f 4a 7b 03 bf 11 f3 08 3f
       0.53520525 0.85345757 -0.5136 0.5349589
000300 7c 9c a8 bf 47 5f b8 3d b5 1d c0 bf ce 3b 80 3e
       -1.3172755 0.09002548 -1.5009066 0.25045627
000310 f4 25 cf bf 0f 03 3c 3e e7 5b 9f 3c 9f ed 3d 3e
       -1.6183457 0.18360542 0.019453002 0.18547677
000320 7c aa e6 3e 64 53 e0 be 81 09 85 bf 4d 48 e2 bf
       0.45051944 -0.43813622 -1.0393525 -1.7678314
000330 0f 4a 45 bf 7e 99 ca bf 47 2f a6 bf ce fc a8 3c
       -0.7706613 -1.5828092 -1.2983178 0.02062836
000340 b4 98 0a c0 bd a1 9d bf 37 bc 2f bf e1 93 8c bf
       -2.1655703 -1.2314984 -0.6864657 -1.0982629
000350 43 79 9f bf a3 43 31 bf 57 30 58 3e 2f 65 6f 3f
       -1.2458881 -0.6924383 0.2111219 0.9351377
000360 41 60 2d bf ea 9e 38 bf 15 9f c8 bf 56 2f 81 bf
       -0.67724997 -0.72117484 -1.5673548 -1.0092571
000370 b5 16 c8 bf ef c7 2b 3f 64 62 84 bf 9e 4c c2 be
       -1.563193 0.6710195 -1.0342526 -0.3794908
000380 b4 b9 61 3f ce 30 9e bf a0 c9 d0 bf 9e 56 a9 bf
       0.88173985 -1.2358644 -1.6311531 -1.3229558
000390 bd 9e cb 3e a3 fa a2 bf e7 14 4d bf 06 24 5f 3e
       0.39769545 -1.2732738 -0.8011002 0.21791086
0003a0 8e b4 b4 bd 7c 91 d1 3d b0 5e 05 bf 51 88 76 bf
       -0.088235006 0.10232827 -0.52097607 -0.9630175
0003b0 55 1e ae bf 7e 35 d3 bf 9c 54 67 be a7 9a 84 bf
       -1.3603007 -1.65007 -0.2259087 -1.0359696
0003c0 3f fd 01 c0 16 18 c5 be d1 a1 65 bf a8 1d d6 bf
       -2.031082 -0.3849494 -0.8970004 -1.67278
0003d0 89 74 57 be 40 4e 98 be 80 ae 89 bf d4 65 9d bf
       -0.21040548 -0.297472 -1.0756378 -1.22967
0003e0 5a f0 37 bf e3 64 0b 3f e1 f6 ca bf 1f 60 cb be
       -0.7185112 0.54450816 -1.5856591 -0.39721772
0003f0 ed 7a a3 bf 0f 9e 9f bf 79 39 15 bf 89 6a d5 bf
       -1.2771889 -1.2470111 -0.5829082 -1.6673137

weight_ih_l1 f4 [256, 64]
000000 ad 91 a0 3f a6 de 37 3f 94 84 44 bf 8b 79 6a bf
       1.2544457 0.7182411 -0.767648 -0.9159171
000010 da 31 8b 3e 9a 62 a4 be 3a 3a 95 3e 96 92 e8 3f
       0.2718647 -0.32106477 0.29145986 1.8169734
000020 30 5c 33 3f 9a 1c a8 3f 58 e2 cb 3d 9f b5 24 be
       0.7006254 1.3133729 0.09955281 -0.16084908
000030 87 c1 25 3e 0f f8 27 3d 15 b0 c6 be e7 9e a1 3f
       0.16187106 0.04100805 -0.38806215 1.2626618
000040 0f 62 99 3e 40 93 a9 3e 2f 4c 05 bf 46 d3 26 bf
       0.29957625 0.33120155 -0.5206937 -0.6516613
000050 c7 18 c4 3d 91 c6 bb 3e 9b 80 07 c0 0a 1f d6 3e
       0.095750384 0.36674932 -2.1172245 0.41820556
000060 5a 40 69 3f a7 bc 23 3f 0a 04 71 3e 3c eb 89 3f
       0.9111382 0.63959736 0.23536697 1.0774913
000070 5b 0e fa 3d 3f a5 1c 3e 54 d5 6d bf 8f 24 91 be
       0.12209769 0.15297411 -0.9290364 -0.28348204
000080 02 8f 34 3f d7 f1 45 bf ae dd 3a 3d 84 a4 9a 3e
       0.7053071 -0.77322143 0.045621566 0.3020364
000090 f0 11 87 bf 55 ee 07 bf e0 b6 39 3f 58 50 d9 3e
       -1.0552349 -0.5309804 0.7254467 0.4244411
0000a0 13 27 81 3f 10 9f 82 3f 43 ea 38 bf cf 23 73 bf
       1.009005 1.0204792 -0.72232455 -0.94976515
0000b0 6d df f6 bf 74 55 31 bf a5 8b 28 3f e9 50 79 3f
       -1.9286934 -0.69271016 0.6583808 0.97389084
0000c0 d6 5c 39 bf 66 2c 1a bf 88 12 07 3f bf 0a 89 3f
       -0.7240728 -0.60223997 0.5276265 1.0706404
0000d0 90 ff 60 be f2 a2 65 bf 66 eb d8 bd d2 cd 36 be
       -0.2197249 -0.8970176 -0.10591774 -0.17851952
0000e0 cb fc 97 3e 7f aa 03 3f cc e8 e1 3d 1d 41 9d bf
       0.29685053 0.5143203 0.110307306 -1.2285496
0000f0 61 96 a3 be cf d7 fd 3e 8c 9a 4d 3f 98 7d c7 bf
       -0.31950668 0.4957871 0.80313945 -1.5585203
000100 b8 64 df 3f 73 e4 ba bf 33 af 99 3f 49 4f e1 3f
       1.7452612 -1.4600967 1.2006592 1.7602321
000110 fb c8 84 3f 84 a5 3a be 9a 25 7c 3f 01 1a 8f 3f
       1.0373834 -0.18227202 0.98494875 1.1179811
000120 22 f2 74 3f ac 0a 3a 3f 96 f8 4a 3f 1d 6d 22 3e
       0.95681965 0.72672534 0.7928556 0.15861936
000130 06 84 11 3f 38 10 6e be b9 75 29 bf fb c1 92 bf
       0.56842077 -0.23248374 -0.66195256 -1.1465448
000140 ab c0 26 be 0d f6 61 3f 31 29 69 3d 28 31 0a bf
       -0.16284434 0.8826607 0.05692405 -0.53981256
000150 2b c7 92 3f 58 4a bd 3f df a7 ec bf f0 d5 f7 bd
       1.1467031 1.4788313 -1.848873 -0.12101352
000160 92 73 c7 3d 6c ab 1f be f7 40 23 bf 16 5d 2b bf
       0.0973884 -0.15592736 -0.63771003 -0.6693891
000170 b7 ef 44 3f f8 e4 64 3f 28 e3 03 bf 12 b7 aa be
       0.76928276 0.8941188 -0.5151849 -0.33342797
000180 84 b1 1b 3f 82 7d df 3e ed 7f 1f bf 97 c0 81 3e
       0.6081774 0.43650442 -0.62304574 0.25342247
000190 38 e2 cc 3f a5 76 d3 be fe 12 83 3f 24 a7 69 3e
       1.6006536 -0.41301456 1.0240171 0.22817665
0001a0 4e 64 31 3e 46 54 8d be 41 de d2 be 89 cb 53 be
       0.1732342 -0.27603358 -0.4118519 -0.20683111
0001b0 33 78 04 3f 72 55 99 3e 87 aa fc be 1b 39 0d be
       0.5174591 0.29948002 -0.49348852 -0.13791315
0001c0 04 33 35 3f e6 bc 69 bf 47 e6 9d 3f 25 e4 49 be
       0.7078097 -0.9130386 1.23359 -0.19715936
0001d0 f7 48 06 c0 de e5 d6 bf 13 77 c4 bd eb 2e 77 be
       -2.0982034 -1.67889 -0.09593024 -0.24138992
0001e0 76 95 e6 be 36 26 6d be f5 b2 68 bf 78 de 8b 3e
       -0.45035905 -0.23159108 -0.90898067 0.27318168
0001f0 1e 23 d6 bf 96 cb d4 3e e8 f5 ba 3e 3e 47 64 3f
       -1.6729467 0.41561574 0.36515737 0.89171207
000200 85 a0 8b bf 66 3f af 3f 25 2a af bf af d9 58 3f
       -1.0908362 1.3691223 -1.3684736 0.8470716
000210 ce db 44 bf 20 e3 c2 bf 00 52 96 3e 92 8f fd be
       -0.76897895 -1.5225563 0.29359436 -0.49523598
000220 8a c4 af be 3f 0f 57 bf 98 0e 9b be 11 20 85 3f
       -0.34329635 -0.8400764 -0.30284572 1.0400411
000230 2d 43 93 bf bc 54 fd be ec 3a e3 be d3 e1 6d 3e
       -1.1504875 -0.4947871 -0.4438089 0.23230676
000240 8f 94 1d 3e 5b 2c be 3e 0a 1c ff bf e2 e6 2f be
       0.15388702 0.37143216 -1.9930432 -0.17177919
000250 b2 59 1d 3f 3a c3 61 be 38 ef 50 3f 79 8e 9c 3e
       0.6146499 -0.2204713 0.8161502 0.30577448
000260 03 ed 8b 3f 98 24 7a 3e c1 24 cf 3f fb e8 48 bf
       1.0931705 0.24428022 1.6183091 -0.784805
000270 05 13 be be fe e8 8b 3f 44 74 3c 3d 9a b1 8c 3e
       -0.37123886 1.0930479 0.046009317 0.2747925
000280 13 0d 36 bf 22 98 b1 3e 96 b6 22 bf 6b 02 19 c0
       -0.711137 0.3468638 -0.63559854 -2.3907726
000290 51 db 34 bf f4 cf 26 bf ca d9 b3 bf 58 27 ae be
       -0.7064715 -0.6516106 -1.4050839 -0.34014392
0002a0 a0 3d 58 bf 44 c4 87 bf f9 8f b5 3d 11 58 6e 3c
       -0.8446903 -1.060677 0.08865351 0.014547364
0002b0 9e 4c c4 3f 0b a9 54 bf a3 de 2c 3f 3f f1 86 3e
       1.5335882 -0.8307044 0.67527217 0.2635593
0002c0 9c 5e 88 bd 88 bc a8 bf 90 52 d4 3f 04 9c c6 bf
       -0.0665867 -1.3182535 1.6587696 -1.5516362
0002d0 f6 e3 63 3f f7 79 95 3f 69 d2 f0 3f 32 e7 49 be
       0.89019716 1.1677846 1.8814212 -0.197171
0002e0 23 85 ce be 4d 09 23 bf 38 0f 34 3f b7 9b 55 3f
       -0.4033595 -0.63686067 0.7033572 0.83440727
0002f0 2c ad 61 3f 00 4c bd 3d 57 5c 05 3e fb 18 0d 3f
       0.88154864 0.092430115 0.13023506 0.5511624
000300 4a b8 8f 3e eb b4 43 bf 86 58 dd 3f b6 85 05 3f
       0.2807029 -0.76447934 1.729264 0.5215715
000310 37 bf 54 3f 1a d2 41 3f 08 20 91 bf c6 24 16 3f
       0.8310427 0.75711215 -1.13379 0.5864986
000320 2c d3 a0 3c fa d0 04 bf 3d f4 50 3d 83 7f 32 bf
       0.019631945 -0.5188137 0.051014174 -0.6972582
000330 5f 7f 7e bf fd 96 27 3f 6d 34 b4 3f 12 23 5b 3e
       -0.994131 0.65464765 1.4078499 0.21400097
000340 cd 30 89 bf c1 7c 0d 3f 8a 4d c9 3e cb a2 28 3f
       -1.0718018 0.55268484 0.3931697 0.658734
000350 0b 4d 81 bf c5 06 44 3f 0e ed f6 bd 42 df 0a 3f
       -1.0101637 0.7657283 -0.12056933 0.54246914
000360 81 1e 10 3f 02 1a 8e bf fa f8 f6 be eb 23 ff 3d
       0.56296545 -1.1101687 -0.4823683 0.12458023
000370 41 c2 7c be 69 5c 07 3f 8a 75 37 3f 9d c1 36 bf
       -0.24683477 0.5287538 0.71663725 -0.7138918
000380 55 27 8f 3f c4 23 a6 3f f5 48 41 be 0b 9b 35 3f
       1.1183878 1.2979665 -0.18875487 0.709397
000390 29 e8 d6 3f 25 11 c7 bf 81 61 89 3d 2b 2f 93 bf
       1.67896 -1.5552107 0.067080505 -1.149877
0003a0 ec 54 ea 3e 71 c3 4b bf 9e 0c 28 3f 2a d3 f0 3e
       0.45767915 -0.79595095 0.6564425 0.47036105
0003b0 27 43 96 3f 75 e8 a0 3f b6 06 3e 3d cc ca 8d bd
       1.1739243 1.257094 0.04639312 -0.06923446
0003c0 4e c5 97 bc 61 20 49 3d 24 fd b0 be 54 cf 83 3f
       -0.0185267 0.049103145 -0.3456813 1.0297647
0003d0 9c 4b 09 be 44 2b ba bf 8c 78 2b be 0d 29 18 3f
       -0.13407749 -1.4544454 -0.16745204 0.5943764
0003e0 68 58 70 3f ae 30 8d bd 24 55 be be 5a 67 8b 3f
       0.938849 -0.068940505 -0.37174332 1.0890915
0003f0 04 de 1b 3f 84 6d 32 3f 85 2c 9d 3d 5e 0a 21 40
       0.60885644 0.6969836 0.07674507 2.5162578

weight_hh_l1 f4 [256, 64]
000000 81 7f 25 3e 3b 2d ec bd de 56 dd bd cd b2 0d 3f
       0.1616192 -0.115320645 -0.10807584 0.55350953
000010 9c 5b 0e bf d3 dd 18 be 05 4c d6 be f5 fe 88 3e
       -0.55608535 -0.14928369 -0.41854873 0.26757017
000020 ac f9 68 bd 72 28 51 3e 2e 9a be be 80 1a e5 3e
       -0.05687873 0.20425585 -0.37227005 0.4474678
000030 aa 9f 7b bd 70 3f 4c 3d bc 0a 9c 3f a7 fd 11 3e
       -0.061431564 0.049865186 1.2190776 0.14256917
000040 90 a4 68 3f 17 e6 1e bf b5 80 f7 bf f0 d6 c9 3c
       0.908761 -0.6206984 -1.9336153 0.024638623
000050 be 4b 88 3e b5 36 8e 3f 9c 8b 15 3f a4 4a dc be
       0.26620287 1.1110445 0.5841615 -0.43025696
000060 80 a1 c0 bf 27 84 95 bf ca ef a1 3e af 7d f0 3d
       -1.5049286 -1.1680955 0.31628257 0.11742722
000070 ac 58 d1 be 69 51 7d bf 1a 6c 88 bf b7 81 00 bf
       -0.40887964 -0.9895235 -1.065799 -0.5019793
000080 f2 5b d1 be f6 b4 0d bf 10 bc 9c 3d 45 cb df 3f
       -0.4089046 -0.5535425 0.076530576 1.7483908
000090 b4 6d 9c be 90 9b 13 bf a2 60 6d bf b6 1a 1a 3f
       -0.30552447 -0.57659245 -0.92725575 0.6019701
0000a0 06 15 ca bd 53 71 49 3f ad 50 03 be 80 51 86 bf
       -0.09867291 0.78688544 -0.12823744 -1.0493622
0000b0 20 1f fa be ca 0a 5f 3d a4 03 32 3f 20 81 42 be
       -0.48851871 0.05445365 0.69536805 -0.1899457
0000c0 a5 08 0b bf 13 bf e5 3d 88 29 1e bf 25 46 70 3e
       -0.54310066 0.11218085 -0.6178212 0.23464258
0000d0 37 bd 25 be 93 55 f3 3e f2 83 01 bf 0e 3c af 3f
       -0.16185461 0.47526225 -0.5059196 1.3690202
0000e0 6d 99 2d bf fc be c5 be e9 2f 49 bd a4 8f 94 3e
       -0.67812234 -0.38622272 -0.049117956 0.2901584
0000f0 14 d0 98 be b4 e6 5f 3d 26 c4 8d 3e 39 20 ca 3e
       -0.2984625 0.054663375 0.27688712 0.3947771
000100 a4 48 08 3f 12 0a fc be db 93 c3 be cb a1 82 be
       0.5323584 -0.49226433 -0.38198742 -0.25514063
000110 bc ce 72 be eb 01 93 bc a0 8b 22 bf 17 31 9b 3e
       -0.23711675 -0.01794525 -0.634943 0.3031089
000120 d9 3b 32 3f 02 ec ac 3e c4 7d 38 3d 36 d3 67 3f
       0.6962257 0.3377381 0.045041814 0.9055666
000130 59 e7 42 3e 0b a1 13 bf 65 ab 32 3f c0 26 46 3f
       0.19033565 -0.5766761 0.6979278 0.7740288
000140 c9 e1 db bf a1 78 67 3f 99 a5 96 3f 2e a8 94 be
       -1.7178279 0.9041844 1.1769286 -0.2903456
000150 9c 7e 5c bd cb 93 df bd 7e aa 27 bf 21 31 9e 3e
       -0.05383168 -0.10916861 -0.65494525 0.30896857
000160 5d d0 a0 3e 88 bc 51 bf 1b b3 59 3f 5c 6e 84 3e
       0.3140897 -0.819283 0.8503892 0.25865448
000170 93 62 87 3f c4 7e db bd 4a d9 fc bd 6a 67 98 3d
       1.0576957 -0.10717538 -0.12346132 0.074416
000180 1b ae b7 3e fd bc 1d bf 18 58 26 be 26 08 21 3f
       0.3587502 -0.616165 -0.16244543 0.6290306
000190 bc a6 d1 be 68 91 39 3f a6 5b 74 be b6 41 84 3e
       -0.4094752 0.724875 -0.23863086 0.25831383
0001a0 80 23 b2 3c 7e 2e a3 be bf 4e c7 3e 76 c7 b8 be
       0.021745443 -0.31871408 0.38927266 -0.36089677
0001b0 39 88 86 3e 1a 3e 1d bf 82 54 2f be 60 08 13 3f
       0.26275805 -0.61422884 -0.17122081 0.57434654
0001c0 fc d1 54 bf 98 d8 42 bf f5 73 09 3f e3 3c ad 3e
       -0.8313291 -0.76111746 0.5369256 0.33835515
0001d0 e2 2a 53 bf 56 b0 43 be 89 52 5c be 6e 87 70 3f
       -0.8248731 -0.19110236 -0.2151586 0.9395665
0001e0 f7 64 49 3f 8d fa a8 bf 60 27 0b bf 77 26 45 3e
       0.78669685 -1.3201462 -0.54356956 0.19252954
0001f0 ab be 85 3c 73 ac c6 3e ed a8 89 3e d7 9b 8b bf
       0.01632627 0.38803443 0.26886693 -1.0906934
000200 e4 0c 96 bf dc 34 a8 bf 2e a0 d4 3f e8 c1 2a be
       -1.1722684 -1.3141131 1.6611383 -0.16675532
000210 d3 f9 eb be ba b1 60 bf e0 65 16 3f 7a f0 23 bf
       -0.46089038 -0.8777119 0.587492 -0.64038813
000220 82 bc 61 3f 71 69 11 bf 40 2e a1 3f c2 a0 d2 bf
       0.88178265 -0.56801516 1.2592239 -1.6455309
000230 e2 b8 97 3d 84 d5 09 bf cc fa 82 be 46 5d 1c 40
       0.074083105 -0.53841424 -0.25581968 2.443193
000240 3f e0 1a 3e d7 f0 de be 4c e6 74 bc 95 5f 29 bf
       0.15124606 -0.4354312 -0.014947485 -0.6616147
000250 1c 01 80 bf 4f 75 70 3f 47 09 de 3e 7f 1c 5c c0
       -1.0000339 0.93929 0.43366453 -3.4392393
000260 f6 75 1b c0 43 d0 c7 3d 77 8e ad 3f b7 45 a2 3f
       -2.4290748 0.0975652 1.3559102 1.2677525
000270 90 ed 65 be a7 27 78 be 50 99 f1 be c2 26 25 3e
       -0.22453904 -0.24233876 -0.4718728 0.16128066
000280 af 59 37 bf 0a 99 0c be ed 59 ee 3e 67 f7 2b 3f
       -0.7162122 -0.13730255 0.46552983 0.6717438
000290 da 60 1c c0 ee ae f0 3e 04 89 a5 be 52 7d c1 3b
       -2.4434114 0.4700846 -0.32331097 0.005904832
0002a0 62 30 43 3f d9 9a 32 3f 90 7e 71 40 35 00 80 bf
       0.762457 0.6976753 3.7733498 -1.0000063
0002b0 61 41 26 bf f3 d4 ec bf 71 ac e1 3f b3 60 0d c0
       -0.6494351 -1.8502487 1.763075 -2.209027
0002c0 87 97 67 be 02 a0 00 40 41 2e 4f bf 3a 5b fd 3c
       -0.22616397 2.009766 -0.8092995 0.03092729
0002d0 42 40 fa bd cd 78 2a bf 99 4f 37 3f be a2 93 bf
       -0.122192875 -0.6659058 0.7160583 -1.153404
0002e0 ba d5 b0 be c8 3e cb bf 1c b0 a5 bf b0 00 0a 3f
       -0.3453806 -1.5878534 -1.2944369 0.539073
0002f0 57 ac f2 3e f3 d0 57 3e 70 db eb 3e 86 7c 06 3f
       0.4739711 0.21075802 0.46065855 0.5253376
000300 fc f0 fc be af 79 a5 bf 8b 52 83 be 68 9e 2f bf
       -0.49402606 -1.292776 -0.25648913 -0.68601084
000310 ca 98 c4 3c 87 56 17 3d 0e a7 c4 3f b7 bc 4c 3f
       0.023998637 0.036947753 1.5363481 0.79975456
000320 79 44 36 bd f4 d8 65 3e d2 bf 5c 3e 53 e6 67 3f
       -0.044498894 0.22446042 0.21557549 0.9058582
000330 44 c1 d0 be d8 79 09 3d 47 ec 92 3d b3 ff 9d 3e
       -0.4077245 0.033563465 0.071739726 0.30859146
000340 ef 0e 32 3f 79 3c f2 be 61 3f 82 bb 70 61 cf bf
       0.69554037 -0.47311762 -0.0039748405 -1.620161
000350 71 9e c6 be fd a4 30 be 6a 43 f2 3e c0 2d 76 be
       -0.38792756 -0.17250438 0.47317058 -0.2404089
000360 75 26 7f be cf 09 e7 3e 00 a8 13 3f fb 82 80 3d
       -0.24917014 0.4512467 0.5767822 0.062749825
000370 c5 4f 2e c0 73 49 4c 3f a8 30 51 bf 1a ca 79 be
       -2.7236187 0.79799575 -0.8171487 -0.24393502
000380 46 08 e2 bf 8e bf fc bd b4 79 59 bf 77 18 0b bf
       -1.7658775 -0.12341224 -0.8495133 -0.54334205
000390 78 16 65 3f 36 ec 8a be 47 95 0a bf 69 4d da be
       0.8948741 -0.2713334 -0.5413403 -0.42637184
0003a0 a8 3a e4 bf 11 cd e7 bd f5 44 81 bd 8c 93 f6 3f
       -1.78304 -0.1131841 -0.06311981 1.9263778
0003b0 7c 0b 15 bf d5 ec ce be b7 28 8b be 1e 12 b5 bd
       -0.5822065 -0.40415064 -0.271795 -0.08841346
0003c0 b1 73 3a 3f 9a 88 c7 3b 42 c5 da be a7 8c b3 3f
       0.7283278 0.006089282 -0.4272862 1.4027299
0003d0 c8 24 15 bf ee cc 0a be 36 64 9e be e0 42 93 3d
       -0.5825925 -0.13554737 -0.3093583 0.0719049
0003e0 0c be 3e 3f a0 1a 5c be 99 b7 be bf e5 b8 a7 3e
       0.7450874 -0.21494532 -1.489978 0.3275825
0003f0 2c d1 95 3f be 35 bb be 3a 5e 26 3f bd 8e fc 3e
       1.1704459 -0.3656444 0.6498753 0.4932765

bias_ih_l1 f4 [256]
000000 27 6e 86 bd bb 40 0d bf 61 4b 1b bc c0 1a 80 bf
       -0.06563979 -0.55176896 -0.009478421 -1.0008163
000010 51 90 43 bc 4e 69 47 3d 71 d1 28 bf 43 46 7d 3d
       -0.011936263 0.04868441 -0.6594458 0.061834585
000020 26 36 a1 3e 55 67 79 bf ef b7 53 be 1c e4 18 bf
       0.31486624 -0.974233 -0.20675634 -0.5972307
000030 b2 74 86 3f a4 15 89 be aa 11 a0 3e 9a af a2 be
       1.0504363 -0.26774323 0.31263477 -0.31774598
000040 12 83 81 bf 56 c6 6e 3e 55 f2 4e bf 6f a2 14 bf
       -1.0118124 0.23317847 -0.8083852 -0.58060354
000050 f5 11 60 bf 95 48 31 be 3d f2 84 bf 61 93 9a bf
       -0.875274 -0.17312844 -1.0386425 -1.2076226
000060 3c 17 64 be 6a 2a 43 bf 2f 3b 05 bf 11 14 e9 3e
       -0.22274488 -0.76236594 -0.5204343 0.45523122
000070 60 ea 53 bf 05 3e 63 bf 20 e1 cc 3d ff 8c c7 3e
       -0.827795 -0.8876651 0.10003877 0.3897476
000080 02 75 07 bf 9b 0d 3d 3d aa 4a 1d 3d 10 bf a3 3d
       -0.52912915 0.046155553 0.038401283 0.07995427
000090 b4 d9 b5 bf bc 8c 50 3e 47 a2 9e be 56 1b 02 bf
       -1.4207063 0.20366186 -0.30983183 -0.5082296
0000a0 b7 66 7b 3d d2 30 c6 3d cf ed fc be 75 e4 ce be
       0.061377253 0.096772805 -0.49400184 -0.40408674
0000b0 7b 42 88 bf 8e fb ad 3e 67 53 6a 3e 6a f5 df be
       -1.0645288 0.33980983 0.22883378 -0.43741924
0000c0 54 c3 17 bf ec 5a a4 be 62 a3 d9 3c 2d f1 50 bf
       -0.5928242 -0.32100618 0.026567165 -0.81618005
0000d0 30 ad 1c bf a0 3c 58 bf 39 c7 82 be 8a 4a 81 be
       -0.61201763 -0.84467506 -0.2554262 -0.2525218
0000e0 de a5 45 be 36 11 e9 3e f0 29 31 be 26 6f af be
       -0.19301555 0.45520943 -0.17301154 -0.34264487
0000f0 82 94 5b be 43 b0 d4 bd 80 8c 83 bf 96 9e 45 bf
       -0.2144337 -0.10385182 -1.0277252 -0.7719511
000100 ef f1 ed 3e 6a 3d 50 be 71 9a d1 be 19 6a 4d 3f
       0.46473643 -0.20335928 -0.40938142 0.8024002
000110 00 f0 81 be b2 bd c7 be 24 23 f6 be 44 6d b3 3e
       -0.25378418 -0.39011914 -0.48073685 0.350443
000120 27 d9 6c 3f 5c da 50 be 74 0b cd 3e 62 9f 67 3f
       0.9251885 -0.20395797 0.400478 0.90477574
000130 7d 03 6b 3f 40 61 d8 bf 91 3a a7 3f e3 25 5a be
       0.918022 -1.6904678 1.3064748 -0.21303515
000140 01 5d 47 bf dc a6 de be bc 2a ae 3e 98 6e 37 bf
       -0.7787629 -0.4348668 0.3401698 -0.7165313
000150 87 ca 7d 3f e7 69 fe be f3 1e 54 be 79 e3 40 bf
       0.9913716 -0.49690172 -0.20714931 -0.75347096
000160 8a f8 76 be 49 c0 17 bf 89 a2 bf be 10 23 4b 3e
       -0.24118248 -0.5927778 -0.37428692 0.19837594
000170 79 cd bd bd 70 9b 3b bf 0f b5 84 3f 38 e6 5c bf
       -0.092677064 -0.73284054 1.0367755 -0.86288786
000180 54 a8 36 bf 6f 9b d0 be 91 6d be bf cf 32 2d bd
       -0.713506 -0.40743586 -1.4877187 -0.042284783
000190 a3 61 9c bf e2 60 a4 be 8e 52 9f 3e 6b 2a 99 3e
       -1.2217296 -0.32105166 0.31117672 0.29915175
0001a0 11 64 2f bd cc 76 9a 3f 95 18 94 be 7d 9d 8d bf
       -0.04282004 1.2067504 -0.28925005 -1.1063687
0001b0 b2 d7 17 3f f5 b2 f0 3f 07 cc 51 3f b9 6d 74 be
       0.593135 1.8804613 0.81951946 -0.23869981
0001c0 a1 6d 9b 3e c5 e7 32 3f 57 3e 62 bf 41 45 8e bd
       0.30357078 0.698849 -0.88376373 -0.06946803
0001d0 9c 6a 56 3e 3c a1 ab 3f 41 5e 43 be f2 14 9f bf
       0.20939106 1.340858 -0.19078924 -1.2428267
0001e0 6f 99 c7 3c 7b 66 ae 3f 28 33 b9 be 82 23 14 3e
       0.024365155 1.3625025 -0.36171842 0.1446667
0001f0 1d 77 12 be 96 68 a6 3e 32 32 70 3f b8 6b 27 3f
       -0.1430325 0.32501668 0.9382659 0.6539874
000200 ff c1 7d be 8c 78 c8 3e 8e 87 8f 3d 64 d9 00 be
       -0.24781035 0.3915447 0.07008277 -0.12582928
000210 28 1b 66 3e d7 15 7b bf da 35 c2 3e 43 95 d6 be
       0.22471297 -0.980802 0.3793171 -0.41910753
000220 35 86 9d be 35 93 b0 3e 64 52 8e be 35 1e 3a be
       -0.30766454 0.3448731 -0.27797234 -0.18175586
000230 5c 48 9e 3e 41 10 98 be 91 57 a6 bf 63 97 5e bd
       0.3091458 -0.296999 -1.2995473 -0.054343592
000240 59 4b 58 be ea 58 4e be 48 65 26 bf 2a 61 aa 3e
       -0.21122493 -0.20151106 -0.6499829 0.33277255
000250 0a dd cc bd 7e 7b ed bd 38 8a fa bd b0 d8 fe bb
       -0.10003097 -0.1159582 -0.122333944 -0.007777296
000260 73 57 89 be 4d 72 49 3e 99 08 ad bf ce 9c 92 3e
       -0.2682453 0.19672509 -1.3518249 0.28635257
000270 7c 66 de 3e be e8 0e 3f 33 a4 f4 3c c3 a4 8a 3e
       0.43437564 0.55823886 0.029863453 0.27078828
000280 98 e5 0b 3c da 14 dc 3d fb de 61 3f 2d df d1 be
       0.008538626 0.107461646 0.88230866 -0.40990582
000290 b7 ab 06 3d 84 35 7e 3d 8a 78 b0 3e a3 75 a2 be
       0.032878604 0.062062755 0.34466964 -0.31730375
0002a0 2d 62 1e 3f 35 d2 00 3e 80 f8 eb bc b9 89 af 3e
       0.61868554 0.12580188 -0.028805017 0.34284762
0002b0 54 3b 61 be 17 18 07 3f 2f 85 39 be de af f1 bd
       -0.21995288 0.52771133 -0.18117212 -0.11801122
0002c0 00 80 0a 3d a9 54 c6 3e 43 79 f1 bd 3c b5 9e be
       0.033813477 0.38736466 -0.11790707 -0.30997646
0002d0 f0 ab 1b 3f 94 c2 fe be f1 8d c9 3c f3 e3 a2 3e
       0.6080923 -0.49757826 0.024603816 0.31814536
0002e0 b0 eb d2 3d 3b 97 24 3f c7 a5 ab 3e f7 57 48 bf
       0.1029886 0.6429326 0.33524916 -0.78259224
0002f0 65 2f 17 bf be 24 96 3e b5 b8 7d bd e0 38 af 3e
       -0.59056693 0.29324907 -0.06194373 0.3422308
000300 d1 d8 12 bf 55 04 82 bf d4 c7 47 bf a1 8b 1f bf
       -0.57362086 -1.0157572 -0.7803929 -0.6232243
000310 11 6d 70 be 3a 2f 91 3d c4 8c c4 be 8a f2 19 bf
       -0.23479106 0.07089086 -0.38388646 -0.6013571
000320 54 d9 5b 3e 42 57 5f bf 2a 47 10 bf 97 bd bc bd
       0.21469623 -0.8724252 -0.5635859 -0.09215849
000330 6d 60 0b be 9d 37 8c be 89 56 7c bf 2c c3 06 be
       -0.13611002 -0.2738618 -0.9856954 -0.1316039
000340 5f 78 98 bf 96 47 c0 bd fb 85 60 3f eb 13 1f be
       -1.1911734 -0.09388654 0.8770444 -0.15534942
000350 f6 66 fb 3e 04 6d 96 bf f9 0c ed be 0f f0 5b bf
       0.4910199 -1.1752019 -0.4629896 -0.85913175
000360 ce cb bd bc be 78 4f 3e 70 8b 83 bd 8a fb b8 3e
       -0.02316847 0.20260903 -0.0642308 0.3612941
000370 a5 29 97 bf ea 5a 22 bf fa 09 49 3f 12 b7 1a bf
       -1.1809584 -0.63419974 0.7853085 -0.60435593
000380 d9 80 26 be c6 88 91 bf 3f 2f f4 be 8e da 8b 3e
       -0.16260089 -1.1369865 -0.47692296 0.27315181
000390 63 8d b7 bf d1 94 d6 bd a9 4e a2 be 74 68 24 be
       -1.4340023 -0.10477603 -0.31700638 -0.1605547
0003a0 08 3d 84 3e 5a d1 0d 3f 94 1c 85 bf 5f a4 3e bf
       0.25827813 0.5539757 -1.0399346 -0.7446956
0003b0 76 23 7b be 3f 04 00 3e 96 a9 2f 3f 3d 7a 07 bf
       -0.24525246 0.1250162 0.6861814 -0.52920896
0003c0 24 39 dc be 42 36 af 3d 17 8f 5a 3e 87 7e 85 bf
       -0.43012345 0.08555271 0.21343647 -1.0429238
0003d0 1c 79 2e bd 55 34 27 3e 42 84 81 be 5a bd 59 be
       -0.042595968 0.16328557 -0.25296217 -0.21263638
0003e0 8a cb 1f bf d2 49 6a 3f 73 a0 c1 bf b9 a0 62 bf
       -0.6241995 0.9151889 -1.512709 -0.88526493
0003f0 11 11 e2 be ec fd 65 be 01 ad b2 be 49 83 2b bf
       -0.44153646 -0.22460145 -0.34897617 -0.669972
